models/nn_model_quant_dynamic.pt (torch, 71473 bytes, 15 tensors)

cpu f4 [256]
000000 09 9e 94 3c 79 84 9c bd d0 f4 87 bd da eb a8 3c
       0.018141763 -0.07642455 -0.06638491 0.020620275
000010 44 98 0f 3c 46 ec 0a 3e 41 2c f0 3d b6 01 bb 3c
       0.00876433 0.13566694 0.11727191 0.022827964
000020 1e de 20 bc a2 fe 1a be ac 09 9c 3d 01 04 a6 bd
       -0.009818582 -0.15136197 0.07619032 -0.081062324
000030 05 3b 1d 3d 1e 69 10 bd 0f 8a 10 3e 8d 13 aa bd
       0.038386364 -0.035256498 0.14115165 -0.0830451
000040 40 8a bc bd b2 13 13 3e a9 b1 ac 3d 29 ad 76 bd
       -0.092060566 0.14362982 0.084323235 -0.060223732
000050 5a 4f 14 be 17 08 c5 3d 3f f6 12 be 3d a3 a1 bc
       -0.14483395 0.09620684 -0.14351748 -0.019731158
000060 26 b4 12 3e 09 cf 1b 3e 13 02 89 3d f8 24 cb 3b
       0.14326534 0.15215696 0.06689849 0.0061994754
000070 e5 cc d9 bd 6f 8e da 3d 35 23 f3 3a f5 3e 00 3e
       -0.10634784 0.10671698 0.0018549921 0.12524016
000080 6c 17 cb 3d 45 47 8c 3c bb c3 05 3e 10 7b 8c bd
       0.09916577 0.017123828 0.13062946 -0.0685941
000090 6a df 9f 3d a8 59 03 3e 5d 64 e0 bc 9c 80 53 bd
       0.07806285 0.1282717 -0.027391607 -0.051636323
0000a0 a9 34 1c be d0 1c 08 3e 8d 3c 34 bd 4d 61 11 be
       -0.15254463 0.13292241 -0.04400306 -0.14197274
0000b0 36 0c 1d 3e a3 07 9a bd f1 5d d6 3d 95 f3 81 3d
       0.1533669 -0.07520988 0.10467137 0.06345288
0000c0 2a 03 cf bd d3 d2 0d 3e 2b 7f 83 bd 26 d8 2f bd
       -0.10108025 0.13849954 -0.0642074 -0.042930745
0000d0 aa e8 c3 38 6d 9e 64 bd 54 af 0f be c6 5e f5 3d
       9.341662e-05 -0.05581515 -0.14031726 0.11980967
0000e0 de d2 f4 bd 99 d6 02 3e 4d db 1a 3e c5 2c ff bd
       -0.11954282 0.12777175 0.15122719 -0.12459711
0000f0 88 d7 ae 3c 54 8c 19 3e 9e 71 1b be 29 30 b1 bc
       0.021343008 0.14994937 -0.1518006 -0.02162941
000100 a6 cd 58 3d aa c3 a7 bd 76 16 93 bd 71 dc ac bc
       0.052930497 -0.08191617 -0.071820185 -0.021101208
000110 d5 e4 a6 bd 7c f1 e8 3b d4 ea 11 be b6 91 d2 bd
       -0.08149115 0.0071088653 -0.14249736 -0.102816984
000120 99 fa bf 3d da b9 6e 3d f7 6b f1 bc 04 9f 84 3d
       0.093739696 0.05828271 -0.029470427 0.06475642
000130 d2 74 6e 3d e1 bd d3 3d 2c cd 7b ba 72 58 19 3d
       0.058216877 0.10338951 -0.0009605463 0.037437864
000140 95 1d 0a bd 6a 4d b6 3d ff f8 cb 3b db ad 62 bd
       -0.033719618 0.08901484 0.006224751 -0.055341583
000150 5a 12 91 bd 84 c4 8b bd a4 c6 c0 bd b5 2f 07 3e
       -0.070835784 -0.06824592 -0.09412888 0.13201793
000160 aa 8a c0 3d 5d 1b 01 3e dd e7 e1 3c 1c f0 8f 3d
       0.09401448 0.12608095 0.027576381 0.07028219
000170 dd c8 1b be cf f1 60 3d 69 99 08 be ce ce fe bd
       -0.15213342 0.054918107 -0.13339771 -0.124417886
000180 0f 1c dc bc 1c 1f 03 be 0e f0 47 3d e9 cb 1d bd
       -0.026868848 -0.12804836 0.04881292 -0.038524542
000190 72 d7 2b 3d 1d ef bb 3c 2d 56 e6 3c 03 71 ae 3c
       0.04195351 0.022941167 0.028117264 0.021294123
0001a0 c8 27 12 3d 9c 16 a4 3d 51 19 00 3b f1 1e 5b bd
       0.03568247 0.08012125 0.001954634 -0.053496305
0001b0 31 54 f3 bd a1 fb 1b 3e 55 0b c9 3b 1d 2d d1 bd
       -0.118812926 0.15232708 0.006135384 -0.10213683
0001c0 0c d1 1f be 06 05 0b 3e 63 8d 69 3d 5b 9d 1d be
       -0.15607089 0.13576135 0.057019603 -0.15392058
0001d0 10 f2 13 3e e8 8f 21 bd 63 b8 a6 bd 5b ab 21 3e
       0.14447808 -0.03944388 -0.08140638 0.15788023
0001e0 9c 97 9a 3d 1f 3e 5c 3d aa d3 6d 3c 90 07 22 3d
       0.075484484 0.05377018 0.014515797 0.039557993
0001f0 0f 0e 14 be ff 53 00 3b 38 8d 34 3d e5 e2 e1 3d
       -0.14458488 0.0019581316 0.04407999 0.11029605
000200 6c 2d 9d bd fa 23 bb 3d b0 8f cb bd 3c c2 02 be
       -0.07674679 0.09137721 -0.099395156 -0.12769407
000210 7c fe 88 3d 33 5d 3d 3d dd e5 ea bd eb 90 fa 3d
       0.06689164 0.04623146 -0.11469624 0.12234672
000220 2c 9d 4d 3c 1a 4e 6a bc 92 2c fa bd 16 6b e3 3d
       0.01254968 -0.014300847 -0.12215532 0.111044094
000230 a7 b0 bc 3d 9a 06 1a 3d 92 b5 0a 3e ce 6f 20 be
       0.09213381 0.037603952 0.13545826 -0.1566765
000240 7d e9 b9 3d d8 69 b6 bd 4d 20 99 bc 7a 72 fe 3d
       0.090777375 -0.08906907 -0.01869216 0.124241784
000250 fe ac 1f be cc 91 3b bd 9b d5 b4 bb 31 fe 08 3e
       -0.15593335 -0.04579334 -0.005518628 0.13378216
000260 09 5a e8 bc 1b 2a ac bd 8e ec 5e 3d 3a 1b 14 be
       -0.028363245 -0.084064685 0.054424815 -0.14463511
000270 6d df f4 bd 38 1d 10 be 97 9a 8a 3d 21 67 46 bd
       -0.119566776 -0.14073646 0.06767767 -0.048438195
000280 35 7c 17 be ec 6b 0c bd d8 8c b5 bd e4 66 5b 3d
       -0.14793475 -0.03428261 -0.088647544 0.05356492
000290 6b 5f a4 bd a6 94 9e bd 58 47 18 be 94 bc eb bc
       -0.08026012 -0.07743196 -0.14870965 -0.028776444
0002a0 78 fe 7a 3d 1f 3e 58 bb 1c 02 bc 3d c2 78 8c 3d
       0.061277837 -0.0032996011 0.0918009 0.0685897
0002b0 41 0c ce bd 67 7e 09 bd 93 0a 80 bd 7b 5f 97 3c
       -0.10060931 -0.033567812 -0.06252017 0.018478146
0002c0 a3 5c a3 3c b1 f0 bf bd 21 62 20 be 96 98 d2 3c
       0.019941634 -0.0937208 -0.15662433 0.025707524
0002d0 f8 3a 40 bd 65 b8 c0 3d e0 46 90 3d af 64 5f 3c
       -0.046931237 0.094101705 0.07044768 0.013634845
0002e0 51 84 de 3d f9 4f b1 3d e6 1e 13 be 3f e8 bd 3d
       0.10865081 0.08657832 -0.14367256 0.09272813
0002f0 7e c5 ca 3c ec 48 d0 3c e2 08 0b be a8 48 f8 bd
       0.024752375 0.025425397 -0.13577607 -0.12123233
000300 4d f8 09 3e 5b b6 c8 bc 6b 5a d3 bd 7c e4 c8 3d
       0.13473625 -0.024501016 -0.1031998 0.09809205
000310 d3 a5 0b bd 41 73 8b bd 0a 22 0a 3d cf 30 19 be
       -0.03409369 -0.06809092 0.03372387 -0.14960025
000320 00 4d b5 3d 2b 87 0b 3e 80 9b 8e bd 64 4c f1 bc
       0.08852577 0.13625781 -0.06963253 -0.029455371
000330 14 bd b6 3d b7 d9 15 3d 7d 4b bf bd b0 c1 74 bc
       0.089227825 0.036584582 -0.0934057 -0.014938757
000340 10 26 6a 3d 33 d1 7e 3d 4a c1 f3 3d 13 9d 0a be
       0.057165205 0.062211227 0.11902101 -0.13536482
000350 9e 1f d5 bd 34 3d 49 bd c7 6b 9c 3d 77 8f 16 be
       -0.10406421 -0.049130633 0.076377444 -0.14703165
000360 f8 ed 8c 3d f7 57 1c 3e 3b 45 f0 bd f8 3e f6 3d
       0.068813264 0.15267931 -0.11731955 0.12023729
000370 63 2c b0 3c df 0a 89 3c 56 c7 08 be 03 b9 9f bc
       0.02150554 0.016728817 -0.1335729 -0.0194974
000380 87 8a 4a 3d 74 f5 f2 bd 4c 70 dd bd f6 cb 2e bd
       0.049448516 -0.11863223 -0.108124346 -0.04267498
000390 37 9d f5 bb 67 09 e6 3d a1 14 7d 3d 88 85 ae bc
       -0.007495548 0.11232262 0.06178725 -0.021303907
0003a0 e7 9a 08 be d3 87 0d 3e 00 12 86 3c 84 c9 dd bd
       -0.1334034 0.13821344 0.016366005 -0.10829452
0003b0 c9 f1 0e 3a a7 fb 9e 3d de e9 42 3b 1d 5b 1c be
       0.0005452899 0.077628426 0.0029741446 -0.15269132
0003c0 2b 2f 9a bd 4c 6b 08 be b1 3f 35 3d 92 fb 08 3d
       -0.07528528 -0.1332218 0.044250194 0.03344304
0003d0 99 b5 b8 3b 5d 61 fd bd c0 f4 c4 3d 86 cd 06 3e
       0.0056368825 -0.12372086 0.09616995 0.13164338
0003e0 30 8a 16 3e 6c 93 bb 3d 8e c9 db 3d 8f db 8e bc
       0.14701152 0.09158978 0.10731803 -0.017438678
0003f0 9e 39 8d 3c 6f fe 0b be d1 b3 4a bd 8a 59 77 bd
       0.017239388 -0.13671277 -0.049487893 -0.060388125

net.1.weight f4 [256]
000000 2a 27 87 3f f4 ea 7c 3f 2d 38 7b 3f be 7b 84 3f
       1.0558827 0.9879601 0.9813259 1.0350263
000010 8a 52 7c 3f bf af 7d 3f 94 e4 83 3f fe 9a 7e 3f
       0.98563445 0.9909629 1.0304132 0.9945525
000020 44 85 7f 3f 3a 6f 80 3f 30 52 7a 3f 15 1b 80 3f
       0.9981272 1.0033944 0.9778166 1.0008265
000030 15 b4 72 3f fa e4 85 3f 78 96 7c 3f cd c2 81 3f
       0.94806033 1.0460503 0.986671 1.0137573
000040 ba 8b 7e 3f a1 cc 80 3f 23 c9 87 3f ea 7b 80 3f
       0.99431956 1.0062448 1.0608257 1.0037816
000050 4b 11 7f 3f cb d4 86 3f 16 6b 73 3f f1 88 7d 3f
       0.9963576 1.0533689 0.95085275 0.9903708
000060 1f bf 81 3f 3d c8 76 3f d3 e1 7f 3f c9 8e 74 3f
       1.013645 0.9639929 0.99953955 0.9553037
000070 f6 48 7a 3f 85 2e 7d 3f cc 63 81 3f e8 d6 84 3f
       0.9776758 0.9889911 1.010858 1.0378084
000080 f2 22 79 3f 50 47 84 3f c6 33 82 3f 26 17 7b 3f
       0.9731895 1.0334263 1.017205 0.98082197
000090 bc 1a 86 3f f7 fd 74 3f e5 56 84 3f 7e 60 79 3f
       1.0476909 0.9570002 1.0339018 0.9741286
0000a0 9d dc 78 3f 35 dc 80 3f ee 66 8b 3f 5e 4f 7b 3f
       0.9721163 1.0067202 1.0890787 0.9816798
0000b0 9c ca 76 3f 10 2a 7e 3f f6 8d 82 3f 8f c4 77 3f
       0.9640291 0.9928293 1.0199573 0.967843
0000c0 6d 44 86 3f 5a f4 7a 3f d6 60 79 3f 3a 87 82 3f
       1.0489632 0.980291 0.97413385 1.0197518
0000d0 74 6c 7c 3f 33 e3 86 3f 6e 59 7e 3f 59 52 78 3f
       0.98602986 1.0538086 0.9935521 0.9700065
0000e0 7f 8a 81 3f db 9d 7e 3f a2 f2 78 3f 82 4f 71 3f
       1.0120391 0.9945962 0.9724523 0.94261944
0000f0 03 fd 82 3f c6 c8 83 3f e7 16 7f 3f 36 c6 81 3f
       1.0233463 1.0295646 0.9964432 1.0138614
000100 5e 23 7b 3f c2 85 7b 3f ad f7 78 3f a1 c4 81 3f
       0.9810084 0.98250973 0.97252923 1.0138131
000110 eb 9d 7c 3f d6 9a 7f 3f af a5 84 3f b2 7d 7c 3f
       0.98678464 0.99845636 1.0363063 0.98629296
000120 ea 89 7b 3f f2 ff 7d 3f d4 87 83 3f c0 61 7d 3f
       0.98257315 0.99218667 1.0275826 0.9897728
000130 f4 2a 71 3f 82 b5 80 3f 32 7b 78 3f f9 2b 7e 3f
       0.94206166 1.0055392 0.9706298 0.99285847
000140 60 23 84 3f dc ab 83 3f 1a d6 81 3f ab 0b 81 3f
       1.0323296 1.0286822 1.0143464 1.0081686
000150 69 85 81 3f f8 f6 77 3f dd ef 77 3f e6 16 8a 3f
       1.0118839 0.9686122 0.9685038 1.0788238
000160 21 1b 84 3f be 66 83 3f da 4e 7c 3f cc e3 7b 3f
       1.0320779 1.026573 0.9855782 0.98394465
000170 9e 5a 78 3f 8a f0 7d 3f 96 12 7a 3f 2e 72 77 3f
       0.9701327 0.9919516 0.9768461 0.966586
000180 b8 3e 81 3f 4e 02 88 3f c1 ea 73 3f d6 53 76 3f
       1.0097265 1.0625703 0.9528008 0.96221673
000190 72 ab 7c 3f 71 15 82 3f f2 f2 7d 3f d2 12 76 3f
       0.98699105 1.0162793 0.9919883 0.9612247
0001a0 e2 d8 83 3f b1 f1 73 3f 67 fe 7f 3f 11 f0 80 3f
       1.0300562 0.95290667 0.9999756 1.0073262
0001b0 64 f7 7b 3f 61 62 84 3f f6 a9 85 3f e7 c5 80 3f
       0.98424363 1.0342523 1.0442493 1.0060395
0001c0 59 6d 7b 3f 50 63 87 3f b7 f8 7e 3f 85 9d 80 3f
       0.98213726 1.0577183 0.9959826 1.0048071
0001d0 2c 4b 79 3f 9b 8c 7c 3f d2 05 83 3f 5e f7 7a 3f
       0.9738033 0.98652047 1.0236151 0.980337
0001e0 37 33 7d 3f b8 6d 83 3f df 5c 84 3f 4c 94 81 3f
       0.9890627 1.0267859 1.0340842 1.0123382
0001f0 78 6c 7b 3f 95 e8 78 3f 10 bd 7c 3f ab 7d 82 3f
       0.98212385 0.9722989 0.98725986 1.0194601
000200 03 dd 82 3f dd 1d 84 3f 98 25 7e 3f 06 d3 7c 3f
       1.0223697 1.0321614 0.99276114 0.98759496
000210 20 79 7b 3f e2 99 7f 3f ab e6 7e 3f a3 60 7c 3f
       0.982317 0.9984418 0.9957072 0.98584956
000220 85 cf 7c 3f f5 2e 75 3f a4 b6 79 3f 28 20 80 3f
       0.9875415 0.95774776 0.9754431 1.0009813
000230 e5 23 81 3f 07 1c 80 3f 88 46 82 3f 6d c9 83 3f
       1.0089079 1.0008553 1.0177774 1.0295845
000240 17 d4 72 3f 99 c5 81 3f 48 bd 80 3f f2 27 7c 3f
       0.94854873 1.0138427 1.0057764 0.9849845
000250 c2 e9 84 3f 2a 8f 7c 3f 8c 09 7e 3f 74 64 75 3f
       1.0383837 0.9865595 0.9923332 0.95856404
000260 59 dc 7f 3f ff 49 84 3f b3 d3 81 3f 67 d7 75 3f
       0.999456 1.0335082 1.014273 0.960318
000270 51 ea 76 3f e0 cf 82 3f 14 54 7f 3f 42 b5 7c 3f
       0.9645129 1.0219688 0.9973767 0.9871408
000280 5c 58 78 3f db b8 7c 3f 7e 23 6e 3f d0 20 7f 3f
       0.97009826 0.9871957 0.93022907 0.9965944
000290 58 59 86 3f 12 ee 7e 3f b6 09 84 3f 7f 4c 81 3f
       1.0496016 0.99582016 1.0315464 1.010147
0002a0 0a 59 80 3f 71 0b 80 3f d7 67 7a 3f 63 18 78 3f
       1.0027173 1.0003492 0.978147 0.9691221
0002b0 ac c4 7d 3f 1b a0 7b 3f 90 15 83 3f df dc 82 3f
       0.9912822 0.98291177 1.0240955 1.0223655
0002c0 c0 24 85 3f ec 99 80 3f c5 18 80 3f ff 97 7e 3f
       1.040184 1.0046973 1.0007559 0.9945068
0002d0 70 12 85 3f bd 5b 80 3f f0 58 79 3f 31 a2 83 3f
       1.0396252 1.0027996 0.9740133 1.0283872
0002e0 a8 bc 7d 3f 1a 58 82 3f b4 ef 82 3f 1b c5 73 3f
       0.9911599 1.0183136 1.0229402 0.95222634
0002f0 9b 87 7a 3f 4f 78 81 3f 50 03 7a 3f 8d 84 79 3f
       0.9786317 1.011484 0.97661304 0.9746788
000300 08 7c 81 3f 78 59 80 3f a4 42 7a 3f 70 e0 80 3f
       1.0115976 1.0027304 0.97757936 1.0068493
000310 8e bd 84 3f 0c d0 7e 3f a7 97 82 3f c8 5a 7c 3f
       1.0370347 0.99536204 1.0202531 0.9857602
000320 55 36 76 3f 4e 11 82 3f 55 f6 84 3f 94 16 84 3f
       0.96176654 1.0161531 1.0387675 1.031939
000330 10 ce 80 3f a4 02 84 3f 3b 80 82 3f 6c bf 81 3f
       1.0062885 1.0313306 1.0195383 1.0136542
000340 6e e0 7b 3f 18 9b 7e 3f a8 36 7e 3f 1c e3 85 3f
       0.9838933 0.99455404 0.9930215 1.0459933
000350 c9 92 7c 3f 8d 63 78 3f ad 07 7e 3f b7 c4 7c 3f
       0.98661476 0.970269 0.9923046 0.98737663
000360 bb e2 7a 3f 85 85 82 3f 21 a4 7f 3f 8d 42 76 3f
       0.98002213 1.0196997 0.99859816 0.961953
000370 11 67 7e 3f 19 a2 87 3f b9 dc 82 3f 60 c0 84 3f
       0.99376017 1.0596343 1.0223609 1.0371208
000380 8d a6 7e 3f 90 8d 79 3f 79 bb 7e 3f 88 1c 80 3f
       0.99472886 0.9748163 0.9950481 1.0008707
000390 0f e0 79 3f c4 dd 7f 3f 17 d7 80 3f 78 2f 7b 3f
       0.9760751 0.9994776 1.006564 0.98119307
0003a0 0b 2c 7f 3f bd 2f 7b 3f 6f d7 7c 3f d6 3f 7d 3f
       0.9967658 0.9811972 0.98766226 0.9892553
0003b0 13 31 81 3f 5a 04 7e 3f 5d 92 7c 3f 9e ec 82 3f
       1.0093101 0.9922539 0.9866083 1.022846
0003c0 bd f5 7e 3f 04 ce 81 3f 88 f9 72 3f 22 10 84 3f
       0.99593717 1.0140996 0.94912004 1.0317423
0003d0 ef 98 79 3f 2c 83 76 3f a7 02 78 3f 9c 6b 86 3f
       0.97498983 0.962939 0.9687905 1.050159
0003e0 0a 2b 85 3f 58 5e 79 3f 73 6e 7e 3f f4 03 7d 3f
       1.040376 0.9740958 0.9938728 0.98834157
0003f0 28 d7 7c 3f 1f c5 82 3f f1 eb 7e 3f 00 83 7e 3f
       0.987658 1.0216407 0.9957877 0.9941864

net.1.bias f4 [256]
000000 75 ab db 3c 1a d2 bf bc b0 8a 07 b9 8f c0 31 bd
       0.026815156 -0.023415614 -0.00012926268 -0.04339653
000010 65 c6 07 bd a8 e2 29 bd 3e 55 af bc ac aa e9 bc
       -0.03314819 -0.041475922 -0.021402951 -0.028523766
000020 48 94 26 bd 52 67 54 3b 94 fc 04 3d 11 63 e6 bc
       -0.040668756 0.0032410217 0.03246744 -0.02812341
000030 0d 62 fd 3b 2c e4 0a bc ec df 00 bd 1f e2 af bc
       0.007732636 -0.008477252 -0.03146355 -0.021470128
000040 3d c3 07 3c 31 b1 1e 3d 1c 1a 02 3c 73 5a 8d bc
       0.0082862945 0.0387432 0.007940795 -0.017255044
000050 27 54 cc 3b ea 2b 0d bd e1 5d 9c bd 19 d9 4e bc
       0.0062356177 -0.034465708 -0.076350935 -0.012625002
000060 6f 28 55 bd 14 83 e5 bc 5e 62 14 bd fa 85 90 bd
       -0.052040514 -0.028016604 -0.036226623 -0.07056804
000070 be 7d 83 bc 49 23 b4 bc 67 0a 89 bb e1 ed a6 bc
       -0.01605117 -0.021989482 -0.0041821483 -0.020377101
000080 58 3c 62 bd 5c e9 05 bd ee 97 76 3c 37 67 80 bd
       -0.05523333 -0.032693252 0.015050871 -0.06269687
000090 9f 2f 68 bb a0 e8 2e bd ba 8d 01 bc fb ab 82 bd
       -0.0035428775 -0.042702317 -0.007907325 -0.06380459
0000a0 b2 2a b8 bb e3 c6 b7 bc 90 be b8 3c de cd 38 3d
       -0.005620324 -0.022433704 0.022551805 0.045118205
0000b0 25 9c 83 bd 99 87 c7 bc 5e ad b5 3c 6c d5 aa bc
       -0.064262666 -0.02435665 0.022177394 -0.02085372
0000c0 9c 11 31 3c 6d d4 a4 bc 78 81 f7 bc dc 53 27 bb
       0.010807421 -0.020120824 -0.030213103 -0.0025532162
0000d0 d9 ea 48 3c f0 14 13 3d d3 e4 ee bc a4 e8 bc bd
       0.012263023 0.03590864 -0.029161846 -0.0922406
0000e0 f5 8b 03 bd 4a ce 7f bc 4e 60 1f bc 9a 74 8a bc
       -0.032115895 -0.015613148 -0.009727551 -0.016901303
0000f0 c2 3a ba bc ac d8 12 bd 03 bd cc bc 04 ce ff 3c
       -0.022733096 -0.035851166 -0.024992472 0.031226166
000100 be e5 95 bd e9 13 9a 3c a7 ec 88 bd bb 83 0f 3d
       -0.073192105 0.018808322 -0.06685763 0.035037737
000110 98 fc a5 bd 5c d6 7e bd 24 52 b1 bc 24 7a 47 bb
       -0.08104819 -0.062216148 -0.021645613 -0.0030437792
000120 b7 c7 f8 bc c3 46 1a bc 42 36 37 bd 5a 16 b5 bd
       -0.030368669 -0.009416285 -0.04472948 -0.08842154
000130 a7 0c dd bc 3b 6e e7 3b 7a 02 74 bd 4f 9b 37 bc
       -0.026983572 0.007062701 -0.059572674 -0.011206462
000140 9b cd 1d bd 19 13 5d bd 93 4e 61 bd 40 d5 b9 bd
       -0.03852616 -0.05397329 -0.055006575 -0.09073877
000150 f0 4e 74 bd 8b bc 82 bc 3c 5c a3 bc 1d b2 53 3b
       -0.059645593 -0.015959045 -0.019941442 0.0032302209
000160 bf 3d da bc 53 b9 8e b9 fa 48 93 bd ba 5e a4 bd
       -0.026640771 -0.00027222428 -0.071916535 -0.0802588
000170 6a 51 48 bd 05 20 76 bc 49 0c a5 bc 77 df 35 bc
       -0.048905768 -0.0150222825 -0.02014746 -0.011100641
000180 7b bd 59 bc d9 30 e6 bc c6 fe 36 3c 57 17 5c bd
       -0.013289805 -0.028099464 0.011169141 -0.053733196
000190 d4 8b 3e bd a7 58 88 bc 04 a2 26 bd 17 62 b1 bd
       -0.04652007 -0.016643835 -0.040681854 -0.08661287
0001a0 9e 51 b4 bd 01 c0 ad bc ba c4 60 bd 42 35 f2 bb
       -0.0880463 -0.021209719 -0.054875113 -0.0073916027
0001b0 98 e4 7a 3a df b6 40 bd 55 84 0c bb f0 72 18 bd
       0.0009570806 -0.0470494 -0.002144118 -0.037218988
0001c0 6f 42 b3 b9 7b 35 19 3d 34 de 44 bc 07 5d 6d bd
       -0.00034191037 0.03740452 -0.012015868 -0.057950046
0001d0 a7 57 9f 3c 41 77 e0 bc d1 b5 90 bd d7 9e 44 bd
       0.019450976 -0.027400615 -0.07065929 -0.048003044
0001e0 a6 23 ee 3b 1f 12 45 bd d3 8f 07 bd b7 90 28 bd
       0.007267433 -0.048112985 -0.033096146 -0.041153636
0001f0 c5 44 4e bd 0c 67 b8 bc b1 41 3f bd ba df c7 bb
       -0.050358552 -0.022510074 -0.046693508 -0.0060996683
000200 2d 2e fc bc 8b 0b 83 bd b6 8f ba bb 88 d2 0e bd
       -0.030783737 -0.06398686 -0.005693401 -0.034868747
000210 f3 23 9e bd e0 b6 f8 bc 56 32 a6 bc a8 d7 1c bd
       -0.077217005 -0.03036064 -0.020287674 -0.038291603
000220 75 47 86 bd 7a 64 37 bd 9a 1f 59 bd 05 5b ee bc
       -0.06556598 -0.044773556 -0.053008653 -0.029096136
000230 11 59 54 bc 47 90 45 3c 6f 25 3d bb 2c ea 23 3c
       -0.012960688 0.012058324 -0.0028861423 0.010004561
000240 4a 0b 5b bd 04 3a 44 bd 60 6a b3 bc 3d 24 5d bd
       -0.053477563 -0.04790689 -0.02190131 -0.053989638
000250 bf f2 5f bd 74 dd d1 bc 65 b1 23 bd 06 44 7e bd
       -0.05467486 -0.025618292 -0.0399641 -0.06207659
000260 1f ff 15 bd 2d 23 a4 3c 99 48 79 bc ef 15 2b bc
       -0.036620256 0.020036304 -0.015215063 -0.010442241
000270 87 ab 2a bd fb d3 d0 bb 47 47 0e bd e2 d6 d2 b9
       -0.041667487 -0.0063729263 -0.034735944 -0.00040214421
000280 07 ee cf bc a6 d2 cb bc 30 58 b2 bd 93 47 e9 bc
       -0.025382055 -0.024880718 -0.08708227 -0.028476512
000290 9b fd c9 3b cb cb 9a 39 25 2a 09 bc 23 e6 16 3c
       0.0061642653 0.00029525007 -0.008371864 0.009210142
0002a0 43 b7 13 3d 55 95 bc bc 12 63 0f 39 0f 8c 40 bc
       0.036063444 -0.023020426 0.0001367445 -0.011752143
0002b0 8c e3 00 bd ea f1 f6 bc 7c cb 9a bc 1c e9 b8 bb
       -0.031467006 -0.03014465 -0.018895857 -0.005643023
0002c0 7c 03 af bd 23 4b a9 3c e3 06 47 bc 57 fd b7 bc
       -0.085455865 0.02066571 -0.012147638 -0.022459669
0002d0 01 51 30 bd 25 28 81 bd 3f 36 90 bc f3 0e a0 bb
       -0.043046 -0.06306485 -0.017603992 -0.0048845946
0002e0 ab 1c 4e bd 0b 84 b0 bc b1 51 28 bd 29 5f 69 bd
       -0.05032031 -0.021547338 -0.041093532 -0.056975517
0002f0 5c 55 70 bd 25 6c a7 bd a0 a4 07 bd 83 c5 36 bd
       -0.058675155 -0.08174924 -0.033115983 -0.044621956
000300 da 24 1a 3c 1a be 29 3d 42 ee 20 bd a2 82 ba ba
       0.0094082 0.04144106 -0.03928972 -0.0014229605
000310 8c 00 ec bc 3c 41 82 bc d4 48 f5 3b 71 b3 4e bc
       -0.028808855 -0.015900247 0.0074854884 -0.012616024
000320 85 b7 37 bd 88 77 24 bc 7a e5 70 bc 5e cb 91 bd
       -0.044852752 -0.010038264 -0.014703149 -0.07118867
000330 68 13 5e bd 46 7f 34 bd 5c e7 19 bd 52 77 25 bd
       -0.054217726 -0.04406669 -0.037574157 -0.040396996
000340 b8 03 e5 bc c1 27 c2 bd 93 a6 a6 3b 5b 64 ee 3c
       -0.027955875 -0.09480239 0.005085775 0.029100588
000350 9f 5f 65 bd 03 ae aa bc fc df 54 bb 66 f5 87 bd
       -0.055999395 -0.020834928 -0.0032482138 -0.06638603
000360 6d 6e 84 bd 52 b0 41 bc 37 aa 86 bc 62 f2 22 bd
       -0.064663745 -0.011821823 -0.016438587 -0.039781936
000370 64 23 10 bd 97 29 4c bd af 4f 9e 3c 70 26 ff bc
       -0.03519 -0.04984435 0.019325105 -0.031146258
000380 04 a5 d8 3c 0c ac d8 3c 13 e9 17 bd 1e 36 67 bd
       0.026445873 0.026449226 -0.03708751 -0.056448095
000390 5c 3a 16 bd cd 10 3b bd 31 5d d3 bc e9 50 7a bd
       -0.03667675 -0.04567032 -0.025801273 -0.06111232
0003a0 c4 51 6f bc 39 a1 51 bd db 5b 18 bd 36 13 1a bd
       -0.014606897 -0.051179145 -0.037196975 -0.037615977
0003b0 70 1c cf bb 0c 7f 31 3c 32 99 6b bc a8 c1 ce bc
       -0.0063205287 0.010833513 -0.014379786 -0.025238827
0003c0 5e 61 c1 bc 59 67 0f bc 6c 98 95 bc 03 4b c2 3c
       -0.023605999 -0.008752667 -0.018261157 0.023717409
0003d0 4c 5a 3e bd 98 ff d8 bd 7b c3 9b bd 67 ab ef bc
       -0.046472833 -0.10595626 -0.07605644 -0.029256536
0003e0 3e dd 91 bc d0 60 25 bd d5 2f fc bb 36 45 0d bd
       -0.017805692 -0.04037553 -0.0076961317 -0.034489833
0003f0 a5 dc 71 bd 45 6c 11 bd 75 1c 2f bd 50 e0 1a bd
       -0.059048314 -0.035503644 -0.042751748 -0.037811577

net.1.running_mean f4 [256]
000000 79 81 91 3c 73 65 b1 bd 92 2e 75 bd d4 58 bb 3c
       0.017761933 -0.08661928 -0.059858866 0.022869505
000010 ee 6e 31 3c 39 b4 0d 3e b4 52 dd 3d a8 01 c7 3c
       0.01082967 0.1383828 0.1080679 0.024292782
000020 0b ba 9b bc d1 90 1b be c3 2a 93 3d 15 4e b4 bd
       -0.01900961 -0.15191962 0.071858905 -0.088039555
000030 ed 1b 04 3d c0 84 f2 bc ae b1 0d 3e fd ee 9e bd
       0.032253195 -0.029604316 0.1383731 -0.07760427
000040 c2 08 c2 bd e8 cb 0c 3e 4d ab b0 3d b0 af 88 bd
       -0.09474327 0.13749659 0.08626423 -0.06674135
000050 94 fb 14 be b7 d8 b5 3d 0a f8 11 be b4 e6 91 bc
       -0.14549094 0.08879226 -0.14254776 -0.017810203
000060 d0 c7 12 3e 4e 26 21 3e 80 16 97 3d a5 ee 80 3b
       0.14334035 0.15737268 0.073773384 0.0039346986
000070 2c 8e ce bd 3d 1d de 3d f2 f2 1d 3b e6 9b 09 3e
       -0.10085711 0.108454205 0.0024101106 0.13438377
000080 d4 77 c3 3d 36 9e 68 3c 0b 41 04 3e 07 b7 8b bd
       0.0954434 0.014197877 0.12915437 -0.06822019
000090 d5 55 9a 3d 09 cc 05 3e a4 93 e4 bc 2d 81 43 bd
       0.075359024 0.13066114 -0.027902432 -0.047730613
0000a0 53 65 1f be 45 40 04 3e bd 89 22 bd d3 ec 17 be
       -0.15565996 0.12915142 -0.03968214 -0.14836435
0000b0 e2 86 17 3e b2 c9 92 bd e8 25 e0 3d a8 30 80 3d
       0.14797547 -0.071673766 0.1094473 0.062592804
0000c0 e3 58 d6 bd 77 a5 0d 3e 81 f6 8a bd 55 6e 37 bd
       -0.104661725 0.13832651 -0.06785298 -0.044782955
0000d0 4d c4 03 bc b1 4b 62 bd ad 5f 0d be 13 2f fb 3d
       -0.008042407 -0.055247966 -0.13806029 0.12264838
0000e0 93 26 ed bd 12 b1 fb 3d a4 c6 1a 3e 52 e0 0d be
       -0.11579623 0.12289633 0.15114838 -0.13855103
0000f0 01 e2 a9 3c 1f ab 10 3e 2b 99 1f be 1c 3e 04 bd
       0.02073765 0.14127778 -0.15585773 -0.032285795
000100 e2 2c 75 3d 01 bc ad bd 24 f6 a4 bd 82 96 00 bd
       0.059857257 -0.084831245 -0.0805476 -0.031393535
000110 6c 4e 96 bd 72 f3 99 bb cc fb 0e be 71 39 d2 bd
       -0.073391765 -0.0046982104 -0.1396324 -0.10264862
000120 66 fd bb 3d 21 a6 72 3d b1 9b d1 bc f2 96 8c 3d
       0.09179191 0.059240464 -0.025586935 0.06864728
000130 d4 e3 6b 3d 5f f6 c7 3d 36 a2 f0 b7 dc 0a 19 3d
       0.05759032 0.097637884 -2.8685765e-05 0.037363872
000140 44 b1 05 bd ae a0 b6 3d 72 59 b9 3b a1 f9 67 bd
       -0.032639757 0.08917366 0.0056564147 -0.05663455
000150 74 4b 88 bd 95 16 86 bd 78 ef b6 bd d6 67 07 3e
       -0.066550165 -0.06547276 -0.08932394 0.13223204
000160 0f 12 c8 3d e2 f3 f3 3d 31 a4 82 3c 1d c9 9a 3d
       0.097690694 0.11911751 0.015947433 0.075578906
000170 4e 73 1e be 4e d1 80 3d 63 b1 04 be 52 43 01 be
       -0.15473673 0.06289922 -0.12958293 -0.12623337
000180 17 a5 02 bd 6c 1f 01 be 3f 3f 50 3d 49 fc 11 bd
       -0.031895723 -0.12609643 0.050841566 -0.03564099
000190 93 83 3a 3d 2c 00 a9 3c bf 53 c0 3c fa 8e 4c 3c
       0.045535635 0.020629965 0.023477433 0.01248526
0001a0 a7 d3 18 3d 91 9b 8e 3d af 34 da bb 80 71 6e bd
       0.037311222 0.06963266 -0.0066591124 -0.05821371
0001b0 95 b2 e3 bd 2a 7f 23 3e 08 84 fe 3b 5f 9a d3 bd
       -0.11118046 0.15966478 0.007767204 -0.10332178
0001c0 00 19 20 be fc ae 0b 3e 85 7d 78 3d a3 e7 15 be
       -0.15634537 0.1364097 0.06066658 -0.14639144
0001d0 dd 3d 10 3e 35 e3 26 bd 99 98 a0 bd ee ed 1d 3e
       0.14086099 -0.040744025 -0.07841606 0.15422794
0001e0 d8 44 95 3d 4c ea 4d 3d 48 04 45 3c fa 7f 0f 3d
       0.072885215 0.05027227 0.0120249465 0.035034157
0001f0 6d 14 19 be 5f e9 af 3a a4 dd 0a 3d 9b 6f d8 3d
       -0.14949198 0.001342099 0.03390278 0.10568162
000200 ad 98 90 bd 27 ba bc 3d e1 c6 d9 bd 59 ba 0c be
       -0.070603706 0.09215193 -0.10633636 -0.13742961
000210 f6 44 93 3d 83 65 41 3d 39 15 f2 bd 34 a1 f3 3d
       0.07190888 0.04721595 -0.11820454 0.118959814
000220 37 2c 1b 3c 4a a1 a1 bc cd f2 ef bd f2 9b dc 3d
       0.009470991 -0.019730229 -0.117162324 0.10771932
000230 34 d1 bd 3d 9b 13 f3 3c e8 59 07 3e ed 5b 1b be
       0.09268418 0.029672435 0.1321789 -0.15171786
000240 6c 95 be 3d 75 3d b5 bd 18 85 c5 bc c6 28 fd 3d
       0.09305844 -0.088496126 -0.024111316 0.123612925
000250 8a c9 20 be e7 fc 52 bd 1c d2 a2 bc 43 dc 08 3e
       -0.15701881 -0.051510718 -0.019875579 0.13365273
000260 15 a7 d9 bc 9b 38 b7 bd 2b 9b 62 3d 81 14 1b be
       -0.026568929 -0.089463435 0.05532376 -0.1514454
000270 2a 6b f6 bd 2c 64 15 be e1 78 88 3d 0e 7f 54 bd
       -0.12032159 -0.14588994 0.06663681 -0.05187898
000280 ff 9a 16 be a2 0f 1d bd d2 d2 a1 bd 3d e8 6f 3d
       -0.14707564 -0.038344987 -0.07901539 0.05857109
000290 28 1d a4 bd b9 c1 9c bd 82 7a 0e be c1 25 bd bc
       -0.080133736 -0.07654137 -0.1391392 -0.023089292
0002a0 4e 77 6f 3d c1 9e e1 ba fe 46 c6 3d 6d 33 86 3d
       0.058463387 -0.001721345 0.096815094 0.065527774
0002b0 2e 47 d7 bd b4 e4 1b bd c2 4b 8a bd 58 61 f3 3c
       -0.10511623 -0.038059905 -0.06752731 0.029709503
0002c0 ae d7 9e 3c f9 81 c5 bd 7f bc 1a be e2 25 a9 3c
       0.019389953 -0.09643931 -0.15110968 0.020647947
0002d0 22 3d 35 bd d0 f2 c7 3d e9 92 96 3d a1 98 85 3c
       -0.044247754 0.0976311 0.0735224 0.01630813
0002e0 a9 c5 db 3d 52 5e b7 3d f4 e0 1b be ad 54 bf 3d
       0.1073106 0.08953537 -0.15222532 0.093423225
0002f0 6d 87 9c 3c 39 cb 9c 3c 97 36 0b be 94 3c 04 be
       0.019107545 0.019139873 -0.13595043 -0.12913734
000300 0e 89 07 3e 5c 70 b7 bc 9a 4b d2 bd fa 80 c8 3d
       0.13235876 -0.022392444 -0.10268326 0.09790225
000310 63 00 0c bd 8b e5 88 bd f1 a3 bb 3c 6e f1 0c be
       -0.034180056 -0.06684407 0.022905322 -0.13763973
000320 ec dd b4 3d f2 77 12 3e 99 86 8d bd a3 2e d8 bc
       0.08831391 0.14303568 -0.06910438 -0.026389426
000330 bb a2 bd 3d d0 b9 37 3d 8a d8 b3 bd e4 1c 3c bc
       0.09259554 0.04485494 -0.08781536 -0.011481497
000340 0f a9 5a 3d 82 dd 87 3d 4e 5e fa 3d e7 64 08 be
       0.053383883 0.06634046 0.122250184 -0.13319741
000350 0a de ce bd a3 ca 6b bd b3 0f a2 3d 69 b9 12 be
       -0.10100944 -0.057566296 0.07913151 -0.14328541
000360 89 ad 9d 3d cf d1 1e 3e c3 6b ec bd ad cf ff 3d
       0.07699115 0.15509723 -0.115439914 0.12490783
000370 5b d9 8a 3c 40 db 83 3c ca 08 06 be 10 96 d9 bc
       0.016949346 0.016095757 -0.1308929 -0.026560813
000380 24 73 3f 3d 15 7e f7 bd b3 0b dc bd ad d3 44 bd
       0.046740666 -0.12084595 -0.10744419 -0.048053432
000390 49 c7 77 bb a8 0b ec 3d 49 91 8c 3d 9d c7 a6 bc
       -0.0037807992 0.11525661 0.068636484 -0.020358855
0003a0 3d 3a 0d be 9e 73 0c 3e b1 d9 af 3c 94 c4 e5 bd
       -0.13791747 0.1371598 0.021466108 -0.11219135
0003b0 25 eb d1 3b a5 87 94 3d 65 6d 03 3c 51 a5 15 be
       0.0064062052 0.07252435 0.008021687 -0.14613844
0003c0 5a a7 96 bd e2 1d 08 be 6b 13 2e 3d 52 4e 00 3d
       -0.073561385 -0.1329265 0.042498987 0.031324692
0003d0 d4 f5 11 3c 55 4e 04 be 1c b8 d1 3d d1 08 0a 3e
       0.008908708 -0.12920506 0.10240194 0.13479926
0003e0 a4 03 16 3e 03 92 ba 3d 7b 0e ea 3d af d9 c9 bc
       0.14649826 0.09109881 0.11428543 -0.024639932
0003f0 4b 03 ae 3c 13 84 0b be dc 7d 4e bd a9 7c 66 bd
       0.021241805 -0.13624601 -0.050412998 -0.05627123

net.1.running_var f4 [256]
000000 4f 24 35 3e 8e 6f 0c 3f 09 65 cd 3e a0 7a cd 3e
       0.17689632 0.5485772 0.40116146 0.40132618
000010 a2 17 e5 3e 4f d9 8d 3e 19 7b bd 3e 09 e3 60 3e
       0.44744593 0.27704856 0.3700798 0.21961607
000020 3e 8e 4a 3e 45 b0 d4 3e 89 b6 d1 3e a5 3c 6c 3f
       0.19780824 0.41540733 0.40959576 0.92280036
000030 59 62 31 3f 08 5d 13 3e 12 d3 c0 3e 79 44 bb 3e
       0.6929069 0.14390957 0.37661034 0.36575678
000040 39 52 05 3f a6 d6 9a 3e d6 b4 97 3e 2a 99 dc 3e
       0.52078587 0.3024189 0.29630154 0.43085605
000050 ce 42 cc 3e 43 cb 7c 3e 2d 6e 82 3e 28 97 fe 3e
       0.39894718 0.24686913 0.25474682 0.49724698
000060 1b 54 86 3e 6f 91 b6 3e 11 ad 6b 3e 25 36 84 3e
       0.26236042 0.35657832 0.23015238 0.2582256
000070 d0 a8 8f 3e b0 72 83 3e 35 38 85 3e 28 d8 8e 3e
       0.2805848 0.25673437 0.26019445 0.2789929
000080 3d 21 8d 3e 15 b5 a3 3e 20 11 87 3e 15 e1 72 3e
       0.2756442 0.31974092 0.26380253 0.23718674
000090 2b fd b4 3e 9f 88 ba 3e 4c a0 53 3e e0 4e f2 3e
       0.35349402 0.3643236 0.20666617 0.47325802
0000a0 25 1d fd 3e 2b f0 95 3e 5d 32 56 3e 20 18 81 3e
       0.49436298 0.29284796 0.2091765 0.25213718
0000b0 28 bb 0b 3f d5 4c 94 3e 9d f7 35 3e d8 d9 a2 3e
       0.5458245 0.28964868 0.17770238 0.31806827
0000c0 ec 8a 7b 3e f7 68 d9 3e 14 db 9b 3e 9b 00 86 3e
       0.24564713 0.42462894 0.3044058 0.26172337
0000d0 33 c5 dc 3e 3b df 80 3e 52 5e 7b 3e ca a3 b0 3e
       0.431192 0.2517031 0.24547699 0.3449996
0000e0 b3 ef 42 3e a0 85 83 3e 10 38 8f 3e 7f 28 e0 3e
       0.1903675 0.25687885 0.2797246 0.43780896
0000f0 54 f2 52 3e 19 34 3e 3f 2d da 82 3e a4 ed 50 3f
       0.20600253 0.74298245 0.2555708 0.8161261
000100 26 40 93 3e 97 81 54 3e f1 27 b2 3e 4f b4 25 3f
       0.2875988 0.2075256 0.34796098 0.64728254
000110 e7 0b 01 3f c5 95 7f 3f 29 31 2f 3e 06 3e 59 3e
       0.50408787 0.99837905 0.17108597 0.21215066
000120 91 88 81 3e 5f 9b 8f 3e f4 e7 0b 3f a2 33 7e 3f
       0.25299504 0.28048226 0.5465081 0.99297535
000130 0d d2 6b 3e 12 c6 3b 3e f3 41 a2 3e 18 c3 ad 3e
       0.23029347 0.18337277 0.3169094 0.33937907
000140 cb ea 42 3e 26 b2 80 3e 3c fb 25 3e 73 b1 73 3e
       0.19034879 0.25135916 0.1620912 0.2379816
000150 cd 8e 9f 3e 82 36 b6 3e a9 9a bc 3e 85 e7 c0 3d
       0.31163636 0.3558846 0.36836746 0.09419159
000160 25 19 1f 3f 53 63 46 3f 84 eb 5c 3e 01 aa bc 3e
       0.6214774 0.77495307 0.21574217 0.36848453
000170 49 52 9e 3e ec 4a ee 3e 4f a4 8d 3e d2 f9 0f 3f
       0.30922154 0.46541536 0.2766442 0.5624057
000180 08 2d 82 3e 9a 77 9f 3e 25 93 a8 3e 19 fd 19 3f
       0.2542498 0.31145936 0.32924762 0.6015182
000190 93 4a e6 3e 9b 4a a2 3e e3 45 87 3e a1 0f d6 3e
       0.4497877 0.31697544 0.26420507 0.418088
0001a0 ae d6 d7 3e 8c 6e 09 3f 1f 86 5c 3e 27 8e 3d 3e
       0.42155975 0.53684306 0.21535538 0.18511258
0001b0 3e ae a9 3e dc 53 81 3e 8f da 29 3e 9a bd 79 3e
       0.3314075 0.25259292 0.1658728 0.24388734
0001c0 9c db e8 3e d6 ce 1f 3e 15 f1 04 3f 48 6d 5e 3e
       0.4548005 0.15606245 0.5193036 0.21721375
0001d0 ff de 7a 3e 01 b9 81 3e 7a b3 c8 3e af 53 d3 3e
       0.24499129 0.2533646 0.3919943 0.41274783
0001e0 86 7d 17 3e 97 6c 45 3f 77 c9 35 3f 6c aa c8 3e
       0.14793977 0.7711882 0.71010536 0.39192522
0001f0 ac 02 85 3f 39 d1 a9 3e f6 e7 8a 3e 79 5a c3 3e
       1.039144 0.33167437 0.27130097 0.38154963
000200 e2 17 ad 3e 4e 4f 40 3e ae 19 99 3e c4 7b 4f 3e
       0.33807284 0.18780252 0.29902405 0.20262057
000210 7f 0a 60 3e f6 3a 83 3e bc 37 aa 3e 16 0d cd 3e
       0.21879004 0.2563092 0.33245647 0.40049046
000220 0a 4f 3f 3f 12 59 d9 3e 24 6d b5 3e d7 58 7f 3f
       0.7472998 0.42450768 0.3543483 0.99744934
000230 24 28 97 3e 65 ca 6a 3e 5b 99 50 3e 3e 75 36 3f
       0.29522812 0.2292877 0.20371 0.7127265
000240 3e 8c 4e 3f d1 be e4 3e 5b 71 c9 3e 5c 7f 37 3e
       0.8068274 0.4467683 0.39344296 0.17919677
000250 06 8c 41 3e bc 96 ff 3e 45 f9 1a 3f 60 9b 82 3e
       0.18901071 0.4991969 0.60536605 0.25509167
000260 bc 3f 63 3e 05 da 86 3f ef d8 18 3e 95 80 06 3f
       0.22192281 1.0535284 0.14926504 0.5253995
000270 d6 05 dd 3e 78 b3 ef 3e 92 3f 3b 3f fa f4 84 3e
       0.43168515 0.4681661 0.73143876 0.25968152
000280 4c 81 1c 3f 79 7e 23 3e 3c 33 63 3f 42 fe af 3e
       0.6113479 0.15966214 0.8875005 0.3437367
000290 1e 5c 33 3e 46 e9 a2 3e 09 f3 87 3e 18 1d b6 3e
       0.17515609 0.31818599 0.2655261 0.35569072
0002a0 a7 a3 88 3e c1 a3 26 3e d7 17 05 3f f8 ce 78 3e
       0.26687357 0.16273405 0.519895 0.24297702
0002b0 87 f7 b3 3e e4 03 87 3e 4d 30 8a 3f e3 97 d2 3e
       0.35149786 0.26370156 1.079599 0.41131505
0002c0 08 b6 db 3e 1c b2 90 3e 19 09 68 3e 81 25 a2 3e
       0.42912316 0.28260887 0.2265972 0.31669238
0002d0 97 6f 82 3e 1f b3 8f 3e 1e 3f 74 3f b4 d8 5f 3e
       0.2547576 0.28066346 0.9540881 0.2186001
0002e0 8b ed 9b 3e 7a 6e 30 3f 77 42 5b 3e f2 11 9c 3e
       0.30454668 0.68918574 0.21412073 0.3048244
0002f0 2d 99 5e 3e 01 aa 1d 3f 5f 8e cd 3e dc 52 23 3f
       0.2173812 0.6158753 0.40147683 0.6379831
000300 f5 49 0d 3e 84 1b 94 3e af 66 5d 3e 47 8a a0 3e
       0.13797744 0.28927243 0.21621202 0.31355497
000310 54 e1 2b 3f be 76 92 3e 17 76 45 3f 02 d5 af 3e
       0.671407 0.28606218 0.77133316 0.343422
000320 f4 e3 7c 3e 4f 39 60 3e 51 b1 28 3e 18 de 2e 3e
       0.24696332 0.21896861 0.16473891 0.1707691
000330 ff 7a c6 3e ef 98 ae 3e 08 b5 a1 3e 20 3b 0b 3f
       0.38765714 0.34101054 0.31583428 0.5438709
000340 44 1f 58 3e 37 29 38 3f b5 fa a5 3e 54 b5 3a 3e
       0.21105677 0.7193789 0.32417837 0.18233234
000350 34 64 38 3e e9 3b d4 3e ef 44 76 3e 26 cb ad 3e
       0.18006974 0.41451958 0.24049734 0.33944052
000360 9c 88 bf 3e d6 7d 9e 3e c9 25 3f 3e c6 9a 43 3f
       0.37408912 0.3095538 0.18666758 0.7640804
000370 fd 6d 87 3e 18 64 0a 3f 72 63 cd 3e a5 b6 8b 3e
       0.26451102 0.5405898 0.40114933 0.27287784
000380 6b 8f 0f 3f 7d 2f 25 3f 13 3d ed 3e 88 fc 9f 3e
       0.56078213 0.64525586 0.46335658 0.31247354
000390 f2 14 8b 3e 26 57 61 3e 36 b1 81 3e 3e 4c 73 3e
       0.27164418 0.220059 0.25330514 0.23759553
0003a0 1b 78 7a 3f e1 27 2d 3e 0b e8 9d 3e 92 6e 5e 3e
       0.97839516 0.16909744 0.30841097 0.21721867
0003b0 e2 c1 a4 3e 28 80 bf 3e b9 34 88 3e 89 b5 0b 3f
       0.3217917 0.37402463 0.26602724 0.54573876
0003c0 ff 68 77 3e 4d ae be 3e dc fb b6 3e 31 71 16 3e
       0.24161147 0.37242356 0.35739028 0.14691617
0003d0 a4 9b 65 3e b0 c0 de 3e 62 bf 07 3f fe 14 26 3e
       0.22422653 0.43506384 0.530264 0.16218945
0003e0 1d 1c 9c 3e 07 6d f1 3e f2 02 4a 3e 85 93 93 3e
       0.304902 0.47153494 0.19727686 0.28823486
0003f0 75 86 35 3f 0c 81 d9 3e 2c 61 7b 3e 9a ea 3f 3e
       0.7090829 0.42481267 0.24548787 0.18741837

cpu f4 [128]
000000 c3 12 22 bd 4f 22 db 3c dc 7d 3c 3d 52 59 ab b9
       -0.039568674 0.026749758 0.046018466 -0.0003268221
000010 1e 11 6a 3d b3 30 5c bd 92 b8 30 bd a8 65 b6 3b
       0.05714523 -0.05375738 -0.04314477 0.0055663176
000020 78 54 23 bd 84 89 93 3b 05 02 6a 3d e3 e5 3f 3d
       -0.039875478 0.004502477 0.057130832 0.046850096
000030 ca 7d b4 bc 40 ce 50 3d cf 2e e2 bc d1 69 a8 bb
       -0.022032637 0.050977945 -0.02761021 -0.0051395674
000040 0b 15 08 3b 18 0a ab bc 6d 5a eb 3c 47 4e ab 3c
       0.0020764496 -0.020878837 0.028729642 0.020911349
000050 0b e3 2f 3c 3c df c9 3c e4 64 0c 3d e3 16 42 3d
       0.010735284 0.02464258 0.034275904 0.047385108
000060 8a f9 24 3d b8 98 2c 3d 11 82 3d bd 56 f4 69 bd
       0.04027704 0.04213783 -0.04626662 -0.057117783
000070 39 3a 78 bd 66 b9 3d bd 4c 53 20 bc 3a b0 c1 bc
       -0.0606024 -0.046319388 -0.0097854845 -0.023643602
000080 f1 e3 51 3d bb b9 61 3d 8a b8 04 bd f8 e5 c1 3c
       0.051242772 0.055108767 -0.032402553 0.023669228
000090 d3 82 78 3c c9 7b 23 3d 29 ca 5a 3d c6 cd 0e bd
       0.01516791 0.039912973 0.05341545 -0.03486421
0000a0 8a bd 18 bd 06 8f ed bc b4 73 59 bd c7 bb fd bc
       -0.037290134 -0.028998863 -0.05308886 -0.030973328
0000b0 c2 6e 47 bc d7 fd 54 bd fb cb d2 3b 88 7a 4f 3b
       -0.012172403 -0.051999893 0.006433008 0.0031658728
0000c0 7b 34 0a bd 3d 16 f1 bc 9e 23 5c bd bc 7f 20 bd
       -0.033741456 -0.02942955 -0.053744905 -0.039184317
0000d0 bb 94 84 bc c7 50 12 3d 77 7c ec bc 9c 06 39 3d
       -0.016184201 0.035721567 -0.028867943 0.04517232
0000e0 8c d0 5c bd 5b 8e f1 bc 7a f7 7a 3d a8 5f 7d bd
       -0.053909823 -0.029486826 0.06127117 -0.061858803
0000f0 69 15 1a 3d ea 24 51 bc 4a 01 79 bd 59 36 de 3c
       0.037618075 -0.012765149 -0.060792245 0.027125524
000100 29 ca 6f 3d 62 0e 8b bc 8b cf ec 3c 64 55 cc bc
       0.058542404 -0.016974632 0.028907558 -0.024943061
000110 36 7c 9d bc 30 ac 4e 3d 7a 86 b0 3c 62 46 4c bd
       -0.019224267 0.05045718 0.021548498 -0.04987181
000120 a6 d4 6f 3d 4c f6 2b 3d 1d de 68 bd 83 82 5f 3d
       0.058552407 0.041982934 -0.05685245 0.054567825
000130 e5 fb 91 b9 a4 85 29 3c 70 ee 10 3d d8 18 9e 3c
       -0.0002784423 0.010346804 0.03538364 0.019298956
000140 91 e9 3f bd 2b a8 38 bd 14 ab ac bc b0 a0 76 bc
       -0.046853606 -0.045082252 -0.02107767 -0.015052959
000150 75 63 63 bd ec cf fc 3b 70 72 db bc ba bb 6e bd
       -0.05551477 0.007715216 -0.026787966 -0.0582845
000160 3f a5 62 bd 40 c3 ec bc 8f ce dd 3b ff fc 17 bd
       -0.055333372 -0.028901696 0.0067690085 -0.03710651
000170 ec d8 5b bd d7 44 0b bd 3d 76 7f bc 6f da d2 bc
       -0.05367367 -0.034001198 -0.015592155 -0.025738923
000180 5d 07 52 3d 71 92 73 3d a3 02 62 bc 83 39 c8 bb
       0.051276553 0.05946583 -0.013794574 -0.0061103716
000190 4e 09 08 bc 58 d7 80 bc d0 fd a9 bc 7a 01 cf bc
       -0.008303 -0.015727684 -0.02075091 -0.025269259
0001a0 39 ff 76 bd ac be 78 bb 44 c6 46 bd 67 c8 2e 3d
       -0.060301993 -0.0037955446 -0.048528925 0.042671587
0001b0 41 89 4d bd 4a 29 e0 bc cc 46 29 bc 08 3e f4 bc
       -0.050179724 -0.027363438 -0.010331821 -0.029814735
0001c0 3c 97 f9 3b 0d 00 13 3d ac 16 66 bc c7 ea 0f 3d
       0.0076169055 0.03588872 -0.014043491 0.03513601
0001d0 39 68 a1 bc 43 c7 6b 3d cc f8 46 bd 6e 95 00 3c
       -0.019703018 0.057563078 -0.048577115 0.007848127
0001e0 d1 83 e9 3c 30 73 aa 3c 55 88 05 3d b1 56 64 3c
       0.028505238 0.020806879 0.03260072 0.0139366845
0001f0 a4 ed b7 3c 7f 90 30 3c 37 02 da 3c f6 58 a0 3c
       0.022452183 0.010776638 0.026612384 0.01957367

net.5.weight f4 [128]
000000 2b 54 81 3f de 43 7e 3f a2 48 80 3f dd 3b 82 3f
       1.0103811 0.9932231 1.0022166 1.0174519
000010 ac 55 82 3f bc 14 7a 3f 73 31 79 3f 13 71 77 3f
       1.0182395 0.9768789 0.9734108 0.9665691
000020 84 e0 78 3f aa f5 80 3f d2 4a 81 3f 4d 15 77 3f
       0.97217584 1.0074971 1.0100958 0.9651688
000030 e0 bf 82 3f b3 3e 84 3f a1 0a 80 3f d5 f3 7f 3f
       1.0214806 1.0331634 1.0003244 0.99981433
000040 4a c6 74 3f 61 d7 80 3f e6 46 85 3f 38 c3 74 3f
       0.95615065 1.0065728 1.0412261 0.9561038
000050 2b 0c 81 3f f0 9d 7b 3f ee 76 80 3f 7d ab 7f 3f
       1.0081838 0.9828787 1.0036294 0.99871045
000060 cb 21 78 3f 96 42 7b 3f f4 c0 7a 3f e6 26 83 3f
       0.96926564 0.9814848 0.97950673 1.0246246
000070 a7 d0 80 3f 65 2c 82 3f 3d 88 80 3f 2d 7a 82 3f
       1.0063676 1.0169798 1.0041577 1.0193535
000080 10 54 7a 3f 2b 05 81 3f 8c 79 80 3f e8 e3 80 3f
       0.9778452 1.0079702 1.0037093 1.0069551
000090 d1 07 7e 3f ba 15 7f 3f 8c 73 80 3f 8b fb 7a 3f
       0.99230677 0.9964253 1.0035262 0.98040074
0000a0 3e 49 80 3f 75 10 82 3f 70 d5 7c 3f a9 4e 80 3f
       1.0022352 1.0161272 0.9876318 1.0024005
0000b0 b6 a4 7e 3f b9 9f 79 3f ab 5d 80 3f 42 e9 7a 3f
       0.9947008 0.9750934 1.0028585 0.98012173
0000c0 2f cc 76 3f 56 d4 83 3f a4 7e 84 3f c9 b8 84 3f
       0.9640531 1.0299175 1.0351148 1.0368892
0000d0 50 33 81 3f 5d b2 6e 3f 39 e7 81 3f 60 a5 7d 3f
       1.0093784 0.9324091 1.0148689 0.9908047
0000e0 5f 43 7f 3f f1 5a 7d 3f 39 bd 81 3f e8 5d 82 3f
       0.99712175 0.9896689 1.0135871 1.0184908
0000f0 62 26 80 3f 6f 36 81 3f ea fa 79 3f 80 64 80 3f
       1.0011714 1.0094737 0.9764849 1.003067
000100 8a 26 7c 3f c2 33 83 3f 54 42 83 3f bb bb 7b 3f
       0.98496306 1.025017 1.0254617 0.9833333
000110 85 6e 81 3f 5c 68 7a 3f e4 9f 7c 3f 21 4c 82 3f
       1.0111853 0.9781549 0.98681474 1.0179483
000120 b5 ff 7e 3f fa 6f 79 3f ec 62 7c 3f 8d 94 84 3f
       0.9960893 0.9743649 0.9858844 1.0357834
000130 4e 0e 7c 3f 1a 40 82 3f 3b 76 81 3f e0 2e 82 3f
       0.9845933 1.0175812 1.0114206 1.0170555
000140 16 11 80 3f 54 b9 7a 3f 37 42 82 3f 75 b2 7a 3f
       1.0005214 0.9793904 1.0176457 0.97928554
000150 b0 ac 87 3f b5 33 89 3f 75 ee 81 3f cf 25 7c 3f
       1.0599575 1.0718905 1.0150896 0.9849519
000160 12 d3 7f 3f 6b 64 7f 3f 63 be 80 3f 82 02 7f 3f
       0.9993144 0.997626 1.0058101 0.996132
000170 bf be 82 3f af 47 79 3f 2e 8f 7f 3f 63 11 7d 3f
       1.0214461 0.97375005 0.9982785 0.98854655
000180 9b f8 82 3f 9b c8 7b 3f 9f 4b 76 3f e2 57 7f 3f
       1.0232118 0.98352975 0.9620914 0.99743474
000190 48 79 76 3f 5a ce 7a 3f 37 a8 80 3f 25 89 83 3f
       0.9627881 0.9797112 1.0051335 1.0276228
0001a0 e0 56 83 3f 67 78 7b 3f 07 08 83 3f c7 b7 7b 3f
       1.0260887 0.98230594 1.0236825 0.98327297
0001b0 b3 43 82 3f 94 98 83 3f 4d 8b 81 3f 39 8e 7f 3f
       1.017691 1.0280938 1.0120636 0.9982639
0001c0 ce 74 76 3f bb e3 82 3f a3 c2 80 3f 3f 24 7f 3f
       0.9627198 1.0225748 1.0059398 0.9966468
0001d0 84 40 7b 3f e6 e6 81 3f de 32 83 3f ea f5 80 3f
       0.9814532 1.014859 1.0249898 1.0075047
0001e0 6c 1d 81 3f 5d 60 83 3f 4a bd 81 3f 3e ef 80 3f
       1.0087104 1.0263783 1.0135891 1.0073011
0001f0 52 56 82 3f 60 85 71 3f 42 4e 81 3f a6 fa 84 3f
       1.0182593 0.9434414 1.0102007 1.0388992

net.5.bias f4 [128]
000000 a2 95 22 bd f6 1a 1b bd 1c fd 84 3c 77 51 16 bd
       -0.039693482 -0.03786751 0.016233973 -0.036698785
000010 dd d3 23 bc bb 7e 4c bc bf e3 02 bc f5 d7 e7 bc
       -0.009999243 -0.012481387 -0.007988869 -0.028301219
000020 b0 c7 16 bc 23 b5 b4 3b 69 08 ea 3c e9 01 28 bb
       -0.009202883 0.0055147572 0.028568463 -0.0025635904
000030 a7 c9 19 3d 7e 2d a5 3c 52 ac 86 3d dd 47 07 bc
       0.037545826 0.020163294 0.06575836 -0.00825688
000040 76 ff c7 bc 7c 71 28 bb d2 fb 55 3c 12 2c bf bc
       -0.024413805 -0.0025702408 0.013060527 -0.023336444
000050 02 55 3f 3c 83 a6 48 bd 38 e3 f4 bb 90 4c e2 3a
       0.011677982 -0.048986923 -0.0074733756 0.0017265249
000060 09 d9 64 bd e9 69 1a bc 16 90 e5 bc f8 3e 86 3c
       -0.055871043 -0.009424665 -0.028022807 0.016387448
000070 05 63 14 bd ed c6 e1 ba e4 85 3b bd 8f e7 bb bc
       -0.036227245 -0.0017225422 -0.045781985 -0.022937564
000080 08 a6 6e bd ab ec 8f bd f7 59 93 bd fd 5e 08 3c
       -0.05826381 -0.07027563 -0.07194894 0.008323428
000090 4a 5c 91 bc a9 f9 85 bd d5 a2 17 bd d1 c9 0c bd
       -0.017744202 -0.065417595 -0.037020523 -0.034372155
0000a0 1e e4 65 bc 27 69 30 bc 80 79 36 bc 9a 65 44 bc
       -0.014031438 -0.010767258 -0.011137366 -0.011987114
0000b0 c9 44 35 ba 43 1e 5a bd 44 89 5b 3b 0e 90 ad bb
       -0.0006914852 -0.053251516 0.0033498565 -0.0052967137
0000c0 2f 7e 07 bd c5 77 92 bd 64 a4 45 bc 07 40 5d bd
       -0.033079322 -0.071517505 -0.01206312 -0.05401614
0000d0 cf 62 4f 3c 8d 16 44 bd 58 c9 f2 bc 74 80 9a 3c
       0.012657835 -0.04787307 -0.029637024 0.01886008
0000e0 af 23 5e bd 14 f3 20 bb 50 c3 0a bd 38 08 33 bb
       -0.05423325 -0.0024558948 -0.03387767 -0.0027318131
0000f0 67 79 e0 3c d0 de b9 bb 69 b5 7b bd 4e 98 49 bc
       0.02740164 -0.0056723133 -0.061452303 -0.012304379
000100 b5 cd 39 3c 9f 48 65 3c 00 82 33 bd d3 e3 eb 3b
       0.011340548 0.013994365 -0.04382515 0.0071987896
000110 b8 61 00 bd b8 f0 82 bd 98 14 87 bd 41 80 66 bc
       -0.03134319 -0.0639357 -0.06595725 -0.014068664
000120 49 6e a7 bc 22 9c b5 bc ae fc 9b 3b c9 90 1c 3d
       -0.02043833 -0.022169176 0.0047603464 0.038224015
000130 d6 4a 33 bd ce 6c 22 3a d4 e9 29 bc 03 ba 09 bd
       -0.04377254 0.0006196023 -0.01037069 -0.03362466
000140 48 ec 11 bd b0 ce 6a bc 8c 8f 1d bd 20 25 43 bd
       -0.035625726 -0.014331505 -0.038466975 -0.047642827
000150 52 2e ab 3c 28 fd 30 bc cc bc fc 3c ed 9d 1f bd
       0.02089611 -0.010802545 0.030851744 -0.03896897
000160 7d 3a 2f bc 97 e5 f9 3b 7c c8 d1 bd 0f b8 a6 3b
       -0.010695097 0.007626246 -0.102433175 0.0050878595
000170 52 06 82 bc 54 aa 3d bc 7a 5b 28 bd c9 5b ce bc
       -0.015872154 -0.011576254 -0.041102864 -0.025190251
000180 a6 4b 25 bd 79 36 20 bd b2 a8 27 bd 2b 2f 50 bd
       -0.040355347 -0.03911445 -0.040932365 -0.050826233
000190 85 e0 13 bd 8c 0c 37 bc e1 79 da bc 13 70 3a 3c
       -0.03610279 -0.011172425 -0.026669445 0.01137926
0001a0 97 e3 5f bb 1d c8 96 bc 70 20 7d bb c5 7e 1c bc
       -0.0034162754 -0.018405968 -0.003862407 -0.009551709
0001b0 77 ea 44 bd e2 b9 a3 3c e4 98 b7 bc d1 7d f8 3b
       -0.048075166 0.019986097 -0.022411771 0.007583358
0001c0 38 ac 22 bd 66 a9 51 bd 0e 07 bb 3c 9a 26 28 bb
       -0.03971502 -0.05118694 0.022830512 -0.0025657774
0001d0 bd 72 38 bd 3e 18 29 3c 49 30 02 bd 2c 34 cc bc
       -0.045031298 0.010320721 -0.03178433 -0.024927221
0001e0 90 bf 41 3c e2 52 e6 bc 91 ed 33 3c 68 e5 dd bc
       0.011825457 -0.028115693 0.010981933 -0.027086928
0001f0 91 a8 81 3c 4a 2b f1 bd 46 2e 04 bd a5 7c 39 ba
       0.015827449 -0.11775835 -0.032270692 -0.00070757634

net.5.running_mean f4 [128]
000000 c9 3e 6d be df 99 46 be 60 f2 3b 3e a6 7e f9 be
       -0.23168482 -0.19394635 0.18354177 -0.48729438
000010 63 74 ec be 27 87 17 be 81 a1 a6 3d 3e 23 3b bf
       -0.46182546 -0.1479765 0.08136273 -0.7310065
000020 3e a0 6e 3e d8 7c 2d bf 27 65 d9 be 75 cc ad be
       0.23303315 -0.6776862 -0.42459986 -0.3394505
000030 27 1f d4 bd 8e 73 c5 be 08 82 b4 be fd 5e 59 bf
       -0.10357504 -0.38564724 -0.35255456 -0.84910566
000040 3e e2 51 bf 72 32 df 3e 2f 39 52 3e e6 84 79 bf
       -0.81985843 0.43593174 0.20529626 -0.9746841
000050 16 32 9a 3d 52 a2 59 bf f8 a8 84 bd 3f d7 41 bf
       0.075290844 -0.85013306 -0.06477541 -0.75719064
000060 45 e6 59 3e 56 4e c0 be 88 53 e2 bd 48 fa 1f bf
       0.21279247 -0.37559766 -0.110510886 -0.62491274
000070 85 b5 49 be db 14 09 bf 66 c6 5e 3f 89 12 93 be
       -0.1969815 -0.5354745 0.8702148 -0.2872508
000080 69 63 52 bf f9 4a 50 3f 8b 11 99 3e 68 04 56 be
       -0.8218294 0.813644 0.29896197 -0.20900118
000090 16 5e 8f 3d a6 10 42 bf 8f 7e 0f be f2 37 39 bd
       0.07000367 -0.75806653 -0.14013122 -0.04521937
0000a0 e1 63 1c bf 41 1b 15 bf eb 91 26 3e d0 20 c0 be
       -0.61089903 -0.5824471 0.16266601 -0.37525034
0000b0 a3 e0 60 bf 89 4d ba 3d 3e 7c 20 3f 2a 41 50 bf
       -0.8784277 0.0909682 0.6268958 -0.8134943
0000c0 50 62 d2 be b7 b3 32 3e c7 89 fe be 85 42 db bd
       -0.4109063 0.17451368 -0.4971449 -0.10706047
0000d0 11 42 12 be 5c 0a 0a be 77 05 cf bc 1e c5 3c be
       -0.14283015 -0.13480514 -0.02527116 -0.18434569
0000e0 fd 24 92 be 96 b1 24 bf 0a 77 be 3e 8f d5 dd be
       -0.28543845 -0.64333475 0.37200195 -0.43326995
0000f0 e7 c3 15 bf be 60 53 3e e7 2a 76 3e 90 62 33 bf
       -0.5850205 0.20642373 0.24039803 -0.7007227
000100 77 96 07 bf de a9 46 be 92 d9 3a bf 79 31 1f bf
       -0.52963966 -0.19400737 -0.72988236 -0.62184864
000110 c8 39 74 bf 35 0f 1c 3f 32 c7 fd 3d 08 24 a2 be
       -0.9540067 0.60960704 0.12391509 -0.31668115
000120 56 03 e6 3e 4b b2 53 bf 27 16 c3 3e 4f cb a6 be
       0.4492442 -0.8269393 0.38102838 -0.32576987
000130 67 93 34 3f 39 db 19 bf cb 9d 6b 3e 36 6d e2 3e
       0.7053742 -0.6010013 0.23009412 0.44223946
000140 65 fa 61 be 11 cc 45 be 6e 1b 1a 3f b1 a6 bc bd
       -0.22068174 -0.19316126 0.60198104 -0.09211481
000150 57 05 10 3e 68 bf 6b bf a6 87 f4 be 70 ff 66 bf
       0.14064537 -0.9208894 -0.47759742 -0.90233517
000160 3a 5e ed 3e b2 cb 6d 3e b8 70 32 3f 34 17 02 3f
       0.46360952 0.23222235 0.69703245 0.50816655
000170 82 98 62 3e dd d2 04 be c0 9b 64 bf 40 79 1d bf
       0.2212849 -0.12971063 -0.89300156 -0.6151314
000180 26 2f 83 3f 76 a5 49 3e 53 d5 7e be 0b aa 9b bf
       1.0248764 0.19692025 -0.24886064 -1.2161268
000190 80 47 59 bf 0a ff 26 bd e4 f7 c3 be d7 0e 8d bf
       -0.84874725 -0.040770568 -0.38275063 -1.1020154
0001a0 17 f3 5d bf bf af 0f 3f d6 39 e3 bd 85 fa 71 bf
       -0.8669905 0.5612754 -0.11095016 -0.9452289
0001b0 bb 91 b3 3e 72 03 11 3f 15 21 0b bd d8 30 3c bf
       0.3507212 0.5664588 -0.033967096 -0.7351203
0001c0 9f fd 08 3f 73 8e c0 3d b1 82 35 bf 63 eb 46 bf
       0.53511995 0.0940217 -0.70902544 -0.7770292
0001d0 99 1f da be 8d f5 5e 3f d1 e9 86 be 8a 62 80 3e
       -0.42602232 0.8709343 -0.26350263 0.2507518
0001e0 b5 82 94 be 80 ba 23 bd 57 42 24 bf 57 eb 15 bf
       -0.29005972 -0.039972782 -0.64163727 -0.58562225
0001f0 48 2e 82 be ae cb 2e be 16 a4 13 3f 8e c3 3a bf
       -0.25425935 -0.17069885 0.5767225 -0.7295464
