models/nn_model.pt (torch, 222011 bytes, 19 tensors)

net.0.weight f4 [256, 40]
0	0xbda30939	-0.079607435
1	0xbdd13cf0	-0.10216701
2	0x3e1f5b49	0.15562166
3	0x3de0870f	0.109632604
4	0xbcf7c433	-0.030244922
5	0xbe24a53a	-0.16078654
6	0x3d720fda	0.05909715
7	0xbe31bd17	-0.17357288
8	0x3c616f94	0.013759512
9	0x3e0acb18	0.13554037
10	0xbdb97b47	-0.090567164
11	0x3d2ff610	0.042959273
12	0x3e099aa0	0.13437891
13	0xbdb9d8b7	-0.09074538
14	0xbdb09def	-0.086238734
15	0x3d849063	0.06472852
16	0x3d73ab5d	0.059489597
17	0xbdc01722	-0.09379412
18	0xbbeca0e5	-0.0072213286
19	0xbd13de30	-0.036100566
20	0xbe124aa0	-0.1428628
21	0xbd436e3c	-0.04771255
22	0xbb9b12cd	-0.004732466
23	0xbb847bb7	-0.0040430683
24	0x3c6a7657	0.014310441
25	0x3e144854	0.14480716
26	0x3cb8ffcc	0.022582911
27	0xbd87894e	-0.06617986
28	0x3c1967d6	0.009363135
29	0x3dbc2d75	0.09188358
30	0xbd13958c	-0.03603129
31	0x3e03cd6c	0.12871331
32	0x3da08cb4	0.07839337
33	0x3e033387	0.12812625
34	0xbc20ba63	-0.009810063
35	0xbd401d6d	-0.046903063
36	0xbbf467b8	-0.0074586533
37	0xbdac6b80	-0.084189415
38	0x3d8dfae9	0.06932623
39	0xbd38161e	-0.044942968
40	0x3e0340ac	0.12817639
41	0x3c9f4666	0.019442748
42	0xbe1b7b64	-0.15183789
43	0xbd81d74c	-0.06339893
44	0x3da0511d	0.07827971
45	0xbcafe8cf	-0.021473316
46	0xbe1a000a	-0.15039077
47	0xbc426844	-0.011865679
48	0x3d685fd4	0.056732014
49	0x3dd835a4	0.10557106
50	0x3d5bff08	0.053710014
51	0xbcca85cb	-0.024722
52	0xbd10a996	-0.03531798
53	0xbe1f6dc6	-0.15569219
54	0xbdd6bc9d	-0.10485194
55	0xbe04b987	-0.12961398
56	0xbdd7dbe9	-0.105399914
57	0x3e2d0aac	0.16898602
58	0x3dd251da	0.10269518
59	0xbbdea4fe	-0.006794571
60	0x3e28927e	0.16462132
61	0xbdde6799	-0.108596034
62	0xbd8ef27d	-0.06979845
63	0xbc92541f	-0.017862378
64	0x3d890b8e	0.06691657
65	0xbd12b3e1	-0.035816077
66	0xbde86323	-0.11347034
67	0xbcee9d0b	-0.029127618
68	0x3d5262c7	0.051363733
69	0xbd8559ce	-0.065112695
70	0xbe26ba9b	-0.16282122
71	0xbe169f17	-0.14709125
72	0xbd5025ff	-0.050817486
73	0xbd9b68b3	-0.07588329
74	0x3e03ca8f	0.12870239
75	0xbdcb57f7	-0.09928887
76	0x3d0c87af	0.034309085
77	0x3cb69d92	0.022291932
78	0x3dd51d4e	0.1040598
79	0xbd3de192	-0.0463577
80	0xb8639baf	-5.426601e-05
81	0x3e12eea7	0.14348851
82	0x3e1e7e66	0.15477905
83	0x3e105470	0.1409471
84	0x3dee5124	0.1163657
85	0xbdfe43f1	-0.124153025
86	0xbda893cc	-0.08231315
87	0x3de6b23f	0.112644665
88	0x3ca19a90	0.019727021
89	0x3d9d7620	0.07688546
90	0x3ddcb9ff	0.107776634
91	0x3d4198d5	0.047264893
92	0x3cbb1326	0.02283628
93	0x3e1bad28	0.15202773
94	0x3e2f02c2	0.17090896
95	0xbdde3cc4	-0.10851434
96	0x3d89281a	0.06697102
97	0xbdc9b322	-0.0984862
98	0x3e1116c4	0.1416884
99	0xbd735816	-0.059410177
100	0x3d64e50c	0.0558825
101	0x3d006184	0.031343
102	0xbdb53499	-0.08847923
103	0xbdb486ef	-0.08814799
104	0x3daa95b0	0.08329332
105	0x3c926402	0.017869953
106	0x3d4724d3	0.048619103
107	0x3d3c1a2a	0.04592339
108	0x3e2f0254	0.17090732
109	0x3cb64891	0.0222514
110	0xbe1874c4	-0.14888293
111	0x3e01ec75	0.12687857
112	0xbe034ea4	-0.12822968
113	0xbd0e15ff	-0.034688946
114	0x3e0f1634	0.13973314
115	0x3d92368e	0.07139312
116	0x3da71d76	0.08159916
117	0xbd7a597f	-0.061120506
118	0xbd058648	-0.032598764
119	0x3e088a07	0.13333903
120	0xbd88c152	-0.06677498
121	0x3e0e0bf1	0.13871743
122	0x3d48d0d4	0.04902728
123	0x3c83b670	0.016078204
124	0x3dbdb10b	0.09262284
125	0x3e68e717	0.22744404
126	0xbdf46f2b	-0.11935266
127	0x3d717fd2	0.05895979
128	0xbd9490c9	-0.07254178
129	0xbd21c6df	-0.0394963
130	0xbe30db05	-0.1727105
131	0x3d8aa331	0.067694075
132	0x3df1bbfc	0.11803433
133	0xbd3c207a	-0.04592941
134	0x3da67e23	0.081295274
135	0x3d851a0c	0.06499109
136	0x3db79bca	0.08965261
137	0xbcf0d2a7	-0.029397322
138	0x3d3d18c2	0.04616619
139	0xbc8998d6	-0.01679651
140	0x3e22ccf0	0.1589849
141	0xbe809943	-0.2511693
142	0xbd9bfada	-0.076162055
143	0x3e052d40	0.13005543
144	0x3de595e8	0.11210233
145	0xbd9066b5	-0.0705084
146	0x3d1284af	0.03577107
147	0x3e060a19	0.1308979
148	0xbdc398bb	-0.095506154
149	0xbd2a8c09	-0.041637454
150	0xba231ca8	-0.00062222267
151	0x3c447cbc	0.01199263
152	0x3e409b6c	0.18809289
153	0xbd50d71a	-0.050986387
154	0xbd5cfc9f	-0.053951856
155	0xbda7ff24	-0.08202961
156	0xbd8b488e	-0.06800948
157	0x3c405c6b	0.011740784
158	0xbd23b1e6	-0.03996458
159	0x3b61cc95	0.0034454216
160	0x3e169df3	0.1470869
161	0x3d60c0b5	0.05487128
162	0x3e44ab4d	0.19205971
163	0xbcd15d75	-0.02555726
164	0x3bfd8093	0.0077362745
165	0xbdbe7dac	-0.09301314
166	0x3d47a93f	0.04874539
167	0x3e1fb44e	0.15596125
168	0xbd5f8069	-0.05456582
169	0xbde7eec3	-0.11324837
170	0xbd23cda2	-0.03999103
171	0xbc3da2fe	-0.011574505
172	0x3df16f48	0.11788803
173	0x3d8a2723	0.06745746
174	0x3b151f1d	0.002275414
175	0xbd6a5acd	-0.0572155
176	0x3d4526f4	0.04813285
177	0x3d8dc06a	0.06921466
178	0x3dbd7f19	0.092527576
179	0xbd700fa1	-0.058608655
180	0xbdcde14b	-0.10052737
181	0x3e23b4cb	0.15986936
182	0x3d66bc33	0.056331825
183	0xbde344fc	-0.11097142
184	0xbe0a3661	-0.13497306
185	0x3d0289be	0.031869642
186	0xbdd712bd	-0.10501621
187	0x3dc3a1c2	0.09552337
188	0xbda14435	-0.078743376
189	0x3e145772	0.14486483
190	0xbd19fc15	-0.03759392
191	0x3e05d568	0.1306969
192	0xbda5c73e	-0.08094643
193	0x3d16943b	0.036762457
194	0xbc461c53	-0.012091714
195	0x3dd74828	0.105118096
196	0x3d43bde9	0.047788534
197	0xbd944412	-0.07239546
198	0xbdc6b441	-0.097023495
199	0x3dac30eb	0.08407768
200	0x3dea67fb	0.11445614
201	0x3e037936	0.12839207
202	0xbde8d06d	-0.11367879
203	0xbd59cf32	-0.053176112
204	0xbd815f80	-0.06317043
205	0xbd9b69f2	-0.07588567
206	0x3e0efaa8	0.13962805
207	0xbda13df5	-0.078731455
208	0x3e0b20e9	0.13586773
209	0xbce838e7	-0.028347446
210	0xbd4323a9	-0.04764143
211	0xbc892724	-0.016742297
212	0xbda5f725	-0.0810378
213	0xbda290af	-0.079377525
214	0x3e26b3c5	0.16279514
215	0x3c84b1d6	0.01619808
216	0x3d9f3d1e	0.07775329
217	0xbdf6c527	-0.120493226
218	0x3d8796ad	0.06620536
219	0x3d7b4c5a	0.06135211
220	0x3e296989	0.16544165
221	0x3e1813da	0.14851323
222	0x3c01fb1f	0.007933407
223	0xbdbf81a0	-0.09350896
224	0x3dad1c99	0.0845272
225	0x3dc0a00a	0.09405525
226	0x3dd9d473	0.106362246
227	0x3e0b5e26	0.13610134
228	0xbd9abd9a	-0.07555695
229	0xbd89b45c	-0.06723854
230	0x3d4144a4	0.0471846
231	0x3ca57466	0.020197105
232	0xbd0fa940	-0.03507352
233	0x3d925ff0	0.07147205
234	0xbdf8eea8	-0.12154895
235	0xbc66ab62	-0.014078947
236	0xbcfadbe6	-0.030622434
237	0xbd1f0f6e	-0.038833074
238	0x3dc8308d	0.09774885
239	0x3cdbd01a	0.026832629
240	0x3d98bdaa	0.074580505
241	0x3d8039c2	0.062610164
242	0x3bc46696	0.0059936745
243	0xbdba1637	-0.090862684
244	0xbc6dcc8d	-0.014514101
245	0x3e34f114	0.17670089
246	0xbbd91a14	-0.006625423
247	0xbd832dec	-0.06405243
248	0x3c965552	0.01835123
249	0x3e1d53a2	0.15363935
250	0x3d5835ac	0.05278556
251	0x3c838ae5	0.016057441
252	0x3d531a22	0.051538594
253	0x3ca6cb16	0.02036051
254	0xbd2a3fe9	-0.041564856
255	0xbdf57b85	-0.1198645

net.0.bias f4 [256]
0	0x3c949e09	0.018141763
1	0xbd9c8479	-0.07642455
2	0xbd87f4d0	-0.06638491
3	0x3ca8ebda	0.020620275
4	0x3c0f9844	0.00876433
5	0x3e0aec46	0.13566694
6	0x3df02c41	0.11727191
7	0x3cbb01b6	0.022827964
8	0xbc20de1e	-0.009818582
9	0xbe1afea2	-0.15136197
10	0x3d9c09ac	0.07619032
11	0xbda60401	-0.081062324
12	0x3d1d3b05	0.038386364
13	0xbd10691e	-0.035256498
14	0x3e108a0f	0.14115165
15	0xbdaa138d	-0.0830451
16	0xbdbc8a40	-0.092060566
17	0x3e1313b2	0.14362982
18	0x3dacb1a9	0.084323235
19	0xbd76ad29	-0.060223732
20	0xbe144f5a	-0.14483395
21	0x3dc50817	0.09620684
22	0xbe12f63f	-0.14351748
23	0xbca1a33d	-0.019731158
24	0x3e12b426	0.14326534
25	0x3e1bcf09	0.15215696
26	0x3d890213	0.06689849
27	0x3bcb24f8	0.0061994754
28	0xbdd9cce5	-0.10634784
29	0x3dda8e6f	0.10671698
30	0x3af32335	0.0018549921
31	0x3e003ef5	0.12524016
32	0x3dcb176c	0.09916577
33	0x3c8c4745	0.017123828
34	0x3e05c3bb	0.13062946
35	0xbd8c7b10	-0.0685941
36	0x3d9fdf6a	0.07806285
37	0x3e0359a8	0.1282717
38	0xbce0645d	-0.027391607
39	0xbd53809c	-0.051636323
40	0xbe1c34a9	-0.15254463
41	0x3e081cd0	0.13292241
42	0xbd343c8d	-0.04400306
43	0xbe11614d	-0.14197274
44	0x3e1d0c36	0.1533669
45	0xbd9a07a3	-0.07520988
46	0x3dd65df1	0.10467137
47	0x3d81f395	0.06345288
48	0xbdcf032a	-0.10108025
49	0x3e0dd2d3	0.13849954
50	0xbd837f2b	-0.0642074
51	0xbd2fd826	-0.042930745
52	0x38c3e8aa	9.341662e-05
53	0xbd649e6d	-0.05581515
54	0xbe0faf54	-0.14031726
55	0x3df55ec6	0.11980967
56	0xbdf4d2de	-0.11954282
57	0x3e02d699	0.12777175
58	0x3e1adb4d	0.15122719
59	0xbdff2cc5	-0.12459711
60	0x3caed788	0.021343008
61	0x3e198c54	0.14994937
62	0xbe1b719e	-0.1518006
63	0xbcb13029	-0.02162941
64	0x3d58cda6	0.052930497
65	0xbda7c3aa	-0.08191617
66	0xbd931676	-0.071820185
67	0xbcacdc71	-0.021101208
68	0xbda6e4d5	-0.08149115
69	0x3be8f17c	0.0071088653
70	0xbe11ead4	-0.14249736
71	0xbdd291b6	-0.102816984
72	0x3dbffa99	0.093739696
73	0x3d6eb9da	0.05828271
74	0xbcf16bf7	-0.029470427
75	0x3d849f04	0.06475642
76	0x3d6e74d2	0.058216877
77	0x3dd3bde1	0.10338951
78	0xba7bcd2c	-0.0009605463
79	0x3d195872	0.037437864
80	0xbd0a1d95	-0.033719618
81	0x3db64d6a	0.08901484
82	0x3bcbf8ff	0.006224751
83	0xbd62addb	-0.055341583
84	0xbd91125a	-0.070835784
85	0xbd8bc484	-0.06824592
86	0xbdc0c6a4	-0.09412888
87	0x3e072fb5	0.13201793
88	0x3dc08aaa	0.09401448
89	0x3e011b5d	0.12608095
90	0x3ce1e7dd	0.027576381
91	0x3d8ff01c	0.07028219
92	0xbe1bc8dd	-0.15213342
93	0x3d60f1cf	0.054918107
94	0xbe089969	-0.13339771
95	0xbdfecece	-0.124417886
96	0xbcdc1c0f	-0.026868848
97	0xbe031f1c	-0.12804836
98	0x3d47f00e	0.04881292
99	0xbd1dcbe9	-0.038524542
100	0x3d2bd772	0.04195351
101	0x3cbbef1d	0.022941167
102	0x3ce6562d	0.028117264
103	0x3cae7103	0.021294123
104	0x3d1227c8	0.03568247
105	0x3da4169c	0.08012125
106	0x3b001951	0.001954634
107	0xbd5b1ef1	-0.053496305
108	0xbdf35431	-0.118812926
109	0x3e1bfba1	0.15232708
110	0x3bc90b55	0.006135384
111	0xbdd12d1d	-0.10213683
112	0xbe1fd10c	-0.15607089
113	0x3e0b0506	0.13576135
114	0x3d698d63	0.057019603
115	0xbe1d9d5b	-0.15392058
116	0x3e13f210	0.14447808
117	0xbd218fe8	-0.03944388
118	0xbda6b863	-0.08140638
119	0x3e21ab5b	0.15788023
120	0x3d9a979c	0.075484484
121	0x3d5c3e1f	0.05377018
122	0x3c6dd3aa	0.014515797
123	0x3d220790	0.039557993
124	0xbe140e0f	-0.14458488
125	0x3b0053ff	0.0019581316
126	0x3d348d38	0.04407999
127	0x3de1e2e5	0.11029605
128	0xbd9d2d6c	-0.07674679
129	0x3dbb23fa	0.09137721
130	0xbdcb8fb0	-0.099395156
131	0xbe02c23c	-0.12769407
132	0x3d88fe7c	0.06689164
133	0x3d3d5d33	0.04623146
134	0xbdeae5dd	-0.11469624
135	0x3dfa90eb	0.12234672
136	0x3c4d9d2c	0.01254968
137	0xbc6a4e1a	-0.014300847
138	0xbdfa2c92	-0.12215532
139	0x3de36b16	0.111044094
140	0x3dbcb0a7	0.09213381
141	0x3d1a069a	0.037603952
142	0x3e0ab592	0.13545826
143	0xbe206fce	-0.1566765
144	0x3db9e97d	0.090777375
145	0xbdb669d8	-0.08906907
146	0xbc99204d	-0.01869216
147	0x3dfe727a	0.124241784
148	0xbe1facfe	-0.15593335
149	0xbd3b91cc	-0.04579334
150	0xbbb4d59b	-0.005518628
151	0x3e08fe31	0.13378216
152	0xbce85a09	-0.028363245
153	0xbdac2a1b	-0.084064685
154	0x3d5eec8e	0.054424815
155	0xbe141b3a	-0.14463511
156	0xbdf4df6d	-0.119566776
157	0xbe101d38	-0.14073646
158	0x3d8a9a97	0.06767767
159	0xbd466721	-0.048438195
160	0xbe177c35	-0.14793475
161	0xbd0c6bec	-0.03428261
162	0xbdb58cd8	-0.088647544
163	0x3d5b66e4	0.05356492
164	0xbda45f6b	-0.08026012
165	0xbd9e94a6	-0.07743196
166	0xbe184758	-0.14870965
167	0xbcebbc94	-0.028776444
168	0x3d7afe78	0.061277837
169	0xbb583e1f	-0.0032996011
170	0x3dbc021c	0.0918009
171	0x3d8c78c2	0.0685897
172	0xbdce0c41	-0.10060931
173	0xbd097e67	-0.033567812
174	0xbd800a93	-0.06252017
175	0x3c975f7b	0.018478146
176	0x3ca35ca3	0.019941634
177	0xbdbff0b1	-0.0937208
178	0xbe206221	-0.15662433
179	0x3cd29896	0.025707524
180	0xbd403af8	-0.046931237
181	0x3dc0b865	0.094101705
182	0x3d9046e0	0.07044768
183	0x3c5f64af	0.013634845
184	0x3dde8451	0.10865081
185	0x3db14ff9	0.08657832
186	0xbe131ee6	-0.14367256
187	0x3dbde83f	0.09272813
188	0x3ccac57e	0.024752375
189	0x3cd048ec	0.025425397
190	0xbe0b08e2	-0.13577607
191	0xbdf848a8	-0.12123233
192	0x3e09f84d	0.13473625
193	0xbcc8b65b	-0.024501016
194	0xbdd35a6b	-0.1031998
195	0x3dc8e47c	0.09809205
196	0xbd0ba5d3	-0.03409369
197	0xbd8b7341	-0.06809092
198	0x3d0a220a	0.03372387
199	0xbe1930cf	-0.14960025
200	0x3db54d00	0.08852577
201	0x3e0b872b	0.13625781
202	0xbd8e9b80	-0.06963253
203	0xbcf14c64	-0.029455371
204	0x3db6bd14	0.089227825
205	0x3d15d9b7	0.036584582
206	0xbdbf4b7d	-0.0934057
207	0xbc74c1b0	-0.014938757
208	0x3d6a2610	0.057165205
209	0x3d7ed133	0.062211227
210	0x3df3c14a	0.11902101
211	0xbe0a9d13	-0.13536482
212	0xbdd51f9e	-0.10406421
213	0xbd493d34	-0.049130633
214	0x3d9c6bc7	0.076377444
215	0xbe168f77	-0.14703165
216	0x3d8cedf8	0.068813264
217	0x3e1c57f7	0.15267931
218	0xbdf0453b	-0.11731955
219	0x3df63ef8	0.12023729
220	0x3cb02c63	0.02150554
221	0x3c890adf	0.016728817
222	0xbe08c756	-0.1335729
223	0xbc9fb903	-0.0194974
224	0x3d4a8a87	0.049448516
225	0xbdf2f574	-0.11863223
226	0xbddd704c	-0.108124346
227	0xbd2ecbf6	-0.04267498
228	0xbbf59d37	-0.007495548
229	0x3de60967	0.11232262
230	0x3d7d14a1	0.06178725
231	0xbcae8588	-0.021303907
232	0xbe089ae7	-0.1334034
233	0x3e0d87d3	0.13821344
234	0x3c861200	0.016366005
235	0xbdddc984	-0.10829452
236	0x3a0ef1c9	0.0005452899
237	0x3d9efba7	0.077628426
238	0x3b42e9de	0.0029741446
239	0xbe1c5b1d	-0.15269132
240	0xbd9a2f2b	-0.07528528
241	0xbe086b4c	-0.1332218
242	0x3d353fb1	0.044250194
243	0x3d08fb92	0.03344304
244	0x3bb8b599	0.0056368825
245	0xbdfd615d	-0.12372086
246	0x3dc4f4c0	0.09616995
247	0x3e06cd86	0.13164338
248	0x3e168a30	0.14701152
249	0x3dbb936c	0.09158978
250	0x3ddbc98e	0.10731803
251	0xbc8edb8f	-0.017438678
252	0x3c8d399e	0.017239388
253	0xbe0bfe6f	-0.13671277
254	0xbd4ab3d1	-0.049487893
255	0xbd77598a	-0.060388125

net.1.weight f4 [256]
0	0x3f87272a	1.0558827
1	0x3f7ceaf4	0.9879601
2	0x3f7b382d	0.9813259
3	0x3f847bbe	1.0350263
4	0x3f7c528a	0.98563445
5	0x3f7dafbf	0.9909629
6	0x3f83e494	1.0304132
7	0x3f7e9afe	0.9945525
8	0x3f7f8544	0.9981272
9	0x3f806f3a	1.0033944
10	0x3f7a5230	0.9778166
11	0x3f801b15	1.0008265
12	0x3f72b415	0.94806033
13	0x3f85e4fa	1.0460503
14	0x3f7c9678	0.986671
15	0x3f81c2cd	1.0137573
16	0x3f7e8bba	0.99431956
17	0x3f80cca1	1.0062448
18	0x3f87c923	1.0608257
19	0x3f807bea	1.0037816
20	0x3f7f114b	0.9963576
21	0x3f86d4cb	1.0533689
22	0x3f736b16	0.95085275
23	0x3f7d88f1	0.9903708
24	0x3f81bf1f	1.013645
25	0x3f76c83d	0.9639929
26	0x3f7fe1d3	0.99953955
27	0x3f748ec9	0.9553037
28	0x3f7a48f6	0.9776758
29	0x3f7d2e85	0.9889911
30	0x3f8163cc	1.010858
31	0x3f84d6e8	1.0378084
32	0x3f7922f2	0.9731895
33	0x3f844750	1.0334263
34	0x3f8233c6	1.017205
35	0x3f7b1726	0.98082197
36	0x3f861abc	1.0476909
37	0x3f74fdf7	0.9570002
38	0x3f8456e5	1.0339018
39	0x3f79607e	0.9741286
40	0x3f78dc9d	0.9721163
41	0x3f80dc35	1.0067202
42	0x3f8b66ee	1.0890787
43	0x3f7b4f5e	0.9816798
44	0x3f76ca9c	0.9640291
45	0x3f7e2a10	0.9928293
46	0x3f828df6	1.0199573
47	0x3f77c48f	0.967843
48	0x3f86446d	1.0489632
49	0x3f7af45a	0.980291
50	0x3f7960d6	0.97413385
51	0x3f82873a	1.0197518
52	0x3f7c6c74	0.98602986
53	0x3f86e333	1.0538086
54	0x3f7e596e	0.9935521
55	0x3f785259	0.9700065
56	0x3f818a7f	1.0120391
57	0x3f7e9ddb	0.9945962
58	0x3f78f2a2	0.9724523
59	0x3f714f82	0.94261944
60	0x3f82fd03	1.0233463
61	0x3f83c8c6	1.0295646
62	0x3f7f16e7	0.9964432
63	0x3f81c636	1.0138614
64	0x3f7b235e	0.9810084
65	0x3f7b85c2	0.98250973
66	0x3f78f7ad	0.97252923
67	0x3f81c4a1	1.0138131
68	0x3f7c9deb	0.98678464
69	0x3f7f9ad6	0.99845636
70	0x3f84a5af	1.0363063
71	0x3f7c7db2	0.98629296
72	0x3f7b89ea	0.98257315
73	0x3f7dfff2	0.99218667
74	0x3f8387d4	1.0275826
75	0x3f7d61c0	0.9897728
76	0x3f712af4	0.94206166
77	0x3f80b582	1.0055392
78	0x3f787b32	0.9706298
79	0x3f7e2bf9	0.99285847
80	0x3f842360	1.0323296
81	0x3f83abdc	1.0286822
82	0x3f81d61a	1.0143464
83	0x3f810bab	1.0081686
84	0x3f818569	1.0118839
85	0x3f77f6f8	0.9686122
86	0x3f77efdd	0.9685038
87	0x3f8a16e6	1.0788238
88	0x3f841b21	1.0320779
89	0x3f8366be	1.026573
90	0x3f7c4eda	0.9855782
91	0x3f7be3cc	0.98394465
92	0x3f785a9e	0.9701327
93	0x3f7df08a	0.9919516
94	0x3f7a1296	0.9768461
95	0x3f77722e	0.966586
96	0x3f813eb8	1.0097265
97	0x3f88024e	1.0625703
98	0x3f73eac1	0.9528008
99	0x3f7653d6	0.96221673
100	0x3f7cab72	0.98699105
101	0x3f821571	1.0162793
102	0x3f7df2f2	0.9919883
103	0x3f7612d2	0.9612247
104	0x3f83d8e2	1.0300562
105	0x3f73f1b1	0.95290667
106	0x3f7ffe67	0.9999756
107	0x3f80f011	1.0073262
108	0x3f7bf764	0.98424363
109	0x3f846261	1.0342523
110	0x3f85a9f6	1.0442493
111	0x3f80c5e7	1.0060395
112	0x3f7b6d59	0.98213726
113	0x3f876350	1.0577183
114	0x3f7ef8b7	0.9959826
115	0x3f809d85	1.0048071
116	0x3f794b2c	0.9738033
117	0x3f7c8c9b	0.98652047
118	0x3f8305d2	1.0236151
119	0x3f7af75e	0.980337
120	0x3f7d3337	0.9890627
121	0x3f836db8	1.0267859
122	0x3f845cdf	1.0340842
123	0x3f81944c	1.0123382
124	0x3f7b6c78	0.98212385
125	0x3f78e895	0.9722989
126	0x3f7cbd10	0.98725986
127	0x3f827dab	1.0194601
128	0x3f82dd03	1.0223697
129	0x3f841ddd	1.0321614
130	0x3f7e2598	0.99276114
131	0x3f7cd306	0.98759496
132	0x3f7b7920	0.982317
133	0x3f7f99e2	0.9984418
134	0x3f7ee6ab	0.9957072
135	0x3f7c60a3	0.98584956
136	0x3f7ccf85	0.9875415
137	0x3f752ef5	0.95774776
138	0x3f79b6a4	0.9754431
139	0x3f802028	1.0009813
140	0x3f8123e5	1.0089079
141	0x3f801c07	1.0008553
142	0x3f824688	1.0177774
143	0x3f83c96d	1.0295845
144	0x3f72d417	0.94854873
145	0x3f81c599	1.0138427
146	0x3f80bd48	1.0057764
147	0x3f7c27f2	0.9849845
148	0x3f84e9c2	1.0383837
149	0x3f7c8f2a	0.9865595
150	0x3f7e098c	0.9923332
151	0x3f756474	0.95856404
152	0x3f7fdc59	0.999456
153	0x3f8449ff	1.0335082
154	0x3f81d3b3	1.014273
155	0x3f75d767	0.960318
156	0x3f76ea51	0.9645129
157	0x3f82cfe0	1.0219688
158	0x3f7f5414	0.9973767
159	0x3f7cb542	0.9871408
160	0x3f78585c	0.97009826
161	0x3f7cb8db	0.9871957
162	0x3f6e237e	0.93022907
163	0x3f7f20d0	0.9965944
164	0x3f865958	1.0496016
165	0x3f7eee12	0.99582016
166	0x3f8409b6	1.0315464
167	0x3f814c7f	1.010147
168	0x3f80590a	1.0027173
169	0x3f800b71	1.0003492
170	0x3f7a67d7	0.978147
171	0x3f781863	0.9691221
172	0x3f7dc4ac	0.9912822
173	0x3f7ba01b	0.98291177
174	0x3f831590	1.0240955
175	0x3f82dcdf	1.0223655
176	0x3f8524c0	1.040184
177	0x3f8099ec	1.0046973
178	0x3f8018c5	1.0007559
179	0x3f7e97ff	0.9945068
180	0x3f851270	1.0396252
181	0x3f805bbd	1.0027996
182	0x3f7958f0	0.9740133
183	0x3f83a231	1.0283872
184	0x3f7dbca8	0.9911599
185	0x3f82581a	1.0183136
186	0x3f82efb4	1.0229402
187	0x3f73c51b	0.95222634
188	0x3f7a879b	0.9786317
189	0x3f81784f	1.011484
190	0x3f7a0350	0.97661304
191	0x3f79848d	0.9746788
192	0x3f817c08	1.0115976
193	0x3f805978	1.0027304
194	0x3f7a42a4	0.97757936
195	0x3f80e070	1.0068493
196	0x3f84bd8e	1.0370347
197	0x3f7ed00c	0.99536204
198	0x3f8297a7	1.0202531
199	0x3f7c5ac8	0.9857602
200	0x3f763655	0.96176654
201	0x3f82114e	1.0161531
202	0x3f84f655	1.0387675
203	0x3f841694	1.031939
204	0x3f80ce10	1.0062885
205	0x3f8402a4	1.0313306
206	0x3f82803b	1.0195383
207	0x3f81bf6c	1.0136542
208	0x3f7be06e	0.9838933
209	0x3f7e9b18	0.99455404
210	0x3f7e36a8	0.9930215
211	0x3f85e31c	1.0459933
212	0x3f7c92c9	0.98661476
213	0x3f78638d	0.970269
214	0x3f7e07ad	0.9923046
215	0x3f7cc4b7	0.98737663
216	0x3f7ae2bb	0.98002213
217	0x3f828585	1.0196997
218	0x3f7fa421	0.99859816
219	0x3f76428d	0.961953
220	0x3f7e6711	0.99376017
221	0x3f87a219	1.0596343
222	0x3f82dcb9	1.0223609
223	0x3f84c060	1.0371208
224	0x3f7ea68d	0.99472886
225	0x3f798d90	0.9748163
226	0x3f7ebb79	0.9950481
227	0x3f801c88	1.0008707
228	0x3f79e00f	0.9760751
229	0x3f7fddc4	0.9994776
230	0x3f80d717	1.006564
231	0x3f7b2f78	0.98119307
232	0x3f7f2c0b	0.9967658
233	0x3f7b2fbd	0.9811972
234	0x3f7cd76f	0.98766226
235	0x3f7d3fd6	0.9892553
236	0x3f813113	1.0093101
237	0x3f7e045a	0.9922539
238	0x3f7c925d	0.9866083
239	0x3f82ec9e	1.022846
240	0x3f7ef5bd	0.99593717
241	0x3f81ce04	1.0140996
242	0x3f72f988	0.94912004
243	0x3f841022	1.0317423
244	0x3f7998ef	0.97498983
245	0x3f76832c	0.962939
246	0x3f7802a7	0.9687905
247	0x3f866b9c	1.050159
248	0x3f852b0a	1.040376
249	0x3f795e58	0.9740958
250	0x3f7e6e73	0.9938728
251	0x3f7d03f4	0.98834157
252	0x3f7cd728	0.987658
253	0x3f82c51f	1.0216407
254	0x3f7eebf1	0.9957877
255	0x3f7e8300	0.9941864

net.1.bias f4 [256]
0	0x3cdbab75	0.026815156
1	0xbcbfd21a	-0.023415614
2	0xb9078ab0	-0.00012926268
3	0xbd31c08f	-0.04339653
4	0xbd07c665	-0.03314819
5	0xbd29e2a8	-0.041475922
6	0xbcaf553e	-0.021402951
7	0xbce9aaac	-0.028523766
8	0xbd269448	-0.040668756
9	0x3b546752	0.0032410217
10	0x3d04fc94	0.03246744
11	0xbce66311	-0.02812341
12	0x3bfd620d	0.007732636
13	0xbc0ae42c	-0.008477252
14	0xbd00dfec	-0.03146355
15	0xbcafe21f	-0.021470128
16	0x3c07c33d	0.0082862945
17	0x3d1eb131	0.0387432
18	0x3c021a1c	0.007940795
19	0xbc8d5a73	-0.017255044
20	0x3bcc5427	0.0062356177
21	0xbd0d2bea	-0.034465708
22	0xbd9c5de1	-0.076350935
23	0xbc4ed919	-0.012625002
24	0xbd55286f	-0.052040514
25	0xbce58314	-0.028016604
26	0xbd14625e	-0.036226623
27	0xbd9085fa	-0.07056804
28	0xbc837dbe	-0.01605117
29	0xbcb42349	-0.021989482
30	0xbb890a67	-0.0041821483
31	0xbca6ede1	-0.020377101
32	0xbd623c58	-0.05523333
33	0xbd05e95c	-0.032693252
34	0x3c7697ee	0.015050871
35	0xbd806737	-0.06269687
36	0xbb682f9f	-0.0035428775
37	0xbd2ee8a0	-0.042702317
38	0xbc018dba	-0.007907325
39	0xbd82abfb	-0.06380459
40	0xbbb82ab2	-0.005620324
41	0xbcb7c6e3	-0.022433704
42	0x3cb8be90	0.022551805
43	0x3d38cdde	0.045118205
44	0xbd839c25	-0.064262666
45	0xbcc78799	-0.02435665
46	0x3cb5ad5e	0.022177394
47	0xbcaad56c	-0.02085372
48	0x3c31119c	0.010807421
49	0xbca4d46d	-0.020120824
50	0xbcf78178	-0.030213103
51	0xbb2753dc	-0.0025532162
52	0x3c48ead9	0.012263023
53	0x3d1314f0	0.03590864
54	0xbceee4d3	-0.029161846
55	0xbdbce8a4	-0.0922406
56	0xbd038bf5	-0.032115895
57	0xbc7fce4a	-0.015613148
58	0xbc1f604e	-0.009727551
59	0xbc8a749a	-0.016901303
60	0xbcba3ac2	-0.022733096
61	0xbd12d8ac	-0.035851166
62	0xbcccbd03	-0.024992472
63	0x3cffce04	0.031226166
64	0xbd95e5be	-0.073192105
65	0x3c9a13e9	0.018808322
66	0xbd88eca7	-0.06685763
67	0x3d0f83bb	0.035037737
68	0xbda5fc98	-0.08104819
69	0xbd7ed65c	-0.062216148
70	0xbcb15224	-0.021645613
71	0xbb477a24	-0.0030437792
72	0xbcf8c7b7	-0.030368669
73	0xbc1a46c3	-0.009416285
74	0xbd373642	-0.04472948
75	0xbdb5165a	-0.08842154
76	0xbcdd0ca7	-0.026983572
77	0x3be76e3b	0.007062701
78	0xbd74027a	-0.059572674
79	0xbc379b4f	-0.011206462
80	0xbd1dcd9b	-0.03852616
81	0xbd5d1319	-0.05397329
82	0xbd614e93	-0.055006575
83	0xbdb9d540	-0.09073877
84	0xbd744ef0	-0.059645593
85	0xbc82bc8b	-0.015959045
86	0xbca35c3c	-0.019941442
87	0x3b53b21d	0.0032302209
88	0xbcda3dbf	-0.026640771
89	0xb98eb953	-0.00027222428
90	0xbd9348fa	-0.071916535
91	0xbda45eba	-0.0802588
92	0xbd48516a	-0.048905768
93	0xbc762005	-0.0150222825
94	0xbca50c49	-0.02014746
95	0xbc35df77	-0.011100641
96	0xbc59bd7b	-0.013289805
97	0xbce630d9	-0.028099464
98	0x3c36fec6	0.011169141
99	0xbd5c1757	-0.053733196
100	0xbd3e8bd4	-0.04652007
101	0xbc8858a7	-0.016643835
102	0xbd26a204	-0.040681854
103	0xbdb16217	-0.08661287
104	0xbdb4519e	-0.0880463
105	0xbcadc001	-0.021209719
106	0xbd60c4ba	-0.054875113
107	0xbbf23542	-0.0073916027
108	0x3a7ae498	0.0009570806
109	0xbd40b6df	-0.0470494
110	0xbb0c8455	-0.002144118
111	0xbd1872f0	-0.037218988
112	0xb9b3426f	-0.00034191037
113	0x3d19357b	0.03740452
114	0xbc44de34	-0.012015868
115	0xbd6d5d07	-0.057950046
116	0x3c9f57a7	0.019450976
117	0xbce07741	-0.027400615
118	0xbd90b5d1	-0.07065929
119	0xbd449ed7	-0.048003044
120	0x3bee23a6	0.007267433
121	0xbd45121f	-0.048112985
122	0xbd078fd3	-0.033096146
123	0xbd2890b7	-0.041153636
124	0xbd4e44c5	-0.050358552
125	0xbcb8670c	-0.022510074
126	0xbd3f41b1	-0.046693508
127	0xbbc7dfba	-0.0060996683
128	0xbcfc2e2d	-0.030783737
129	0xbd830b8b	-0.06398686
130	0xbbba8fb6	-0.005693401
131	0xbd0ed288	-0.034868747
132	0xbd9e23f3	-0.077217005
133	0xbcf8b6e0	-0.03036064
134	0xbca63256	-0.020287674
135	0xbd1cd7a8	-0.038291603
136	0xbd864775	-0.06556598
137	0xbd37647a	-0.044773556
138	0xbd591f9a	-0.053008653
139	0xbcee5b05	-0.029096136
140	0xbc545911	-0.012960688
141	0x3c459047	0.012058324
142	0xbb3d256f	-0.0028861423
143	0x3c23ea2c	0.010004561
144	0xbd5b0b4a	-0.053477563
145	0xbd443a04	-0.04790689
146	0xbcb36a60	-0.02190131
147	0xbd5d243d	-0.053989638
148	0xbd5ff2bf	-0.05467486
149	0xbcd1dd74	-0.025618292
150	0xbd23b165	-0.0399641
151	0xbd7e4406	-0.06207659
152	0xbd15ff1f	-0.036620256
153	0x3ca4232d	0.020036304
154	0xbc794899	-0.015215063
155	0xbc2b15ef	-0.010442241
156	0xbd2aab87	-0.041667487
157	0xbbd0d3fb	-0.0063729263
158	0xbd0e4747	-0.034735944
159	0xb9d2d6e2	-0.00040214421
160	0xbccfee07	-0.025382055
161	0xbccbd2a6	-0.024880718
162	0xbdb25830	-0.08708227
163	0xbce94793	-0.028476512
164	0x3bc9fd9b	0.0061642653
165	0x399acbcb	0.00029525007
166	0xbc092a25	-0.008371864
167	0x3c16e623	0.009210142
168	0x3d13b743	0.036063444
169	0xbcbc9555	-0.023020426
170	0x390f6312	0.0001367445
171	0xbc408c0f	-0.011752143
172	0xbd00e38c	-0.031467006
173	0xbcf6f1ea	-0.03014465
174	0xbc9acb7c	-0.018895857
175	0xbbb8e91c	-0.005643023
176	0xbdaf037c	-0.085455865
177	0x3ca94b23	0.02066571
178	0xbc4706e3	-0.012147638
179	0xbcb7fd57	-0.022459669
180	0xbd305101	-0.043046
181	0xbd812825	-0.06306485
182	0xbc90363f	-0.017603992
183	0xbba00ef3	-0.0048845946
184	0xbd4e1cab	-0.05032031
185	0xbcb0840b	-0.021547338
186	0xbd2851b1	-0.041093532
187	0xbd695f29	-0.056975517
188	0xbd70555c	-0.058675155
189	0xbda76c25	-0.08174924
190	0xbd07a4a0	-0.033115983
191	0xbd36c583	-0.044621956
192	0x3c1a24da	0.0094082
193	0x3d29be1a	0.04144106
194	0xbd20ee42	-0.03928972
195	0xbaba82a2	-0.0014229605
196	0xbcec008c	-0.028808855
197	0xbc82413c	-0.015900247
198	0x3bf548d4	0.0074854884
199	0xbc4eb371	-0.012616024
200	0xbd37b785	-0.044852752
201	0xbc247788	-0.010038264
202	0xbc70e57a	-0.014703149
203	0xbd91cb5e	-0.07118867
204	0xbd5e1368	-0.054217726
205	0xbd347f46	-0.04406669
206	0xbd19e75c	-0.037574157
207	0xbd257752	-0.040396996
208	0xbce503b8	-0.027955875
209	0xbdc227c1	-0.09480239
210	0x3ba6a693	0.005085775
211	0x3cee645b	0.029100588
212	0xbd655f9f	-0.055999395
213	0xbcaaae03	-0.020834928
214	0xbb54dffc	-0.0032482138
215	0xbd87f566	-0.06638603
216	0xbd846e6d	-0.064663745
217	0xbc41b052	-0.011821823
218	0xbc86aa37	-0.016438587
219	0xbd22f262	-0.039781936
220	0xbd102364	-0.03519
221	0xbd4c2997	-0.04984435
222	0x3c9e4faf	0.019325105
223	0xbcff2670	-0.031146258
224	0x3cd8a504	0.026445873
225	0x3cd8ac0c	0.026449226
226	0xbd17e913	-0.03708751
227	0xbd67361e	-0.056448095
228	0xbd163a5c	-0.03667675
229	0xbd3b10cd	-0.04567032
230	0xbcd35d31	-0.025801273
231	0xbd7a50e9	-0.06111232
232	0xbc6f51c4	-0.014606897
233	0xbd51a139	-0.051179145
234	0xbd185bdb	-0.037196975
235	0xbd1a1336	-0.037615977
236	0xbbcf1c70	-0.0063205287
237	0x3c317f0c	0.010833513
238	0xbc6b9932	-0.014379786
239	0xbccec1a8	-0.025238827
240	0xbcc1615e	-0.023605999
241	0xbc0f6759	-0.008752667
242	0xbc95986c	-0.018261157
243	0x3cc24b03	0.023717409
244	0xbd3e5a4c	-0.046472833
245	0xbdd8ff98	-0.10595626
246	0xbd9bc37b	-0.07605644
247	0xbcefab67	-0.029256536
248	0xbc91dd3e	-0.017805692
249	0xbd2560d0	-0.04037553
250	0xbbfc2fd5	-0.0076961317
251	0xbd0d4536	-0.034489833
252	0xbd71dca5	-0.059048314
253	0xbd116c45	-0.035503644
254	0xbd2f1c75	-0.042751748
255	0xbd1ae050	-0.037811577

net.1.running_mean f4 [256]
0	0x3c918179	0.017761933
1	0xbdb16573	-0.08661928
2	0xbd752e92	-0.059858866
3	0x3cbb58d4	0.022869505
4	0x3c316eee	0.01082967
5	0x3e0db439	0.1383828
6	0x3ddd52b4	0.1080679
7	0x3cc701a8	0.024292782
8	0xbc9bba0b	-0.01900961
9	0xbe1b90d1	-0.15191962
10	0x3d932ac3	0.071858905
11	0xbdb44e15	-0.088039555
12	0x3d041bed	0.032253195
13	0xbcf284c0	-0.029604316
14	0x3e0db1ae	0.1383731
15	0xbd9eeefd	-0.07760427
16	0xbdc208c2	-0.09474327
17	0x3e0ccbe8	0.13749659
18	0x3db0ab4d	0.08626423
19	0xbd88afb0	-0.06674135
20	0xbe14fb94	-0.14549094
21	0x3db5d8b7	0.08879226
22	0xbe11f80a	-0.14254776
23	0xbc91e6b4	-0.017810203
24	0x3e12c7d0	0.14334035
25	0x3e21264e	0.15737268
26	0x3d971680	0.073773384
27	0x3b80eea5	0.0039346986
28	0xbdce8e2c	-0.10085711
29	0x3dde1d3d	0.108454205
30	0x3b1df2f2	0.0024101106
31	0x3e099be6	0.13438377
32	0x3dc377d4	0.0954434
33	0x3c689e36	0.014197877
34	0x3e04410b	0.12915437
35	0xbd8bb707	-0.06822019
36	0x3d9a55d5	0.075359024
37	0x3e05cc09	0.13066114
38	0xbce493a4	-0.027902432
39	0xbd43812d	-0.047730613
40	0xbe1f6553	-0.15565996
41	0x3e044045	0.12915142
42	0xbd2289bd	-0.03968214
43	0xbe17ecd3	-0.14836435
44	0x3e1786e2	0.14797547
45	0xbd92c9b2	-0.071673766
46	0x3de025e8	0.1094473
47	0x3d8030a8	0.062592804
48	0xbdd658e3	-0.104661725
49	0x3e0da577	0.13832651
50	0xbd8af681	-0.06785298
51	0xbd376e55	-0.044782955
52	0xbc03c44d	-0.008042407
53	0xbd624bb1	-0.055247966
54	0xbe0d5fad	-0.13806029
55	0x3dfb2f13	0.12264838
56	0xbded2693	-0.11579623
57	0x3dfbb112	0.12289633
58	0x3e1ac6a4	0.15114838
59	0xbe0de052	-0.13855103
60	0x3ca9e201	0.02073765
61	0x3e10ab1f	0.14127778
62	0xbe1f992b	-0.15585773
63	0xbd043e1c	-0.032285795
64	0x3d752ce2	0.059857257
65	0xbdadbc01	-0.084831245
66	0xbda4f624	-0.0805476
67	0xbd009682	-0.031393535
68	0xbd964e6c	-0.073391765
69	0xbb99f372	-0.0046982104
70	0xbe0efbcc	-0.1396324
71	0xbdd23971	-0.10264862
72	0x3dbbfd66	0.09179191
73	0x3d72a621	0.059240464
74	0xbcd19bb1	-0.025586935
75	0x3d8c96f2	0.06864728
76	0x3d6be3d4	0.05759032
77	0x3dc7f65f	0.097637884
78	0xb7f0a236	-2.8685765e-05
79	0x3d190adc	0.037363872
80	0xbd05b144	-0.032639757
81	0x3db6a0ae	0.08917366
82	0x3bb95972	0.0056564147
83	0xbd67f9a1	-0.05663455
84	0xbd884b74	-0.066550165
85	0xbd861695	-0.06547276
86	0xbdb6ef78	-0.08932394
87	0x3e0767d6	0.13223204
88	0x3dc8120f	0.097690694
89	0x3df3f3e2	0.11911751
90	0x3c82a431	0.015947433
91	0x3d9ac91d	0.075578906
92	0xbe1e734e	-0.15473673
93	0x3d80d14e	0.06289922
94	0xbe04b163	-0.12958293
95	0xbe014352	-0.12623337
96	0xbd02a517	-0.031895723
97	0xbe011f6c	-0.12609643
98	0x3d503f3f	0.050841566
99	0xbd11fc49	-0.03564099
100	0x3d3a8393	0.045535635
101	0x3ca9002c	0.020629965
102	0x3cc053bf	0.023477433
103	0x3c4c8efa	0.01248526
104	0x3d18d3a7	0.037311222
105	0x3d8e9b91	0.06963266
106	0xbbda34af	-0.0066591124
107	0xbd6e7180	-0.05821371
108	0xbde3b295	-0.11118046
109	0x3e237f2a	0.15966478
110	0x3bfe8408	0.007767204
111	0xbdd39a5f	-0.10332178
112	0xbe201900	-0.15634537
113	0x3e0baefc	0.1364097
114	0x3d787d85	0.06066658
115	0xbe15e7a3	-0.14639144
116	0x3e103ddd	0.14086099
117	0xbd26e335	-0.040744025
118	0xbda09899	-0.07841606
119	0x3e1dedee	0.15422794
120	0x3d9544d8	0.072885215
121	0x3d4dea4c	0.05027227
122	0x3c450448	0.0120249465
123	0x3d0f7ffa	0.035034157
124	0xbe19146d	-0.14949198
125	0x3aafe95f	0.001342099
126	0x3d0adda4	0.03390278
127	0x3dd86f9b	0.10568162
128	0xbd9098ad	-0.070603706
129	0x3dbcba27	0.09215193
130	0xbdd9c6e1	-0.10633636
131	0xbe0cba59	-0.13742961
132	0x3d9344f6	0.07190888
133	0x3d416583	0.04721595
134	0xbdf21539	-0.11820454
135	0x3df3a134	0.118959814
136	0x3c1b2c37	0.009470991
137	0xbca1a14a	-0.019730229
138	0xbdeff2cd	-0.117162324
139	0x3ddc9bf2	0.10771932
140	0x3dbdd134	0.09268418
141	0x3cf3139b	0.029672435
142	0x3e0759e8	0.1321789
143	0xbe1b5bed	-0.15171786
144	0x3dbe956c	0.09305844
145	0xbdb53d75	-0.088496126
146	0xbcc58518	-0.024111316
147	0x3dfd28c6	0.123612925
148	0xbe20c98a	-0.15701881
149	0xbd52fce7	-0.051510718
150	0xbca2d21c	-0.019875579
151	0x3e08dc43	0.13365273
152	0xbcd9a715	-0.026568929
153	0xbdb7389b	-0.089463435
154	0x3d629b2b	0.05532376
155	0xbe1b1481	-0.1514454
156	0xbdf66b2a	-0.12032159
157	0xbe15642c	-0.14588994
158	0x3d8878e1	0.06663681
159	0xbd547f0e	-0.05187898
160	0xbe169aff	-0.14707564
161	0xbd1d0fa2	-0.038344987
162	0xbda1d2d2	-0.07901539
163	0x3d6fe83d	0.05857109
164	0xbda41d28	-0.080133736
165	0xbd9cc1b9	-0.07654137
166	0xbe0e7a82	-0.1391392
167	0xbcbd25c1	-0.023089292
168	0x3d6f774e	0.058463387
169	0xbae19ec1	-0.001721345
170	0x3dc646fe	0.096815094
171	0x3d86336d	0.065527774
172	0xbdd7472e	-0.10511623
173	0xbd1be4b4	-0.038059905
174	0xbd8a4bc2	-0.06752731
175	0x3cf36158	0.029709503
176	0x3c9ed7ae	0.019389953
177	0xbdc581f9	-0.09643931
178	0xbe1abc7f	-0.15110968
179	0x3ca925e2	0.020647947
180	0xbd353d22	-0.044247754
181	0x3dc7f2d0	0.0976311
182	0x3d9692e9	0.0735224
183	0x3c8598a1	0.01630813
184	0x3ddbc5a9	0.1073106
185	0x3db75e52	0.08953537
186	0xbe1be0f4	-0.15222532
187	0x3dbf54ad	0.093423225
188	0x3c9c876d	0.019107545
189	0x3c9ccb39	0.019139873
190	0xbe0b3697	-0.13595043
191	0xbe043c94	-0.12913734
192	0x3e07890e	0.13235876
193	0xbcb7705c	-0.022392444
194	0xbdd24b9a	-0.10268326
195	0x3dc880fa	0.09790225
196	0xbd0c0063	-0.034180056
197	0xbd88e58b	-0.06684407
198	0x3cbba3f1	0.022905322
199	0xbe0cf16e	-0.13763973
200	0x3db4ddec	0.08831391
201	0x3e1277f2	0.14303568
202	0xbd8d8699	-0.06910438
203	0xbcd82ea3	-0.026389426
204	0x3dbda2bb	0.09259554
205	0x3d37b9d0	0.04485494
206	0xbdb3d88a	-0.08781536
207	0xbc3c1ce4	-0.011481497
208	0x3d5aa90f	0.053383883
209	0x3d87dd82	0.06634046
210	0x3dfa5e4e	0.122250184
211	0xbe0864e7	-0.13319741
212	0xbdcede0a	-0.10100944
213	0xbd6bcaa3	-0.057566296
214	0x3da20fb3	0.07913151
215	0xbe12b969	-0.14328541
216	0x3d9dad89	0.07699115
217	0x3e1ed1cf	0.15509723
218	0xbdec6bc3	-0.115439914
219	0x3dffcfad	0.12490783
220	0x3c8ad95b	0.016949346
221	0x3c83db40	0.016095757
222	0xbe0608ca	-0.1308929
223	0xbcd99610	-0.026560813
224	0x3d3f7324	0.046740666
225	0xbdf77e15	-0.12084595
226	0xbddc0bb3	-0.10744419
227	0xbd44d3ad	-0.048053432
228	0xbb77c749	-0.0037807992
229	0x3dec0ba8	0.11525661
230	0x3d8c9149	0.068636484
231	0xbca6c79d	-0.020358855
232	0xbe0d3a3d	-0.13791747
233	0x3e0c739e	0.1371598
234	0x3cafd9b1	0.021466108
235	0xbde5c494	-0.11219135
236	0x3bd1eb25	0.0064062052
237	0x3d9487a5	0.07252435
238	0x3c036d65	0.008021687
239	0xbe15a551	-0.14613844
240	0xbd96a75a	-0.073561385
241	0xbe081de2	-0.1329265
242	0x3d2e136b	0.042498987
243	0x3d004e52	0.031324692
244	0x3c11f5d4	0.008908708
245	0xbe044e55	-0.12920506
246	0x3dd1b81c	0.10240194
247	0x3e0a08d1	0.13479926
248	0x3e1603a4	0.14649826
249	0x3dba9203	0.09109881
250	0x3dea0e7b	0.11428543
251	0xbcc9d9af	-0.024639932
252	0x3cae034b	0.021241805
253	0xbe0b8413	-0.13624601
254	0xbd4e7ddc	-0.050412998
255	0xbd667ca9	-0.05627123

net.1.running_var f4 [256]
0	0x3e35244f	0.17689632
1	0x3f0c6f8e	0.5485772
2	0x3ecd6509	0.40116146
3	0x3ecd7aa0	0.40132618
4	0x3ee517a2	0.44744593
5	0x3e8dd94f	0.27704856
6	0x3ebd7b19	0.3700798
7	0x3e60e309	0.21961607
8	0x3e4a8e3e	0.19780824
9	0x3ed4b045	0.41540733
10	0x3ed1b689	0.40959576
11	0x3f6c3ca5	0.92280036
12	0x3f316259	0.6929069
13	0x3e135d08	0.14390957
14	0x3ec0d312	0.37661034
15	0x3ebb4479	0.36575678
16	0x3f055239	0.52078587
17	0x3e9ad6a6	0.3024189
18	0x3e97b4d6	0.29630154
19	0x3edc992a	0.43085605
20	0x3ecc42ce	0.39894718
21	0x3e7ccb43	0.24686913
22	0x3e826e2d	0.25474682
23	0x3efe9728	0.49724698
24	0x3e86541b	0.26236042
25	0x3eb6916f	0.35657832
26	0x3e6bad11	0.23015238
27	0x3e843625	0.2582256
28	0x3e8fa8d0	0.2805848
29	0x3e8372b0	0.25673437
30	0x3e853835	0.26019445
31	0x3e8ed828	0.2789929
32	0x3e8d213d	0.2756442
33	0x3ea3b515	0.31974092
34	0x3e871120	0.26380253
35	0x3e72e115	0.23718674
36	0x3eb4fd2b	0.35349402
37	0x3eba889f	0.3643236
38	0x3e53a04c	0.20666617
39	0x3ef24ee0	0.47325802
40	0x3efd1d25	0.49436298
41	0x3e95f02b	0.29284796
42	0x3e56325d	0.2091765
43	0x3e811820	0.25213718
44	0x3f0bbb28	0.5458245
45	0x3e944cd5	0.28964868
46	0x3e35f79d	0.17770238
47	0x3ea2d9d8	0.31806827
48	0x3e7b8aec	0.24564713
49	0x3ed968f7	0.42462894
50	0x3e9bdb14	0.3044058
51	0x3e86009b	0.26172337
52	0x3edcc533	0.431192
53	0x3e80df3b	0.2517031
54	0x3e7b5e52	0.24547699
55	0x3eb0a3ca	0.3449996
56	0x3e42efb3	0.1903675
57	0x3e8385a0	0.25687885
58	0x3e8f3810	0.2797246
59	0x3ee0287f	0.43780896
60	0x3e52f254	0.20600253
61	0x3f3e3419	0.74298245
62	0x3e82da2d	0.2555708
63	0x3f50eda4	0.8161261
64	0x3e934026	0.2875988
65	0x3e548197	0.2075256
66	0x3eb227f1	0.34796098
67	0x3f25b44f	0.64728254
68	0x3f010be7	0.50408787
69	0x3f7f95c5	0.99837905
70	0x3e2f3129	0.17108597
71	0x3e593e06	0.21215066
72	0x3e818891	0.25299504
73	0x3e8f9b5f	0.28048226
74	0x3f0be7f4	0.5465081
75	0x3f7e33a2	0.99297535
76	0x3e6bd20d	0.23029347
77	0x3e3bc612	0.18337277
78	0x3ea241f3	0.3169094
79	0x3eadc318	0.33937907
80	0x3e42eacb	0.19034879
81	0x3e80b226	0.25135916
82	0x3e25fb3c	0.1620912
83	0x3e73b173	0.2379816
84	0x3e9f8ecd	0.31163636
85	0x3eb63682	0.3558846
86	0x3ebc9aa9	0.36836746
87	0x3dc0e785	0.09419159
88	0x3f1f1925	0.6214774
89	0x3f466353	0.77495307
90	0x3e5ceb84	0.21574217
91	0x3ebcaa01	0.36848453
92	0x3e9e5249	0.30922154
93	0x3eee4aec	0.46541536
94	0x3e8da44f	0.2766442
95	0x3f0ff9d2	0.5624057
96	0x3e822d08	0.2542498
97	0x3e9f779a	0.31145936
98	0x3ea89325	0.32924762
99	0x3f19fd19	0.6015182
100	0x3ee64a93	0.4497877
101	0x3ea24a9b	0.31697544
102	0x3e8745e3	0.26420507
103	0x3ed60fa1	0.418088
104	0x3ed7d6ae	0.42155975
105	0x3f096e8c	0.53684306
106	0x3e5c861f	0.21535538
107	0x3e3d8e27	0.18511258
108	0x3ea9ae3e	0.3314075
109	0x3e8153dc	0.25259292
110	0x3e29da8f	0.1658728
111	0x3e79bd9a	0.24388734
112	0x3ee8db9c	0.4548005
113	0x3e1fced6	0.15606245
114	0x3f04f115	0.5193036
115	0x3e5e6d48	0.21721375
116	0x3e7adeff	0.24499129
117	0x3e81b901	0.2533646
118	0x3ec8b37a	0.3919943
119	0x3ed353af	0.41274783
120	0x3e177d86	0.14793977
121	0x3f456c97	0.7711882
122	0x3f35c977	0.71010536
123	0x3ec8aa6c	0.39192522
124	0x3f8502ac	1.039144
125	0x3ea9d139	0.33167437
126	0x3e8ae7f6	0.27130097
127	0x3ec35a79	0.38154963
128	0x3ead17e2	0.33807284
129	0x3e404f4e	0.18780252
130	0x3e9919ae	0.29902405
131	0x3e4f7bc4	0.20262057
132	0x3e600a7f	0.21879004
133	0x3e833af6	0.2563092
134	0x3eaa37bc	0.33245647
135	0x3ecd0d16	0.40049046
136	0x3f3f4f0a	0.7472998
137	0x3ed95912	0.42450768
138	0x3eb56d24	0.3543483
139	0x3f7f58d7	0.99744934
140	0x3e972824	0.29522812
141	0x3e6aca65	0.2292877
142	0x3e50995b	0.20371
143	0x3f36753e	0.7127265
144	0x3f4e8c3e	0.8068274
145	0x3ee4bed1	0.4467683
146	0x3ec9715b	0.39344296
147	0x3e377f5c	0.17919677
148	0x3e418c06	0.18901071
149	0x3eff96bc	0.4991969
150	0x3f1af945	0.60536605
151	0x3e829b60	0.25509167
152	0x3e633fbc	0.22192281
153	0x3f86da05	1.0535284
154	0x3e18d8ef	0.14926504
155	0x3f068095	0.5253995
156	0x3edd05d6	0.43168515
157	0x3eefb378	0.4681661
158	0x3f3b3f92	0.73143876
159	0x3e84f4fa	0.25968152
160	0x3f1c814c	0.6113479
161	0x3e237e79	0.15966214
162	0x3f63333c	0.8875005
163	0x3eaffe42	0.3437367
164	0x3e335c1e	0.17515609
165	0x3ea2e946	0.31818599
166	0x3e87f309	0.2655261
167	0x3eb61d18	0.35569072
168	0x3e88a3a7	0.26687357
169	0x3e26a3c1	0.16273405
170	0x3f0517d7	0.519895
171	0x3e78cef8	0.24297702
172	0x3eb3f787	0.35149786
173	0x3e8703e4	0.26370156
174	0x3f8a304d	1.079599
175	0x3ed297e3	0.41131505
176	0x3edbb608	0.42912316
177	0x3e90b21c	0.28260887
178	0x3e680919	0.2265972
179	0x3ea22581	0.31669238
180	0x3e826f97	0.2547576
181	0x3e8fb31f	0.28066346
182	0x3f743f1e	0.9540881
183	0x3e5fd8b4	0.2186001
184	0x3e9bed8b	0.30454668
185	0x3f306e7a	0.68918574
186	0x3e5b4277	0.21412073
187	0x3e9c11f2	0.3048244
188	0x3e5e992d	0.2173812
189	0x3f1daa01	0.6158753
190	0x3ecd8e5f	0.40147683
191	0x3f2352dc	0.6379831
192	0x3e0d49f5	0.13797744
193	0x3e941b84	0.28927243
194	0x3e5d66af	0.21621202
195	0x3ea08a47	0.31355497
196	0x3f2be154	0.671407
197	0x3e9276be	0.28606218
198	0x3f457617	0.77133316
199	0x3eafd502	0.343422
200	0x3e7ce3f4	0.24696332
201	0x3e60394f	0.21896861
202	0x3e28b151	0.16473891
203	0x3e2ede18	0.1707691
204	0x3ec67aff	0.38765714
205	0x3eae98ef	0.34101054
206	0x3ea1b508	0.31583428
207	0x3f0b3b20	0.5438709
208	0x3e581f44	0.21105677
209	0x3f382937	0.7193789
210	0x3ea5fab5	0.32417837
211	0x3e3ab554	0.18233234
212	0x3e386434	0.18006974
213	0x3ed43be9	0.41451958
214	0x3e7644ef	0.24049734
215	0x3eadcb26	0.33944052
216	0x3ebf889c	0.37408912
217	0x3e9e7dd6	0.3095538
218	0x3e3f25c9	0.18666758
219	0x3f439ac6	0.7640804
220	0x3e876dfd	0.26451102
221	0x3f0a6418	0.5405898
222	0x3ecd6372	0.40114933
223	0x3e8bb6a5	0.27287784
224	0x3f0f8f6b	0.56078213
225	0x3f252f7d	0.64525586
226	0x3eed3d13	0.46335658
227	0x3e9ffc88	0.31247354
228	0x3e8b14f2	0.27164418
229	0x3e615726	0.220059
230	0x3e81b136	0.25330514
231	0x3e734c3e	0.23759553
232	0x3f7a781b	0.97839516
233	0x3e2d27e1	0.16909744
234	0x3e9de80b	0.30841097
235	0x3e5e6e92	0.21721867
236	0x3ea4c1e2	0.3217917
237	0x3ebf8028	0.37402463
238	0x3e8834b9	0.26602724
239	0x3f0bb589	0.54573876
240	0x3e7768ff	0.24161147
241	0x3ebeae4d	0.37242356
242	0x3eb6fbdc	0.35739028
243	0x3e167131	0.14691617
244	0x3e659ba4	0.22422653
245	0x3edec0b0	0.43506384
246	0x3f07bf62	0.530264
247	0x3e2614fe	0.16218945
248	0x3e9c1c1d	0.304902
249	0x3ef16d07	0.47153494
250	0x3e4a02f2	0.19727686
251	0x3e939385	0.28823486
252	0x3f358675	0.7090829
253	0x3ed9810c	0.42481267
254	0x3e7b612c	0.24548787
255	0x3e3fea9a	0.18741837

net.4.weight f4 [128, 256]
0	0x3d93979d	0.07206652
1	0x3afe4ef2	0.001940219
2	0xbd6d5843	-0.0579455
3	0xbdc35a4c	-0.09538707
4	0xbc29af23	-0.010356697
5	0x3c215f34	0.009849358
6	0xbd883d9f	-0.06652378
7	0xbd65df51	-0.056121174
8	0x3c17f901	0.009275676
9	0xbd3faa9f	-0.046793576
10	0xbcf31aa3	-0.029675787
11	0x3d45c2b0	0.04828137
12	0x39560212	0.00020409402
13	0xbd3fc540	-0.04681897
14	0x3aeab9b6	0.0017908129
15	0xbd4c4f25	-0.049880166
16	0x3cf00c32	0.02930269
17	0x3ae5e383	0.0017539117
18	0xbb72a85f	-0.0037026627
19	0x3db044b2	0.086068526
20	0xbcc7fc01	-0.024412157
21	0xbd46922f	-0.048479255
22	0xbd56ecc5	-0.052471895
23	0x3cff826f	0.031190125
24	0xbbdf4447	-0.006813559
25	0xbdaeaf8b	-0.08529576
26	0x3cf73da7	0.030180765
27	0xbdddacfc	-0.1082401
28	0xbd8769e4	-0.06611994
29	0xbdbe849c	-0.09302637
30	0x3d677242	0.05650545
31	0x3cd1196c	0.025524817
32	0xbc213856	-0.009840092
33	0xbd4f33ff	-0.050586697
34	0x3d45d568	0.048299223
35	0x3c582bf4	0.013194073
36	0xbda0afcf	-0.07846033
37	0xbcccce36	-0.025000673
38	0xbd67df57	-0.056609478
39	0x3c9d7ab6	0.019223552
40	0x3cba76e2	0.022761766
41	0x3a8eaab5	0.0010884615
42	0x3dd8434f	0.10559713
43	0xbcf1217d	-0.029434914
44	0x3d6b02b7	0.057375636
45	0x3d31820a	0.043336906
46	0x3d383afe	0.044978134
47	0xbd8b422b	-0.0679973
48	0xbd0730a7	-0.033005383
49	0xbd5dda48	-0.054163247
50	0x3b88ed00	0.004178643
51	0xbd9915bb	-0.07474848
52	0x3ccd3530	0.025049776
53	0x3ce91454	0.028452076
54	0x3bbf2617	0.005833398
55	0xbd377760	-0.04479158
56	0x3c519bc7	0.012793488
57	0x3d34ee61	0.04417265
58	0x3d07a679	0.033117745
59	0xbd19756e	-0.037465505
60	0xbad4231c	-0.001618478
61	0x3c61efdd	0.013790098
62	0x3c96b551	0.018397005
63	0xbd7efc19	-0.062252138
64	0x3d594810	0.05304724
65	0xbcd3d7fd	-0.025859827
66	0x3d4317b6	0.047630034
67	0xbd50271f	-0.05081856
68	0xbd9c4813	-0.076309346
69	0x3c2a1b2d	0.010382456
70	0xbb49e7d6	-0.003080835
71	0x3cb2c3e4	0.021821924
72	0x3ce97097	0.02849607
73	0x3c9089bb	0.0176438
74	0x3d1fbfa6	0.03900113
75	0xbd835cda	-0.064141944
76	0xbd3ec99e	-0.046578996
77	0xbc2d81c3	-0.01059002
78	0xbcd2cab9	-0.025731431
79	0xbd8fc566	-0.07020073
80	0x3ca8edd4	0.020621218
81	0x3d1947a5	0.03742184
82	0x3cb774c3	0.022394544
83	0xbc8ca5af	-0.017168848
84	0xbdc2b1f2	-0.095065966
85	0x3c2b31ee	0.010448916
86	0xbc86f268	-0.01647301
87	0xbca3a418	-0.019975707
88	0x3d8e55aa	0.06949933
89	0x3ca8adb0	0.020590633
90	0xbc1664eb	-0.009179334
91	0x3ca17c11	0.01971248
92	0x3d0937ec	0.033500597
93	0xbb029843	-0.001992718
94	0xbd950347	-0.07276016
95	0xbd2d5b57	-0.042323437
96	0x3b84b81a	0.004050267
97	0x3d2c9916	0.04213818
98	0xbcad716c	-0.021172248
99	0xba8538bf	-0.0010164006
100	0x3d0f5a25	0.034998078
101	0xbda24728	-0.07923728
102	0xbca7246f	-0.020403115
103	0xbd612fff	-0.054977413
104	0x3cf2c53e	0.029635068
105	0x3c30264b	0.010751317
106	0x3d47ccb7	0.048779216
107	0xbc179b8e	-0.009253396
108	0x3d27e8e9	0.040993605
109	0xbd13b5bc	-0.036061987
110	0x3b609494	0.0034268247
111	0x3d6005ee	0.054693155
112	0xbd20b7dc	-0.039237842
113	0x3ce0ccd7	0.027441425
114	0xbce8334a	-0.028344769
115	0x3d89a54b	0.0672098
116	0xbd972f33	-0.073820494
117	0x3c9d5417	0.019205136
118	0x3d4c0131	0.049805824
119	0x3d6ef88a	0.058342494
120	0xbda46b36	-0.08028261
121	0xbc09253e	-0.008370696
122	0x3d0f1a7d	0.03493737
123	0x3d4ca734	0.049964145
124	0x3c4182a2	0.01181093
125	0xbc8c383c	-0.017116658
126	0x3bfa9792	0.007647463
127	0x3bfc1b1d	0.007693662
128	0x3d091b3b	0.033473235
129	0x3c35b00f	0.011089339
130	0x3b4045e9	0.0029338545
131	0x3d46bb71	0.0485186
132	0xbd9b2124	-0.075746804
133	0x3c1787a1	0.009248645
134	0x3d025c30	0.031826198
135	0x3bf7f792	0.0075673545
136	0xbc2d2d16	-0.010569831
137	0x3d51098d	0.0510345
138	0xbccaded2	-0.024764452
139	0xbd3ba04c	-0.045807168
140	0x3c9522d3	0.018205082
141	0xbd6a33ab	-0.05717818
142	0xbc9d6caf	-0.019216863
143	0xbd61c206	-0.055116676
144	0x3d4bbe15	0.049741823
145	0x3d6fb054	0.05851777
146	0xbd196790	-0.03745228
147	0x3c7f4b70	0.015581951
148	0xbcc19acf	-0.023633389
149	0x3d69aef0	0.0570516
150	0x3ccb42f8	0.024812207
151	0x3cdfc256	0.027314346
152	0xbd896427	-0.06708556
153	0x3c6fefe1	0.014644594
154	0x3ce5c405	0.028047571
155	0xbd64f5fc	-0.05589865
156	0x3d3fa72a	0.04679028
157	0x3d34f0bd	0.0441749
158	0xbc228160	-0.009918541
159	0xbda17194	-0.078829914
160	0x3d4f62fe	0.050631516
161	0x3cdc5f3e	0.026900884
162	0x3b40162b	0.0029310088
163	0xbc043649	-0.008069583
164	0x3c4e62de	0.012596814
165	0x3c8c7752	0.01714674
166	0xbcf72ed6	-0.0301737
167	0xb72b751e	-1.0219663e-05
168	0x3d3ede2e	0.046598606
169	0xbcafe950	-0.021473557
170	0xbd29a530	-0.0414173
171	0xbbb78b41	-0.005601317
172	0xbc386ecc	-0.011256885
173	0x3dd3383d	0.10313461
174	0xbbdb7962	-0.0066978196
175	0xbd4d06f4	-0.05005546
176	0x3d9a470d	0.07533083
177	0xbc91d9bc	-0.01780402
178	0x3cb23111	0.021751912
179	0x3cd05df0	0.025435418
180	0xbd0ba85e	-0.034096114
181	0xbcd59c88	-0.026075616
182	0x3d487461	0.048939113
183	0xbc930ff1	-0.017951937
184	0xbc3d5146	-0.011555022
185	0x3c450ab9	0.012026482
186	0xbc49bb1e	-0.012312679
187	0xbcc4a772	-0.024005625
188	0x3c6341be	0.013870655
189	0x3d2ad7d4	0.041709736
190	0x3c86edf7	0.016470892
191	0xbd57575f	-0.052573558
192	0x3d7f8056	0.06237825
193	0x3d3605f2	0.044439264
194	0xbd555d70	-0.052091062
195	0x3b0e1691	0.002168093
196	0x3db5ee87	0.08883386
197	0xbd301a19	-0.04299364
198	0xbc89d84d	-0.016826773
199	0xbd3b75d7	-0.045766678
200	0x3d41fbf8	0.047359437
201	0x3caa1489	0.020761745
202	0xbc3887bd	-0.011262831
203	0xbda84ae7	-0.082174115
204	0xbca216c4	-0.019786246
205	0x3d4ac4ed	0.04950421
206	0xbcfccff1	-0.030860873
207	0x3d4b4096	0.04962214
208	0xbd93ced9	-0.072171874
209	0x3dbcc7a2	0.092177644
210	0x3cdfd95f	0.02732533
211	0x3d66dea5	0.056364674
212	0x3d1579e6	0.036493205
213	0x3cb2a753	0.021808302
214	0x3d0fa131	0.035065833
215	0xbd1fce59	-0.039015148
216	0xbd6ac112	-0.057313032
217	0x3ca93e3c	0.020659558
218	0xbd4c02a7	-0.049807217
219	0x3c4e99dc	0.012609925
220	0xbd62ef1d	-0.055403817
221	0x3cfcc849	0.030857222
222	0xbd7cbdeb	-0.061704557
223	0x3d46c7c7	0.048530366
224	0xbd90bd0b	-0.07067307
225	0x3dae3a0e	0.08507167
226	0xbb86f859	-0.004118961
227	0x3be2fc0a	0.006927018
228	0x3ba5d35c	0.0050605964
229	0xbd465044	-0.04841639
230	0x3d56a7d1	0.052406136
231	0xbc8da68d	-0.017291332
232	0xbcd68365	-0.0261857
233	0xbd6689da	-0.05628381
234	0xbdb69a86	-0.08916192
235	0x3cec3a8f	0.028836517
236	0xbcfa3b0b	-0.030545732
237	0xbd067eda	-0.03283582
238	0x3c2b8fc7	0.010471291
239	0x3d6ba4a7	0.05753007
240	0x3d69fe99	0.05712757
241	0xbd6302a5	-0.055422444
242	0xbd86e1f5	-0.06586067
243	0xbd123891	-0.035698477
244	0xbbc24495	-0.005928586
245	0x3d695206	0.05696299
246	0x3d234fa4	0.039870873
247	0xbcdb6d2a	-0.026785452
248	0x3d15f2be	0.03660845
249	0xbd03cfd3	-0.03218062
250	0xbcc72777	-0.02431081
251	0x3d0d6123	0.034516465
252	0x3c9ba858	0.019001171
253	0xbcd71fc5	-0.026260266
254	0xbc8eee2c	-0.017447554
255	0x3d4accf4	0.049511865
