models/nn_model_int8.onnx (onnx, 57269 bytes, 7 tensors)

net.0.bias f4 [256]
00000000: 1180 a8bc 1699 bebc 26b8 eabc 0086 0dbb
00000010: b62d 16bd 3a82 0c3c 76fe 61bc 5e69 d0bc
00000020: 44d9 c7bb 4cee b8bc 1620 45bd ab83 a1bc
00000030: a13e da3b 266b 12bc b3bc 02bb bad0 843c
00000040: 5052 a6bc 8257 79bc dc04 463a ab66 d93c
00000050: dfb5 d6bc 96d4 a93b 896f f3bc 0811 a13c
00000060: 5794 3a3c 7991 e43c db01 c8bc 163f e43c
00000070: e02a 97bc aaf8 043c 1c61 b2bc cab6 78bc
00000080: 9f8c 30bc 143b 783c 207b 5abb 4d22 2a3b
00000090: 3554 313c 1a12 e7ba 0c46 ecbb 8819 6d3c
000000a0: dc26 97bc 1577 babc 5690 c0bc b3bc 82bc
000000b0: 00eb 32bd 898f c0bc 882f ea3b 8960 903b
000000c0: 5249 7fbc 2f84 d9bc 1ddd 91bc d6f5 b63c
000000d0: 3cbe 52bd 2e67 64bc 0285 713c 5dd1 ea3b
000000e0: 2b3e e83b a9d3 b1bb 5981 c23c 1d67 113d
000000f0: c63e 6d3c 633c 53bc 3109 ab3c 646d cd3c
00000100: 95e3 e63c 4ed4 26bc bacb f5bc 5eeb 8c3b
00000110: d34a 24bb bcce dcbb ba42 933c 3499 453c
00000120: 68c7 c539 cb05 a33c ce6a 723c d884 e23a
00000130: baea 83bb e61a 623c 1836 0f3d 0ec8 c23c
00000140: f095 4339 e14b 9fba f2cc 1bbd 2681 0c3b
00000150: 3ed5 a13c a842 6f3c 442c e5bc 6cf8 fabc
00000160: acdc 2abd 3ef1 053d 66fd 8abc 0e6d 733b
00000170: 0cc8 b83c dc15 9e3b a092 b539 f456 023c
00000180: 57a3 9e3b 8a56 bf3c 03aa 15bc 360b 9abb
00000190: 8551 fbbc 2ba6 f3bc 1b00 073d 4250 433c
000001a0: 1e14 d3bc 229a 8ebc 1554 5abc 9413 9cbc
000001b0: f9fb ddbc 2ad0 78bc 6e2a 82bc 6366 66bd
000001c0: 8642 89bc 6d55 e73c 3b18 c4bc af59 aabc
000001d0: f5f8 31bd 79f3 06bd dae2 97ba 7285 abbb
000001e0: 70f4 d3bc 8933 943c 64f6 443c e023 9d39
000001f0: 97c6 8ebc a0d3 39b9 8bcc 3b3c 4692 773a
00000200: db20 b5bc 2264 acbb 989c ccbc 5a5d 083c
00000210: 62e4 bebb 5430 4cbc b590 983c 6e29 00bc
00000220: be68 b9bc b0b2 813b ba90 ad3b d44c 20bc
00000230: e8ed b5ba 9f25 2cbc 9273 7dbc c678 ecbc
00000240: 2fd4 013c 89f2 7ebc cd7e 01bc 4c88 033c
00000250: e46c aa3c 0e20 7b3c bde7 553d e11b cabc
00000260: d665 aabc 46f0 d2bc f62e 65bc f4be d53c
00000270: a86b 333d 1c7f 3abd 34a0 f3bc c68f ddbb
00000280: 45e7 cdbc a499 93bc 0038 75bc 661a be3c
00000290: 587a c33b 32c4 88bc ecae a03c 6ab5 0d3c
000002a0: ecf1 c33c e59f 1fba 8bef f8bc 52fe 01bc
000002b0: d4c5 a73a 5902 773c e555 f6ba febe dcbb
000002c0: 7cf2 26bc a2d2 93bc fdc6 29bd 2efc d9bc
000002d0: 8aba bb3c c228 303d 3df6 b63b 408c 0b3c
000002e0: 884b 70bc bba0 9c3b c159 ee3c 4bbe 9dbc
000002f0: 9018 b83c 8f2d 43bd 275a 4e3b fc71 c8bc
00000300: c81e 59bc 48fc 8aba 2274 bdbc aa29 f53b
00000310: 9d5f f4bb f4cb a83b f3fe 40bb c119 cabc
00000320: b4c3 fcbc 3a16 fd3c 4fb7 a4bb 140b 403b
00000330: de56 45bd 7008 f53c bbd5 82bc 8cd4 cebb
00000340: ba8c 86bb aad9 b53c bc85 a2bb 4d29 8cbc
00000350: b2af 083c 8ad2 133d 3814 a9bb 30a9 133b
00000360: 4491 9c3a cd18 2c3c 229c c63b f07b 98b9
00000370: 2410 c93c 2091 17bd f44a ae3c 9a0b 75bc
00000380: 7a97 06bd 6059 efb9 2a0c b53b a220 d6bc
00000390: c572 12bd 1167 90bc 6a22 d3bc c094 5b39
000003a0: fe28 5fbd 70ab efbc c653 0ebc 97f1 c5bc
000003b0: da60 be3a 162b 7e3b 7c02 55bc 870a 04bb
000003c0: c05b 653a f80b c6bc cf9f 04bd a2c1 ff3b
000003d0: 183a ac3b af32 4cbd 26ad 42bc 4a2a 5abd
000003e0: 35dc c63c 1b65 1ebd ea3b ffbb 1ee6 f7bc
000003f0: 2216 26bd c805 4b3b 59fa a2bc 28c9 043b
-0.02056888 -0.023266356 -0.028652262 -0.0021594763 -0.036664687 0.00857597 -0.013793578 -0.025440868
-0.006098898 -0.022574566 -0.048126303 -0.019716104 0.006660298 -0.008936679 -0.00199489 0.01621281
-0.020302922 -0.015218617 0.00075538247 0.026538214 -0.02620977 0.005182813 -0.02971627 0.019661441
0.011387906 0.027901398 -0.024414947 0.027862113 -0.018453062 0.008115927 -0.021774821 -0.015180299
-0.010775714 0.015150804 -0.0033337548 0.0025960386 0.010823299 -0.0017629296 -0.0072104987 0.014471419
-0.018451147 -0.02276186 -0.023506325 -0.01595912 -0.043681145 -0.023505943 0.0071467794 0.004406039
-0.015581446 -0.026552288 -0.01780563 0.02233402 -0.051450953 -0.013940616 0.014741184 0.0071660713
0.007087489 -0.005426843 0.023743318 0.035498727 0.014480298 -0.012892815 0.020878406 0.025076576
0.028184691 -0.010182453 -0.030004371 0.004300519 -0.0025069013 -0.006738512 0.017976154 0.012060452
0.00037723337 0.019900223 0.014795972 0.0017282022 -0.0040257843 0.013800358 0.034963697 0.023777034
0.00018652505 -0.0012153351 -0.038037248 0.0021439283 0.019755002 0.014603294 -0.027975209 -0.030636035
-0.041714355 0.03270077 -0.016966533 0.003714386 0.022556327 0.004824383 0.00034632254 0.007955302
0.004841249 0.023356695 -0.009134772 -0.0047010435 -0.03067852 -0.029742321 0.032959085 0.01192099
-0.025766429 -0.01740748 -0.013325711 -0.019052304 -0.027097689 -0.015186349 -0.015889373 -0.056249987
-0.016755354 0.028238976 -0.023937335 -0.020794718 -0.043450315 -0.032947037 -0.0011587993 -0.005234414
-0.025873393 0.01809098 0.012021635 0.00029972102 -0.01742868 -0.00017721811 0.011462341 0.00094440987
-0.022110393 -0.00526096 -0.024977013 0.008323038 -0.005825565 -0.012462694 0.01862369 -0.007822378
-0.022632953 0.003958069 0.0052967938 -0.009783942 -0.0013880106 -0.010507016 -0.015469449 -0.028866183
0.007924124 -0.015560755 -0.007903767 0.008028101 0.020803876 0.015327467 0.052222956 -0.024671497
-0.020800512 -0.025749337 -0.013988247 0.02609203 0.04380384 -0.045531377 -0.029739477 -0.006761524
-0.025134692 -0.018017597 -0.014966965 0.023205947 0.0059655122 -0.016695116 0.01961466 0.0086492095
0.023919068 -0.0006089195 -0.03038766 -0.00793417 0.0012800046 0.015076243 -0.0018793909 -0.006736635
-0.010189649 -0.018044773 -0.041449536 -0.026609506 0.022916097 0.04300762 0.005583553 0.008517325
-0.014666446 0.0047799028 0.029095532 -0.019255778 0.02247265 -0.04765087 0.003148684 -0.024468414
-0.013251968 -0.001060375 -0.023126666 0.0074817734 -0.007457687 0.005151266 -0.0029448837 -0.024670484
-0.030855037 0.030894388 -0.005026735 0.0029303478 -0.048178546 0.02991125 -0.015971055 -0.0063119587
-0.0041061314 0.022198517 -0.00495979 -0.017109537 0.00834267 0.036089458 -0.005159881 0.0022531264
0.0011945148 0.01050396 0.006061093 -0.0002908404 0.02454383 -0.037003636 0.021275975 -0.014956379
-0.032859303 -0.00045652222 0.0055251317 -0.026138607 -0.035753984 -0.01762727 -0.025773246 0.00020940881
-0.054482453 -0.029256552 -0.008686965 -0.02416305 0.0014524714 0.0038783005 -0.013001081 -0.0020147876
0.00087493286 -0.024175629 -0.032378968 0.0078050653 0.0052559488 -0.049853023 -0.011882102 -0.053262986
0.024274925 -0.03867064 -0.0077891247 -0.030261096 -0.04054845 0.0030978788 -0.019894766 0.00202615

net.4.bias f4 [128]
00000000: c672 973f 12ac 2fbf 6206 babd 5f56 313f
00000010: a892 82be 6f22 6fbe 40df 6ebf 4ae1 47bf
00000020: 93ba 40bf c86c 27bb 9d29 cf3d 9639 45bf
00000030: d018 da3d 491a 86bf d250 ab3c e4a1 173f
00000040: 42d1 923f d26c e23e 81db 113f f4c8 41bf
00000050: f52d 883e 36d4 9cbe 2550 9ebe c2c6 b43f
00000060: da56 863f 9843 c23d 455d 003f aaa9 8bbd
00000070: aad1 233f e1ba 31bf 1fd0 9f3f 4dcb a9bf
00000080: b57b 693f 6643 89be 1c66 1a3f 0775 9e3e
00000090: 1b68 493f afc9 6dbf e6eb 82be b993 a53f
000000a0: f1fe 863e a890 83bf 1f85 ac3f 0456 393f
000000b0: d975 8e3f 5014 bfbb f79a 853e 52ad 473f
000000c0: eb26 573f 203c 39bc 5055 37bf 17d7 e73e
000000d0: c63e f23d 4440 bf3f e368 2fbd 0a70 623e
000000e0: 9e2f 803f 347d dd3d 65fd bdbe bea0 d73e
000000f0: a471 da3e 5d40 943f d235 2abf 4165 8cbf
00000100: 5402 afbe 0f2b 84bf f8d2 553f 78be 613f
00000110: d24f a33f 92c8 26be a9c3 0d3f dbfd 053e
00000120: 2ea4 6dbf 2c39 28bf 25fc 8c3f 28c7 933e
00000130: 0624 963f 3709 c6bf 6d0b 87bf 123e d0be
00000140: 0b15 c3be d0e3 28bf 57bc 9a3f a09c 143f
00000150: 395c 223e 6bbd fcbe 0e11 463d 1495 1a3d
00000160: 363f 17bf 40e5 933e a2ff be3f 65f6 123f
00000170: 135b f63e e35e 223d d837 8abf 5451 71bf
00000180: a150 77bf 039e 833f cec4 c3be 2285 003e
00000190: d119 533d 0ab7 ebbc fbd7 0e3e abb7 c2be
000001a0: ce43 c03e f9c3 aabe be9b 60bf 6692 28bf
000001b0: 460f 6bbf 7339 86be 52d1 793e 35f5 8bbf
000001c0: bfbb 97bf 22e5 bd3e 57e5 853f 314b 733e
000001d0: 614b 58bf c229 93bf 2a7e 65be a340 88bf
000001e0: 1d94 cfbe d41b 02be bddb c2bf cc83 d6bd
000001f0: cef0 503f 889a c4be 5fe7 ff3e b5a4 9c3e
1.1831901 -0.68621933 -0.09083249 0.69272417 -0.25502515 -0.23352979 -0.933094 -0.7807814
-0.7528469 -0.0025547016 0.10115359 -0.77040994 0.10649264 -1.0476772 0.020912562 0.592314
1.147011 0.44223648 0.5697556 -0.75697255 0.26597562 -0.30630654 -0.3092052 1.4123156
1.0495255 0.09485549 0.5014232 -0.0681947 0.63991797 -0.6942578 1.2485389 -1.3265167
0.91204387 -0.26809233 0.60312057 0.3094866 0.7867448 -0.9288587 -0.255706 1.2935706
0.2636638 -1.027852 1.3478125 0.72396874 1.1129714 -0.005831279 0.2609479 0.7799884
0.8404376 -0.011305839 -0.7161455 0.45281288 0.11828379 1.4941487 -0.042824637 0.22113052
1.0014532 0.10814896 -0.37107387 0.42114824 0.42664826 1.1582142 -0.66488373 -1.09684
-0.34181464 -1.032564 0.8352504 0.8818126 1.2758734 -0.16287449 0.5537668 0.1308512
-0.92828643 -0.6571224 1.1014448 0.28862882 1.1729743 -1.5471562 -1.0550362 -0.40672356
-0.38101992 -0.65972614 1.2088727 0.5805149 0.15855493 -0.49363264 0.04835611 0.03773983
-0.5908083 0.2888584 1.4921763 0.5740722 0.4811636 0.039641272 -1.0798292 -0.9426472
-0.96607405 1.0282596 -0.38236088 0.12550786 0.051538292 -0.028773803 0.13949578 -0.38030753
0.3755173 -0.3335264 -0.87737644 -0.65848386 -0.9182018 -0.26215705 0.24396256 -1.0934206
-1.185417 0.37088877 1.0460614 0.23759152 -0.8449002 -1.1497118 -0.22411409 -1.0644726
-0.4054269 -0.12705928 -1.5223309 -0.10474357 0.8161744 -0.38399148 0.4998121 0.30594411

net.8.bias f4 [64]
00000000: fdda 2abf 56fd 733f a640 783d fc9e a53e
00000010: 5fdc d7be aa97 1b3f a256 32bf d4b0 a03d
00000020: 8866 aa3e a7f9 5d3f 4e14 e83d 11bd 903f
00000030: a83f ebbe 31e1 1fbe 0918 663f da93 433d
00000040: ff56 96be 62f2 663f de1c 613f dae5 673f
00000050: 3c6a 893e 5359 653f fdbf 343e 13ea 7cbd
00000060: c575 4b3f 590e 983e fec9 6d3e d262 093f
00000070: e08c 133e 2be9 253f 1255 0cbf e19e b83d
00000080: cfa0 a13d cefd c23e 7446 e83e 167b 8b3f
00000090: e541 a03e 96f2 513e a764 423f 2c66 073e
000000a0: e6ce 083f 2bc7 0d3f 46c5 b83e 52be 063f
000000b0: 8b5c 913f bc21 e13e cc7b 793f be39 463f
000000c0: b1ec 743f 60b2 3b3f 38a3 573f 76a4 983f
000000d0: d785 0fbf b5aa 4a3f ea98 8dbe e88d 2f3d
000000e0: df63 7a3e 5d77 0f3e 62c1 0f3f b78c af3e
000000f0: 8cde 623f 373d 523f fcf2 8fbc 530d 9dbe
-0.667404 0.95308435 0.06060853 0.32347858 -0.42160317 0.60778296 -0.6966344 0.07846227
0.3328135 0.86709064 0.11331998 1.1307698 -0.45947003 -0.15613247 0.89880425 0.047748424
-0.29363248 0.90213597 0.8793467 0.905851 0.26838863 0.8958942 0.17651363 -0.061746668
0.7947658 0.29698446 0.23221585 0.5366641 0.14409208 0.6480891 -0.54817307 0.09014679
0.07892 0.38084263 0.4536625 1.0896938 0.31300274 0.20502695 0.75934833 0.13222569
0.534407 0.5538203 0.36088008 0.52634156 1.1356367 0.4397105 0.97454524 0.7743186
0.9567366 0.73319054 0.8423343 1.192519 -0.560636 0.7916673 -0.27655727 0.04285994
0.2445216 0.14010377 0.56154454 0.34287044 0.8862083 0.82124656 -0.017571919 -0.30674228

net.0.weight_quantized i1 [40, 256]
00000000: 10ee e9ee f5d6 fade de1c f9da 0ed0 1f1e
00000010: 26d5 eb1c 22e1 f7dd 3fd7 220e 0538 1008
00000020: cd0b e943 44c9 01f2 c919 08d3 0528 ab16
00000030: cced e6e3 1f00 f6cc 57ca 0efc 2c0f fe13
00000040: 1304 19f2 3537 dee6 02c0 d234 30d3 ddd8
00000050: dafc e04a 164a e522 d129 29dd eb06 e61a
00000060: b907 37d6 1b1c 413d 0714 4411 300a 1119
00000070: b4bf e32d fad9 e9da ee12 dad6 e13a 2911
00000080: 1e23 081b d4bd 252c d108 2200 cb05 3bda
00000090: 09d3 c810 e3f5 16ec d230 c6d9 33f2 df13
000000a0: 1a07 efd9 c1eb 35f9 b023 2f3e d61b cfc8
000000b0: e111 d203 130f 170e 05f0 f0fd e429 1e0f
000000c0: 27c8 ded9 1bff 2dc5 2cd7 dde0 1cd9 d5b3
000000d0: 16d0 1a15 23b4 37fd dfd4 073e c52a db2e
000000e0: d7f3 2a37 0708 20fd 0b12 402e 07d0 cd19
000000f0: 2ae8 d633 e9f8 d802 49fb 17ed a938 20b3
16 -18 -23 -18 -11 -42 -6 -34
-34 28 -7 -38 14 -48 31 30
38 -43 -21 28 34 -31 -9 -35
63 -41 34 14 5 56 16 8
-51 11 -23 67 68 -55 1 -14
-55 25 8 -45 5 40 -85 22
-52 -19 -26 -29 31 0 -10 -52
87 -54 14 -4 44 15 -2 19
19 4 25 -14 53 55 -34 -26
2 -64 -46 52 48 -45 -35 -40
-38 -4 -32 74 22 74 -27 34
-47 41 41 -35 -21 6 -26 26
-71 7 55 -42 27 28 65 61
7 20 68 17 48 10 17 25
-76 -65 -29 45 -6 -39 -23 -38
-18 18 -38 -42 -31 58 41 17
30 35 8 27 -44 -67 37 44
-47 8 34 0 -53 5 59 -38
9 -45 -56 16 -29 -11 22 -20
-46 48 -58 -39 51 -14 -33 19
26 7 -17 -39 -63 -21 53 -7
-80 35 47 62 -42 27 -49 -56
-31 17 -46 3 19 15 23 14
5 -16 -16 -3 -28 41 30 15
39 -56 -34 -39 27 -1 45 -59
44 -41 -35 -32 28 -39 -43 -77
22 -48 26 21 35 -76 55 -3
-33 -44 7 62 -59 42 -37 46
-41 -13 42 55 7 8 32 -3
11 18 64 46 7 -48 -51 25
42 -24 -42 51 -23 -8 -40 2
73 -5 23 -19 -87 56 32 -77

net.4.weight_quantized i1 [256, 128]
00000000: 001b 26e1 f1b3 f7de 1d4a 2419 dbf7 ee27
00000010: 5b07 f72e 29e3 200f 331e f0cf 1b33 d1e8
00000020: e5ce dad8 2601 cf17 1eec e107 30d8 fbf7
00000030: f808 053e c806 0f0b 295a fefe fc20 0819
00000040: 0dfc ede8 ce2d 3bc9 21ea 09ca 0701 2d23
00000050: d9e6 ef0b ef04 ec00 b2c4 f7dd 221b 1216
00000060: 1903 c907 3b30 e7f0 e1d4 181a 16d4 d23b
00000070: f310 281c 25bc b836 340b 32dc ced5 e415
00000080: 1c00 f208 d61c 1c11 a7e9 0523 290d 1c11
00000090: 2901 4d18 ea0c 121b c4ff d827 fa2b 1642
000000a0: de4e e93e 0cfd f731 ce33 2afc d5ed 39be
000000b0: c307 44ed 2a0c e2ec f8eb 2527 01e8 f52b
000000c0: 29ce f9f6 f730 3adb e211 29e9 fbf2 23d2
000000d0: 0923 1bcc f9fc ec0f f0c1 1706 ec2b 1c09
000000e0: bad0 3d26 e326 fe1a fc22 173c e232 f735
000000f0: 2ac9 fbd9 0a2d df2a 2215 f538 f53a 0a1b
0 27 38 -31 -15 -77 -9 -34
29 74 36 25 -37 -9 -18 39
91 7 -9 46 41 -29 32 15
51 30 -16 -49 27 51 -47 -24
-27 -50 -38 -40 38 1 -49 23
30 -20 -31 7 48 -40 -5 -9
-8 8 5 62 -56 6 15 11
41 90 -2 -2 -4 32 8 25
13 -4 -19 -24 -50 45 59 -55
33 -22 9 -54 7 1 45 35
-39 -26 -17 11 -17 4 -20 0
-78 -60 -9 -35 34 27 18 22
25 3 -55 7 59 48 -25 -16
-31 -44 24 26 22 -44 -46 59
-13 16 40 28 37 -68 -72 54
52 11 50 -36 -50 -43 -28 21
28 0 -14 8 -42 28 28 17
-89 -23 5 35 41 13 28 17
41 1 77 24 -22 12 18 27
-60 -1 -40 39 -6 43 22 66
-34 78 -23 62 12 -3 -9 49
-50 51 42 -4 -43 -19 57 -66
-61 7 68 -19 42 12 -30 -20
-8 -21 37 39 1 -24 -11 43
41 -50 -7 -10 -9 48 58 -37
-30 17 41 -23 -5 -14 35 -46
9 35 27 -52 -7 -4 -20 15
-16 -63 23 6 -20 43 28 9
-70 -48 61 38 -29 38 -2 26
-4 34 23 60 -30 50 -9 53
42 -55 -5 -39 10 45 -33 42
34 21 -11 56 -11 58 10 27

net.8.weight_quantized i1 [128, 64]
00000000: 1336 1ff7 cdf9 1500 04de e7d7 06df 33cc
00000010: c001 21e4 fa46 161d 13fb ee06 eda5 eb0a
00000020: 1eea eb9f f6fe fc05 062c b21f c406 1b31
00000030: f802 0eb7 dbf0 fdea 041a 411a 180a fbd5
00000040: 1fde f8de 23fd 0826 0f12 08c8 0629 f6e4
00000050: 00d0 f1de ea02 d9dd 22f5 ffd4 f3ed 1119
00000060: d2ea dbc8 d21a e316 f0f0 d7ce d9fa b410
00000070: c8cd ccda c1e8 0f03 1500 fc2d eacc f6da
00000080: f6c3 0302 31e2 f2f0 19f0 d731 da15 de00
00000090: f3d5 0ef8 07de 20db ffe2 06dd e2de d621
000000a0: dfd8 ea03 0427 eefe 15c7 ebdc 16d7 1102
000000b0: 0bf7 e61e c8db e0d5 ea02 d832 09ea 0e0b
000000c0: e303 1e12 2dc7 11d4 36f7 cee1 1102 c1c8
000000d0: 3636 08ea e6bf e62c 33dd 142c e6f3 07e6
000000e0: 1a14 290f e21a d608 febf 3704 18dc 42d1
000000f0: f407 ec31 1e2f ec41 e912 f022 ea2e ebe9
19 54 31 -9 -51 -7 21 0
4 -34 -25 -41 6 -33 51 -52
-64 1 33 -28 -6 70 22 29
19 -5 -18 6 -19 -91 -21 10
30 -22 -21 -97 -10 -2 -4 5
6 44 -78 31 -60 6 27 49
-8 2 14 -73 -37 -16 -3 -22
4 26 65 26 24 10 -5 -43
31 -34 -8 -34 35 -3 8 38
15 18 8 -56 6 41 -10 -28
0 -48 -15 -34 -22 2 -39 -35
34 -11 -1 -44 -13 -19 17 25
-46 -22 -37 -56 -46 26 -29 22
-16 -16 -41 -50 -39 -6 -76 16
-56 -51 -52 -38 -63 -24 15 3
21 0 -4 45 -22 -52 -10 -38
-10 -61 3 2 49 -30 -14 -16
25 -16 -41 49 -38 21 -34 0
-13 -43 14 -8 7 -34 32 -37
-1 -30 6 -35 -30 -34 -42 33
-33 -40 -22 3 4 39 -18 -2
21 -57 -21 -36 22 -41 17 2
11 -9 -26 30 -56 -37 -32 -43
-22 2 -40 50 9 -22 14 11
-29 3 30 18 45 -57 17 -44
54 -9 -50 -31 17 2 -63 -56
54 54 8 -22 -26 -65 -26 44
51 -35 20 44 -26 -13 7 -26
26 20 41 15 -30 26 -42 8
-2 -65 55 4 24 -36 66 -47
-12 7 -20 49 30 47 -20 65
-23 18 -16 34 -22 46 -21 -23

net.12.weight_quantized i1 [64, 1]
00000000: 059a 2d8d 04fb fd1a 1ad0 12e2 2006 c816
00000010: 01c5 aea3 9ce4 1f0b f22b 269d 24c4 142e
00000020: fcaa 97c2 ea08 8f10 ab9b bbba ad97 9182
00000030: 95aa b8ec f784 1bc6 2b2c cafe 81ed 21fe
5 -102 45 -115 4 -5 -3 26
26 -48 18 -30 32 6 -56 22
1 -59 -82 -93 -100 -28 31 11
-14 43 38 -99 36 -60 20 46
-4 -86 -105 -62 -22 8 -113 16
-85 -101 -69 -70 -83 -105 -111 -126
-107 -86 -72 -20 -9 -124 27 -58
43 44 -54 -2 -127 -19 33 -2
