models/nn_model_int8.onnx (onnx, 57149 bytes, 7 tensors)

net.0.bias f4 [256]
000000 32 5c 52 bd 32 f2 89 3b 7c 87 13 bc ae 84 fc 3c
       -0.051357456 0.00420978 -0.00900447 0.030824985
000010 bf 67 11 bd c0 52 d9 bb bf f1 8c bb fa fd 39 bd
       -0.03549933 -0.006632179 -0.0043012793 -0.045408227
000020 5b 90 db bd 66 ef 4c bd c0 05 84 bd 86 45 23 bd
       -0.10720893 -0.050032996 -0.06446409 -0.039861225
000030 a4 ac db bc e0 d1 34 bd 18 b9 30 bd b8 1a ac bc
       -0.02681572 -0.044145465 -0.04314527 -0.021008834
000040 91 4f 34 bd f4 c5 72 3b c5 d5 0a bd 55 d1 6d bd
       -0.044021193 0.0037044259 -0.033895273 -0.058060963
000050 e0 6f da 39 6c 3b 07 bb 9a 26 1f bd e4 a1 bf 3c
       0.00041663554 -0.0020634783 -0.038855173 0.023392625
000060 95 04 35 bd 22 a8 b3 bd 5f 1d a1 bd ce c0 a8 bc
       -0.044193823 -0.08772303 -0.0786693 -0.020599749
000070 91 10 48 bd b1 f1 b0 bc fc 95 86 bd fe 31 78 bd
       -0.048843924 -0.021599622 -0.06571576 -0.06059455
000080 39 e2 59 bc e5 89 d7 3b 28 a9 aa bc 05 a4 47 bd
       -0.013298565 0.0065777176 -0.020832613 -0.048740406
000090 48 3e 86 bd f0 30 1c bc 61 58 86 bc 49 3a 8d bd
       -0.06554848 -0.009533152 -0.016399564 -0.06895883
0000a0 af b0 ae bd 45 99 0e 3c 74 d4 c3 bc 98 b5 0a 3d
       -0.085297935 0.0087035345 -0.023905016 0.033864588
0000b0 b8 b1 d2 3d 38 ca 11 bd 5f 1f a8 bc 0a 7e e8 3c
       0.102878034 -0.03559324 -0.020522771 0.028380413
0000c0 1e 63 88 3b 8d 17 49 bd d5 5d 8b bd 6f ec 1f bd
       0.0041622063 -0.049094725 -0.068050064 -0.03904384
0000d0 82 4f 5d bd ac c2 43 bd 33 7a d0 bc f1 90 9d bd
       -0.054030903 -0.047793075 -0.025448894 -0.07693661
0000e0 c0 d5 bc b8 96 bf c8 bd ee 53 a5 bd 83 3e 94 bd
       -9.0043526e-05 -0.09802167 -0.08072649 -0.07238486
0000f0 23 43 9e bc a0 49 88 bd 35 b8 e9 bd 39 c9 10 bd
       -0.019319123 -0.06654668 -0.11412088 -0.03534815
000100 46 15 46 bb 5d 1e 34 bd 7c 08 08 bd 4c b0 99 bb
       -0.0030225082 -0.04397427 -0.033211216 -0.0046902057
000110 e2 1b 0a bc f6 12 b4 bc f4 6c b2 bc f6 45 0d bd
       -0.008429499 -0.021981698 -0.021780469 -0.034490548
000120 ce 69 c8 3a 4b ef 6c 3c ce 3c 89 bc 26 14 22 bc
       0.0015290321 0.014461349 -0.016752627 -0.009892499
000130 c0 f9 2d bd 45 22 b4 bd a5 e0 fc bc 90 b5 07 bd
       -0.04247451 -0.08795599 -0.030868838 -0.033132136
000140 d1 18 fe bd df 18 39 bc c0 44 0d bd 89 ae 41 bc
       -0.12407077 -0.011297434 -0.034489393 -0.011821398
000150 4c 67 45 bd 66 08 09 bd 82 ae 2f bd 94 9c 49 bd
       -0.048194215 -0.033455275 -0.042891033 -0.04922159
000160 ff 68 09 bc 2c 62 5d bd 2a 8a f3 bb 0b 22 49 bc
       -0.008386849 -0.054048702 -0.007432242 -0.012276183
000170 d2 d8 db bb cd 99 b8 bc a6 2e c3 bc b9 cb f6 bc
       -0.0067091966 -0.022534275 -0.023825955 -0.03012644
000180 78 61 80 bd dc 10 23 bd 80 32 29 bd 5a 06 da bd
       -0.06268591 -0.039811 -0.041307926 -0.10645743
000190 86 d2 2d bd fc f3 86 bd b4 34 a4 bd a6 a3 b2 bc
       -0.0424371 -0.06589505 -0.08017865 -0.02180655
0001a0 2a 10 7b bd 7a b8 72 bd 30 1c 79 bc 9d 8b 0a bd
       -0.061294712 -0.05925796 -0.015204474 -0.03382455
0001b0 89 d0 2e bd 6f fa 89 bd 5a ff 25 bd a5 6a 5a bd
       -0.042679343 -0.067372195 -0.040526725 -0.05332436
0001c0 60 4a e1 b9 50 a0 9c bd 42 5b a5 bd 5f a8 e2 bb
       -0.00042970758 -0.07647765 -0.08074047 -0.006917044
0001d0 86 b0 7a bd d7 3a 6f bd 79 b4 06 bd 9a 77 a9 bd
       -0.061203502 -0.058405723 -0.032886956 -0.08274765
0001e0 38 1b 84 3c d8 0d 75 3c 2a 58 4d bd 17 93 20 bd
       0.01612626 0.014956914 -0.050132908 -0.039202776
0001f0 14 3b 1d bd bc c4 63 bd c9 c7 53 bd 2e 9a a2 bd
       -0.03838642 -0.055607542 -0.0517042 -0.07939564
000200 b2 31 f0 bd 2d 8b a8 bd 98 f6 8d bc 50 ec 0a bb
       -0.11728229 -0.08229671 -0.0173295 -0.0021197982
000210 36 f9 69 bd 2b 9a 25 bd a1 6e af bc f0 84 b1 bc
       -0.05712243 -0.04043023 -0.021415057 -0.021669835
000220 b3 e0 b5 bc d6 a4 da bd cb 84 8a bd 2e 8a 22 bd
       -0.022201871 -0.10675971 -0.067636095 -0.03968256
000230 82 7d ed bb a7 7d e0 3c 45 6c f0 bd 41 96 9d bd
       -0.0072476277 0.027403666 -0.11739401 -0.07694674
000240 35 31 9c bd 40 2d 57 bd 2b 31 db 3c 00 60 0d b6
       -0.07626573 -0.05253339 0.026756844 -2.1066517e-06
000250 24 e7 b6 3b ae 8c 8d bc 94 66 82 bd ec ee 89 bd
       0.0055817533 -0.017278995 -0.063672215 -0.06735024
000260 23 ef 76 bd d0 6b 8a bd 6d 46 17 bd 8c c4 95 bd
       -0.060286652 -0.06758845 -0.036932398 -0.07312879
000270 10 5b 30 3d 3b 79 ed bd a9 fa a5 bb 14 bd ee bc
       0.043055594 -0.115953885 -0.0050652814 -0.029142894
000280 a6 59 2c bd d4 cb 0c bc 17 bf 9d bd 40 55 8f b9
       -0.042077683 -0.008593518 -0.07702463 -0.00027338602
000290 5f 85 6d 3c 9c a0 9c bd 2a b9 dd bc 1f 48 1c 3c
       0.01449713 -0.07647821 -0.027065832 0.009538679
0002a0 17 d9 62 bd 54 be 66 bc af 4d 72 bd 69 30 92 bd
       -0.055382814 -0.014083464 -0.059156116 -0.0713814
0002b0 66 28 3b bd 27 ff 93 bd 13 2e 62 bb a3 7c 0d bd
       -0.045692824 -0.07226401 -0.0034512326 -0.03454269
0002c0 83 55 42 bd 13 79 22 bd 86 95 3a bd e8 41 f9 3c
       -0.04744483 -0.039666247 -0.045552753 0.030426934
0002d0 d2 7e fa 3b 02 27 b8 bc b2 a1 aa bc f2 48 b6 bd
       0.0076445127 -0.022479538 -0.020829055 -0.08900632
0002e0 48 a2 55 bd 5b 46 a9 bd e3 72 ff bc a9 d8 8f bd
       -0.052156717 -0.08265372 -0.031182712 -0.070237465
0002f0 1d 3a 0f bd 1a c6 46 bd 5b f8 26 bd 30 08 d3 bc
       -0.03496753 -0.048528768 -0.040764194 -0.02576074
000300 3c f1 da bc 51 5f bf 3c 39 f9 3a be 36 c7 a3 bd
       -0.026726358 0.02336088 -0.18259133 -0.07996981
000310 c8 ed 2a bd 64 3b ef bc cc 74 d9 bd bb f1 a2 bc
       -0.041730672 -0.029203124 -0.1061798 -0.019890657
000320 11 4e b1 bd 85 b1 8d bd e3 ce b5 bd 6d c4 36 bd
       -0.08657468 -0.06918625 -0.08877351 -0.04462092
000330 21 3e c6 bc 8b 23 18 3c 50 5a 4e ba 03 02 0d 3c
       -0.024199547 0.009285818 -0.0007871734 0.008606437
000340 ca 8e 65 bd 92 f5 97 bd f2 28 e2 bc e7 3b 52 bd
       -0.056044377 -0.07419886 -0.027607415 -0.05132666
000350 d9 86 75 bd 25 ca de bb aa 9c 60 bd a6 ae 3e bd
       -0.059943054 -0.006799 -0.054836906 -0.046553276
000360 3c 46 4e bd ee c8 42 bd 61 09 7f bd c1 26 80 bd
       -0.05035995 -0.047554903 -0.062264804 -0.06257392
000370 48 32 17 bd 24 7c 16 bd 7c 9a 73 bd f6 ee 92 bd
       -0.036913186 -0.036739483 -0.0594735 -0.071744844
000380 c0 63 64 bd ce bc 0c bd 9f 37 7b bd 51 b5 aa bd
       -0.05575919 -0.034359746 -0.06133234 -0.083353646
000390 66 bf ab bd 88 d7 ba bd 13 2c e3 bc 9c 78 84 bd
       -0.08386116 -0.091231406 -0.027730977 -0.06468317
0003a0 13 eb e2 3b 48 25 a6 3a e8 b7 98 bb 09 27 16 bd
       0.0069249957 0.0012675906 -0.004660595 -0.03665832
0003b0 ff 10 c7 bd 75 b6 b0 bd 5e 4e 84 bd f2 02 9d bc
       -0.097200386 -0.08628551 -0.0646026 -0.019166443
0003c0 23 39 2b bd 4f af 60 bc 0c 13 9b bc 41 0a b4 bd
       -0.041802537 -0.013713672 -0.01892998 -0.08791018
0003d0 4f ab a9 bd bc 4b 5a 3d 32 ce ff bc 9e 05 2f bd
       -0.08284628 0.053294882 -0.031226251 -0.042729966
0003e0 c2 d5 89 bd 58 1f b5 3a d8 bd 9d 3b 31 14 7b bd
       -0.06730224 0.0013818545 0.004813891 -0.061298553
0003f0 64 95 89 bd 06 09 1d 3d 85 73 1b bd 96 8f 3a bd
       -0.06717947 0.038338684 -0.037951965 -0.04554709

net.4.bias f4 [128]
000000 76 f2 b3 3f 57 c5 59 be 45 ac 22 bf 20 79 24 3e
       1.4058368 -0.21266685 -0.6354411 0.1606183
000010 84 47 ba 3e 20 de 03 3f d6 a0 3e 3f dd 16 43 bf
       0.36382687 0.5151081 0.74464166 -0.7620676
000020 d4 fe ac 3f 84 cc 89 3f 56 e9 4e 3f 95 72 23 bd
       1.3515267 1.0765538 0.8082479 -0.039904196
000030 24 42 50 3f 93 86 61 3f d8 38 0e 3e 32 33 88 be
       0.8135092 0.8809597 0.13888872 -0.2660156
000040 21 61 c1 3e 1f 68 27 3f 40 c2 37 bc 11 bf 8b 3f
       0.37769416 0.6539325 -0.011215746 1.0917684
000050 51 15 b0 3e 64 4e 8f bf cb 82 89 3f 9d 93 9b be
       0.34391263 -1.1195798 1.074304 -0.30386057
000060 74 9c 67 3e dd 34 6e 3f ea ea 8f bf 15 65 cb 3f
       0.22618276 0.9304941 -1.1243565 1.5890223
000070 d1 b5 22 3f 92 ef 2b bf 5b 7a 73 3f 67 0f c2 be
       0.6355868 -0.6716243 0.95108575 -0.37902376
000080 8e 1c 92 3f cf c0 90 bd e9 3a ae 3f 13 f1 b4 3d
       1.1414964 -0.07068025 1.3611728 0.08835044
000090 80 af 57 bf cb ac 93 3d 51 a3 06 3e f2 0f a5 3f
       -0.84252167 0.07210692 0.13148238 1.2895491
0000a0 10 60 90 3e 9c 8b 56 bf 39 bb 40 3e 5e bb 8b bd
       0.2819829 -0.83806777 0.1882142 -0.06822847
0000b0 cc 50 08 3c ce c3 81 3f 19 23 09 3f 30 49 68 bb
       0.008320045 1.013788 0.5356918 -0.0035444014
0000c0 ec 00 a7 3f 73 2b 62 bd 7d f0 85 bf 38 9d f8 bc
       1.3047156 -0.055217218 -1.0464016 -0.030348405
0000d0 bd 09 30 bf 4d a8 7a 3e ba f6 c9 3f ea 80 88 3e
       -0.6876486 0.24478264 1.577842 0.26660854
0000e0 ce 50 1e bf 45 59 03 bf b7 ba 2c be 5b be 41 bf
       -0.6184205 -0.5130809 -0.16868101 -0.75681084
0000f0 5b 66 12 bf a7 c8 a8 bd 54 b9 91 3c ac bd c3 3f
       -0.5718743 -0.082413964 0.017788567 1.5292258
000100 b9 dc 6d 3e 9f 0f 02 3f ed cd 2e 3f 14 bd ce 3f
       0.2322873 0.50805086 0.6828297 1.6151452
000110 91 b9 ee 3e 5f 30 8b bf e2 cb 1e bf 7f 37 9d bf
       0.4662595 -1.0874137 -0.6202985 -1.2282561
000120 a0 75 1e bf e9 a8 9d bd 0b e7 bf bd 79 cd ac 3f
       -0.6189823 -0.07698233 -0.0937024 1.3500205
000130 10 61 ab 3f 08 7d 8b 3f c1 2a ad bf c7 a5 3c 3d
       1.3388996 1.0897532 -1.3528672 0.046056535
000140 c0 67 d1 bf 22 a0 aa be db 2f 9c 3f 1f 75 8a be
       -1.6359787 -0.33325297 1.2202104 -0.2704248
000150 44 06 e3 3e db eb bb 3f 1b e5 8c 3f 6c da 9e 3e
       0.44340718 1.4681352 1.1007417 0.31026018
000160 e9 da 91 be 65 8f 22 3f 61 b1 e5 bd b0 fb 2e be
       -0.28487328 0.6350005 -0.11215473 -0.17088199
000170 9b 7f 39 3e a8 7a 2e 3e bc da 2e bf 66 bb 87 3f
       0.18115084 0.17038977 -0.6830251 1.0604064
000180 f7 e5 57 bf 4a 46 09 3e 8e ed b9 bf b0 39 c2 bf
       -0.84335274 0.1340572 -1.4525621 -1.5173855
000190 27 e1 01 3f f4 16 af 3e cd 9e 00 bf 82 cd 27 3f
       0.5073418 0.341972 -0.5024231 0.65547955
0001a0 7f f3 2b bf 2c 7a 39 3f 5c c4 b9 be 56 e0 0d 3f
       -0.6716842 0.72452044 -0.36282623 0.55420434
0001b0 9d 04 b0 3e 9d d8 9e bd 65 04 85 be fc 64 12 3f
       0.3437852 -0.077561595 -0.25979915 0.5718534
0001c0 3e 3d 77 bf f7 f4 76 3f bc 90 39 be 34 35 64 bf
       -0.96577823 0.96467537 -0.18121618 -0.8914368
0001d0 06 51 70 bf 7e e5 3e be b5 54 e4 3e 59 1f 7f 3f
       -0.9387363 -0.18642232 0.44595876 0.9965721
0001e0 56 e0 56 be e3 16 c0 3e bc e7 3a bc 11 30 a5 be
       -0.20984015 0.3751746 -0.011407789 -0.32263234
0001f0 24 d5 67 3f 68 bd 5b be 57 8d 90 3e b9 d9 92 3e
       0.905596 -0.21458972 0.28232834 0.28681734

net.8.bias f4 [64]
000000 9d 4e 36 3f 76 a1 b1 bd 15 35 25 3f 1a bf 80 3f
       0.71213704 -0.08673374 0.6453412 1.005832
000010 92 03 1f bf 4a ce 6a bf 08 af 23 3f b0 21 5b bf
       -0.6211482 -0.9172102 0.6393895 -0.8559828
000020 99 10 04 3f c1 90 3d bf bc 6c a8 be 1f b8 03 3f
       0.51587826 -0.74049 -0.32895458 0.5145282
000030 8a 46 da 3e da fb d3 3f 7a b0 2f bf 3c 5d ae 3e
       0.42631942 1.6561234 -0.68628657 0.34055507
000040 b7 3c ac 3f 0a 14 fa 3e 58 d3 5d 3f 2f e2 e3 3e
       1.3456029 0.48843414 0.8665061 0.44508502
000050 a0 16 ac 3f 4e 6e 88 3f bf a2 ea be 14 a9 8f 3f
       1.3444405 1.0658662 -0.4582729 1.1223474
000060 a3 50 ae be a0 71 06 be 60 99 42 3d b6 e0 d0 3d
       -0.34045896 -0.13129282 0.04750955 0.1019911
000070 62 c7 05 3f bb f5 f6 3e 6c 2a 45 3f 6b 50 76 3f
       0.5225736 0.48234352 0.77017856 0.9621646
000080 5b ce d2 be fb 9d 1d 3f 72 ab 50 3f 61 ee 47 3f
       -0.41173062 0.61569184 0.81511605 0.7809811
000090 e6 a8 8f 3f 90 9f 49 bf 31 23 7b 3e 36 9a 1e 3e
       1.1223419 -0.787591 0.24525143 0.15488514
0000a0 80 b6 b8 3f 85 52 37 3f 17 89 d4 3e 90 82 a8 bc
       1.4430695 0.7161029 0.4151084 -0.02057007
0000b0 dd b1 26 3f 90 40 0c 3f c6 2a 85 be 7e f4 22 3f
       0.6511515 0.54786015 -0.26009196 0.63654315
0000c0 fe 76 9d 3e d2 63 f0 bd 00 9d 46 3e 34 9e ce 3e
       0.30754846 -0.11737789 0.19395828 0.40355074
0000d0 02 ec 9f 3f 8e 34 29 3d 27 40 2c 3f 04 8f 64 be
       1.2493899 0.041309886 0.6728539 -0.22320181
0000e0 c8 a8 d7 3e 3b 1a 22 3f c1 02 95 bd 97 e8 9a 3f
       0.42120957 0.63321275 -0.07275916 1.2102231
0000f0 76 82 20 be a8 26 8f 3f c0 55 72 3f 6c 42 4b 3f
       -0.15674767 1.1183672 0.94662094 0.79398227

net.0.weight_quantized i1 [40, 256]
000000 20 17 ff 10 ec ca 0c 0f e8 d4 fd d0 06 f1 e8 f3
       32 23 -1 16 -20 -54 12 15 -24 -44 -3 -48 6 -15 -24 -13
000010 cc 30 fe e1 f5 f5 0e d3 19 f8 14 ff e5 f7 dc 23
       -52 48 -2 -31 -11 -11 14 -45 25 -8 20 -1 -27 -9 -36 35
000020 25 01 e3 39 0f e3 03 0e ff 27 c5 cd 17 fc fb d7
       37 1 -29 57 15 -29 3 14 -1 39 -59 -51 23 -4 -5 -41
000030 f6 d2 f9 d2 f8 dc e7 01 d5 2d 0d 0b f1 19 0a 16
       -10 -46 -7 -46 -8 -36 -25 1 -43 45 13 11 -15 25 10 22
000040 1f d5 01 ef fc cb fe 09 16 1c 11 0a f5 e2 df 22
       31 -43 1 -17 -4 -53 -2 9 22 28 17 10 -11 -30 -33 34
000050 2e 06 f4 2d 11 0f de f7 d4 d6 08 e0 ff ca fd fd
       46 6 -12 45 17 15 -34 -9 -44 -42 8 -32 -1 -54 -3 -3
000060 0e d7 e9 e5 41 ec 22 f3 db 2b 18 f7 e2 dc df 1f
       14 -41 -23 -27 65 -20 34 -13 -37 43 24 -9 -30 -36 -33 31
000070 08 e1 df 09 28 f4 d0 1e f4 cc 1b 08 2d e3 2a 0b
       8 -31 -33 9 40 -12 -48 30 -12 -52 27 8 45 -29 42 11
000080 32 1c 01 0e 16 e9 f8 2a d5 08 e7 25 47 f5 d2 fb
       50 28 1 14 22 -23 -8 42 -43 8 -25 37 71 -11 -46 -5
000090 e3 bc 1e f6 21 0a fc 07 d2 2a f9 d9 e6 eb f8 16
       -29 -68 30 -10 33 10 -4 7 -46 42 -7 -39 -26 -21 -8 22
0000a0 13 16 52 0e 0e 19 08 f5 d0 1a e4 eb d7 f8 3c 17
       19 22 82 14 14 25 8 -11 -48 26 -28 -21 -41 -8 60 23
0000b0 00 f0 e8 11 1b cc 18 fb dd d8 f2 21 e6 ca 2f f8
       0 -16 -24 17 27 -52 24 -5 -35 -40 -14 33 -26 -54 47 -8
0000c0 ef e9 e7 09 19 23 16 02 1b f2 eb ea d3 07 f5 09
       -17 -23 -25 9 25 35 22 2 27 -14 -21 -22 -45 7 -11 9
0000d0 12 46 fa dd f6 f2 0c df cd 20 4c ee e5 1e fd 3d
       18 70 -6 -35 -10 -14 12 -33 -51 32 76 -18 -27 30 -3 61
0000e0 e6 1c 14 ce ed ee 24 00 0e e8 fd e6 d6 07 f1 dc
       -26 28 20 -50 -19 -18 36 0 14 -24 -3 -26 -42 7 -15 -36
0000f0 1c fa 16 af 30 32 10 1d eb 1e 03 0f d7 e1 4f 1d
       28 -6 22 -81 48 50 16 29 -21 30 3 15 -41 -31 79 29

net.4.weight_quantized i1 [256, 128]
000000 2b ec 09 06 20 14 36 c4 25 da e1 02 08 e1 0a 28
       43 -20 9 6 32 20 54 -60 37 -38 -31 2 8 -31 10 40
000010 da 0b 18 17 06 fe e8 fa fa 07 26 0b 04 f7 ef ec
       -38 11 24 23 6 -2 -24 -6 -6 7 38 11 4 -9 -17 -20
000020 00 0d ef 13 07 06 14 e4 e5 eb f6 ff 20 ea 10 00
       0 13 -17 19 7 6 20 -28 -27 -21 -10 -1 32 -22 16 0
000030 f6 fd 0e 0c fd fc 2f 2f 0d 2b 3e f7 29 03 08 f9
       -10 -3 14 12 -3 -4 47 47 13 43 62 -9 41 3 8 -7
000040 d3 fa 0b ed 1d e2 23 25 17 dd 1e da 18 20 fa f1
       -45 -6 11 -19 29 -30 35 37 23 -35 30 -38 24 32 -6 -15
000050 17 dd ed 03 fd f1 e6 f1 12 01 1b de 0a 1d ad f5
       23 -35 -19 3 -3 -15 -26 -15 18 1 27 -34 10 29 -83 -11
000060 13 18 14 03 cd 3a 0c 27 ec 19 29 c5 25 ff 0c f1
       19 24 20 3 -51 58 12 39 -20 25 41 -59 37 -1 12 -15
000070 d7 14 0f d2 f5 14 19 14 26 18 ea 1b e9 da 11 21
       -41 20 15 -46 -11 20 25 20 38 24 -22 27 -23 -38 17 33
000080 f5 e8 15 04 fc bd cc 15 dc 09 d6 2b 09 e1 e9 2e
       -11 -24 21 4 -4 -67 -52 21 -36 9 -42 43 9 -31 -23 46
000090 ff 21 0a ff ee 36 f9 39 24 21 3b 18 2a 20 29 0f
       -1 33 10 -1 -18 54 -7 57 36 33 59 24 42 32 41 15
0000a0 28 d9 0c 09 13 fd 16 14 fd 06 cb 1b d2 ff f9 f5
       40 -39 12 9 19 -3 22 20 -3 6 -53 27 -46 -1 -7 -11
0000b0 fc 23 13 d9 2a 0b d5 16 d7 00 21 16 f2 d0 bd d4
       -4 35 19 -39 42 11 -43 22 -41 0 33 22 -14 -48 -67 -44
0000c0 0d fc 0f 24 db e9 ea 03 e8 1a f7 dd 1d d2 17 26
       13 -4 15 36 -37 -23 -22 3 -24 26 -9 -35 29 -46 23 38
0000d0 33 ef 0c fa 17 fe f0 e8 eb 1f ed c2 da 0e 0b 13
       51 -17 12 -6 23 -2 -16 -24 -21 31 -19 -62 -38 14 11 19
0000e0 d0 08 e5 e9 20 c9 28 d4 e6 27 0d 17 1c c3 d3 18
       -48 8 -27 -23 32 -55 40 -44 -26 39 13 23 28 -61 -45 24
0000f0 0a ee f5 07 21 e1 f6 f8 e5 d3 f8 ad dc 0f ff f6
       10 -18 -11 7 33 -31 -10 -8 -27 -45 -8 -83 -36 15 -1 -10

net.8.weight_quantized i1 [128, 64]
000000 2d 30 02 16 13 36 e8 f1 ff 0c f6 16 f1 fb 4a 3b
       45 48 2 22 19 54 -24 -15 -1 12 -10 22 -15 -5 74 59
000010 d3 f5 24 e2 eb 2f 03 20 e9 11 09 ee b3 32 e5 29
       -45 -11 36 -30 -21 47 3 32 -23 17 9 -18 -77 50 -27 41
000020 0f f4 ce f0 d8 2e f3 24 9e 24 1b 06 d9 27 16 0b
       15 -12 -50 -16 -40 46 -13 36 -98 36 27 6 -39 39 22 11
000030 2c e9 ba 2e 0d fe ef ed 1d 01 1b ef d7 3b 26 e1
       44 -23 -70 46 13 -2 -17 -19 29 1 27 -17 -41 59 38 -31
000040 ff c6 09 cf 0b 08 30 f0 f9 cd 1b e4 ef ca c7 41
       -1 -58 9 -49 11 8 48 -16 -7 -51 27 -28 -17 -54 -57 65
000050 fd 0a e9 f2 f6 c2 0b 16 e3 13 04 df ff dd fa 11
       -3 10 -23 -14 -10 -62 11 22 -29 19 4 -33 -1 -35 -6 17
000060 24 10 14 e5 f9 1b d8 d3 e3 07 c4 0a 17 ea e5 12
       36 16 20 -27 -7 27 -40 -45 -29 7 -60 10 23 -22 -27 18
000070 f4 13 07 eb 10 08 0f 30 08 ea f3 0f 03 ac fc e6
       -12 19 7 -21 16 8 15 48 8 -22 -13 15 3 -84 -4 -26
000080 e9 c5 05 11 0b 25 12 fb ee 02 1c 23 c5 e9 01 25
       -23 -59 5 17 11 37 18 -5 -18 2 28 35 -59 -23 1 37
000090 e9 c2 07 fc e4 f3 e5 33 1f e0 1d ca e5 d9 de f9
       -23 -62 7 -4 -28 -13 -27 51 31 -32 29 -54 -27 -39 -34 -7
0000a0 1f f4 e4 e5 12 20 e9 0a 19 cd db f6 05 bc 0f 15
       31 -12 -28 -27 18 32 -23 10 25 -51 -37 -10 5 -68 15 21
0000b0 e1 10 1d 03 c5 f6 d2 d6 d7 bf f8 dd 29 e5 17 ea
       -31 16 29 3 -59 -10 -46 -42 -41 -65 -8 -35 41 -27 23 -22
0000c0 18 dd df b8 ee ec bd 27 03 f4 e8 f0 32 e2 d9 3e
       24 -35 -33 -72 -18 -20 -67 39 3 -12 -24 -16 50 -30 -39 62
0000d0 ad 0d ae e7 ed dc f6 e4 00 00 08 03 f4 1c 05 d1
       -83 13 -82 -25 -19 -36 -10 -28 0 0 8 3 -12 28 5 -47
0000e0 00 bf a9 1b 03 db ef de cd e5 25 1b d4 00 0b dc
       0 -65 -87 27 3 -37 -17 -34 -51 -27 37 27 -44 0 11 -36
0000f0 ca 0f 15 1b c5 cf c9 ec f5 19 fb cc df cf ee d5
       -54 15 21 27 -59 -49 -55 -20 -11 25 -5 -52 -33 -49 -18 -43

net.12.weight_quantized i1 [64, 1]
000000 9e e7 af c3 1b 0a ab 16 8c 13 09 17 ee ba f3 02
       -98 -25 -81 -61 27 10 -85 22 -116 19 9 23 -18 -70 -13 2
000010 c0 b7 a0 b5 c3 c4 f4 cc 17 27 25 1a ce 87 81 93
       -64 -73 -96 -75 -61 -60 -12 -52 23 39 37 26 -50 -121 -127 -109
000020 16 94 cc 99 e0 16 12 fd b2 da df 27 f8 a2 12 8c
       22 -108 -52 -103 -32 22 18 -3 -78 -38 -33 39 -8 -94 18 -116
000030 10 0e be a9 cf 0d 9e 15 2e b3 0d ac c0 be a7 b3
       16 14 -66 -87 -49 13 -98 21 46 -77 13 -84 -64 -66 -89 -77
