models/nn_model.pt (torch, 222075 bytes, 19 tensors)

net.0.weight f4 [256, 40]
0.1088072 0.08155451 -0.011457464 0.12656492 0.15072481 0.19046041 0.1396088 0.08922523
0.10903439 -0.13586146 -0.045463715 -0.11977921 0.13665405 -0.07462713 0.018757459 0.14368998
0.07619319 0.054078087 -0.023966676 -0.12588601 -0.027907114 0.09216858 0.0724957 -0.058426812
0.054087076 0.020398134 0.09679658 0.073086835 -0.07680403 -0.074434824 -0.17878036 0.0057793297
-0.0073009636 0.014280357 0.026469735 0.106863916 0.03227388 0.11484456 0.07984069 0.07907648
0.075787656 -0.115940064 0.041439548 0.0016393691 -0.110471316 -0.14150687 -0.09231712 -0.14808103
-0.13467912 -0.059037812 0.041405056 -0.053782884 0.025658684 0.16149502 0.07726454 -0.10470004
-0.09565447 0.13006854 0.10319064 -0.016197802 -0.13155074 0.037724707 -0.11403075 0.11102374
0.14296192 0.13919471 0.032772347 -0.041484658 -0.018617252 -0.14303733 0.017101752 -0.056209914
-0.17264427 0.17382959 0.018006165 -0.16389161 -0.006110476 -0.099086866 0.081202984 -0.09325064
-0.0028519453 0.053819194 -0.08138192 0.078543216 -0.13182494 0.028392676 -0.24912351 0.107564315
0.025856575 0.031070916 -0.0027166393 -0.06637297 0.05370539 -0.17077437 0.12004399 -0.05199445
-0.06337579 0.0788598 -0.004032773 -0.038786635 0.086644 0.0841834 -0.08332261 -0.14479008
0.10258202 -0.104327284 -0.07724122 -0.119605206 -0.11597458 0.06870808 -0.10874161 0.13664778
-0.13553517 0.042895585 0.049329773 0.12670954 0.14313501 -0.11611789 -0.080908254 0.085760966
0.05881193 0.057041828 0.08007032 -0.11215287 0.029907506 -0.13627091 -0.016416404 -0.073857225
-0.11743276 0.07234524 0.093821436 -0.021522319 0.05286246 0.13126855 -0.14960612 -0.11554479
-0.0925333 -0.10838699 -0.20690374 -0.07782875 0.021418832 -0.209001 -0.13775642 0.029618535
-0.084076025 -0.16309625 -0.0027451746 -0.0998722 0.10059892 0.09227556 0.11333366 -0.009400611
0.005686168 -0.1419442 -0.023541812 0.06394331 -0.12178266 -0.06422666 -0.1188438 0.015409431
-0.067871235 0.103488795 -0.15078087 -0.063478395 0.010931866 -0.10285424 0.122183844 -0.14399573
-0.03811106 -0.14240025 0.17328863 0.070060745 0.011163996 0.084424034 0.016305277 0.07512968
-0.15730132 0.13244218 -0.07697912 0.11601816 -0.021370132 0.20065328 0.025601272 0.13129905
0.09552918 0.050373696 -0.14958581 0.045313556 -0.13497917 0.020174459 0.14207204 0.047541518
-0.010479072 -0.14745672 0.10432619 0.12394063 -0.03220741 0.13186368 0.011134151 0.017349169
-0.19326499 0.11303065 -0.076806135 -0.09881979 0.0029677392 -0.097904876 -0.12958717 0.1767101
-0.13767512 -0.06734169 -0.07258521 -0.057292107 0.05506769 -0.0622483 -0.02068867 -0.0629888
-0.0014150314 -0.16420478 -0.06930309 0.13633703 -0.18123229 -0.052751414 0.11247986 0.08418008
-0.06750592 0.067634605 0.06681336 -0.21285902 0.14194207 -0.06815224 0.0410562 0.11661341
0.027979355 0.08611987 0.12650768 -0.16119853 4.8073354e-05 -0.010686769 0.13984364 0.0800801
0.03462904 0.044180706 0.010149823 -0.16329712 -0.0602605 -0.06216573 0.12458654 0.07590288
0.030458236 0.102839276 0.037657764 0.0037220758 0.099834494 0.08191742 -0.0017531889 -0.008599288
00000000: 4fd6 de3d 0d06 a73d 16b8 3bbc 3c9a 013e
00000010: 9b57 1a3e 0e08 433e 9cf5 0e3e b8bb b63d
00000020: 6c4d df3d 441f 0bbe 2938 3abd cd4e f5bd
00000030: 0aef 0b3e 1cd6 98bd 3ea9 993c 7723 133e
00000040: 2d0b 9c3d fc80 5d3d c355 c4bc 43e8 00be
00000050: 769d e4bc e1c2 bc3d a078 943d f450 6fbd
00000060: 698a 5d3d fd19 a73c 493d c63d 8dae 953d
00000070: 6e4b 9dbd 4971 98bd 3312 37be 8860 bd3b
00000080: ec3c efbb 29f8 693c 0fd7 d83c 78db da3d
00000090: 9e31 043d a033 eb3d 8483 a33d d9f2 a13d
000000a0: 8f36 9b3d fc71 edbd 84bc 293d 19e0 d63a
000000b0: c93e e2bd 2de7 10be c210 bdbd 8ea2 17be
000000c0: 53e9 09be a2d1 71bd 5998 293d 714b 5cbd
000000d0: 2932 d23c f35e 253e df3c 9e3d f96c d6bd
000000e0: 7ee6 c3bd b030 053e 9d55 d33d 41b1 84bc
000000f0: 3db5 06be 3985 1a3d f488 e9bd 6a60 e33d
00000100: 9c64 123e 0f89 0e3e 4c3c 063d d1eb 29bd
00000110: 3583 98bc 6178 12be f918 8c3c 5e3c 66bd
00000120: a9c9 30be 6200 323e aa81 933c 34d3 27be
00000130: 633a c8bb 0eee cabd c04d a63d 31fa bebd
00000140: b4e7 3abb 8471 5c3d 90ab a6bd 44db a03d
00000150: 1efd 06be c297 e83c 3c1a 7fbe ae4a dc3d
00000160: 2bd1 d33c 6f88 fe3c a509 32bb 8dee 87bd
00000170: 2ffa 5b3d 7adf 2ebe a0d9 f53d 22f8 54bd
00000180: 2bcb 81bd 3f81 a13d 5a25 84bb bcde 1ebd
00000190: 6972 b13d 5968 ac3d 0ba5 aabd da43 14be
000001a0: 8616 d23d 8ba9 d5bd a530 9ebd 93f3 f4bd
000001b0: 1584 edbd d2b6 8c3d ecb3 debd 65ed 0b3e
000001c0: bbc9 0abe 48b3 2f3d 040e 4a3d 25c0 013e
000001d0: fc91 123e 37cf edbd 3ab3 a5bd 72a3 af3d
000001e0: c7e4 703d b1a4 693d e8fb a33d 67b0 e5bd
000001f0: 9600 f53c 9a8a 0bbe b27b 86bc 7542 97bd
00000200: 9680 f0bd be29 943d 7425 c03d 934f b0bc
00000210: 4f86 583d 436b 063e 5932 19be bfa2 ecbd
00000220: 1982 bdbd 00fa ddbd 93de 53be ae64 9fbd
00000230: 8c76 af3c 5c04 56be 0510 0dbe 92a2 f23c
00000240: 0d30 acbd b402 27be 63e8 33bb cc89 ccbd
00000250: ce06 ce3d f8fa bc3d 7a1b e83d 0505 1abc
00000260: 0953 ba3b d259 11be c2da c0bc b6f4 823d
00000270: 3069 f9bd 4489 83bd 6164 f3bd d777 7c3c
00000280: 1300 8bbd eff1 d33d 4d66 1abe f600 82bd
00000290: 921b 333c 3ea5 d2bd 863b fa3d 9e73 13be
000002a0: 581a 1cbd 5fd1 11be 9372 313e 027c 8f3d
000002b0: 31e9 363c 82e6 ac3d a592 853c 97dd 993d
000002c0: 9913 21be ec9e 073e 3ba7 9dbd ee9a ed3d
000002d0: 6a10 afbc 0e78 4d3e c2b9 d13c 4273 063e
000002e0: cda4 c33d a654 4e3d 062d 19be b59a 393d
000002f0: fb37 0abe e844 a53c 557b 113e e5ba 423d
00000300: 6ab0 2bbc e5fe 16be f8a8 d53d 96d4 fd3d
00000310: ebeb 03bd 4607 073e 046c 363c d81f 8e3c
00000320: 42e7 45be 9d7c e73d 894c 9dbd 0862 cabd
00000330: 677e 423b 5a82 c8bd 80b2 04be 7ef3 343e
00000340: b5fa 0cbe 71ea 89bd 8ea7 94bd 21ab 6abd
00000350: a88e 613d 13f8 7ebd 497b a9bc 4600 81bd
00000360: 9378 b9ba 4c25 28be c7ee 8dbd ef9b 0b3e
00000370: f594 39be de11 58bd d75b e63d 9b66 ac3d
00000380: 8b40 8abd 0384 8a3d 71d5 883d b7f7 59be
00000390: 4359 113e 6793 8bbd 8c2a 283d 03d3 ee3d
000003a0: f634 e53c 9d5f b03d 3b8b 013e 3a11 25be
000003b0: 5fa2 4938 8f17 2fbc 2c33 0f3e 0901 a43d
000003c0: 2ed7 0d3d d4f6 343d 714b 263c 5c37 27be
000003d0: b7d3 76bd 7ea1 7ebd 3a27 ff3d f872 9b3d
000003e0: 8d83 f93c 669d d23d 073f 1a3d 12ee 733b
000003f0: 0776 cc3d 52c4 a73d 42cb e5ba 07e4 0cbc

net.0.bias f4 [256]
-0.0052341907 -0.14549641 -0.06617689 -0.09696338 0.09541135 0.05343229 0.13070981 0.0731961
0.13581508 -0.045103014 -0.020116268 -0.08726706 0.14009623 -0.09362138 0.045482796 -0.09778553
0.022472573 0.12255662 0.1079256 -0.14777109 -0.03196754 -0.041222245 -0.08658327 -0.08815715
-0.016347567 -0.1059449 0.14601216 0.086044826 -0.10268597 -0.13226081 0.06838802 0.09822168
0.030461172 -0.09822867 -0.013658926 -0.14330126 0.06882476 0.083930284 0.12424298 -0.15788081
0.14402068 -0.15126075 -0.09888309 0.047613844 0.08863329 0.10232324 0.023536755 0.064769164
-0.010730765 -0.15791532 0.046448223 -0.071767665 0.12821859 -0.016893521 0.0036717118 -0.12409898
-0.10599701 -0.15189987 -0.14445665 0.14235778 -0.1392449 0.11457906 -0.016329981 -0.0031777776
-0.06059676 0.0009927438 0.04050529 0.039824244 -0.03535972 0.033676416 -0.010502801 -0.123271435
0.08094767 0.0763933 -0.04509986 -0.046393923 -0.054163154 0.14649862 0.05405922 0.003876425
0.1307316 0.032838304 0.081981234 0.016882136 0.10494043 0.08274985 -0.124806695 0.058032744
0.09362643 0.100996904 -0.11624282 0.046136435 0.09000228 0.070135884 0.02741141 0.06393784
-0.08917931 0.05931423 -0.03401038 0.14745992 0.11243491 -0.059251882 -0.1442203 0.065669715
-0.0218922 0.07181067 -0.13737059 0.09693563 -0.005853332 0.03949418 0.09528817 -0.045900494
-0.042210933 -0.14852144 0.14583911 -0.09095447 -0.12129085 -0.115474716 0.07691924 0.12778501
0.00579773 0.09728594 0.087461546 0.13230008 -0.14895944 -0.020889368 -0.14305061 -0.09709661
-0.0035974896 0.1371436 0.0021039983 -0.14277025 0.13281326 0.1080254 0.13495468 0.10300309
-0.12997344 -0.0071471296 -0.023413273 0.1019544 0.14635043 0.15150745 -0.068902396 0.073008664
-0.054492604 0.14172168 -0.10198985 0.057942167 -0.14079152 -0.077916734 -0.07935559 0.14271581
-0.074476056 -0.09166115 0.015310803 -0.0043697464 -0.09285628 0.06356963 -0.0704124 0.09730115
-0.08872598 -0.04239187 0.08969969 -0.15268716 -0.09911291 -0.11735517 0.13564634 0.039438006
-0.08166645 0.036614828 0.09484245 0.1506098 -0.08650002 -0.031111607 -0.15187413 0.06249953
-0.030861344 0.11502781 -0.108427584 0.094775975 0.09287823 -0.15111795 -0.12116626 -0.038978517
-0.022774171 0.035375442 0.102495395 -0.06758919 -0.15529716 0.09641596 0.037108112 0.05661634
0.0072168857 0.14244491 -0.13810731 -0.10831366 -0.07386655 -0.14716367 -0.05525171 -0.06523006
0.13188261 -0.020366432 -0.14717638 -0.020672053 0.050104287 -0.107929446 -0.06306719 0.14195059
-0.06844219 0.14062428 -0.057611704 0.008087502 -0.005562081 0.07732855 -0.13741978 -0.07506204
0.0377011 -0.102698974 0.009247169 0.119874686 0.03288747 -0.044445004 0.12583026 0.1533398
0.073777996 -0.0716671 0.027642582 0.102131546 -0.0996315 0.13827413 -0.02181726 -0.14209606
-0.099462986 0.03973875 0.1284701 0.10599754 -0.03269241 -0.104939915 -0.0162755 -0.1536318
-0.15270376 0.08303393 -0.026803944 0.103821464 0.11590242 0.026347907 -0.12733829 -0.051628463
-0.10491549 0.08070028 -0.09884886 -0.041168317 -0.103130504 -0.031240428 -0.03023811 -0.00081519986
00000000: 9383 abbb 03fd 14be c087 87bd bd94 c6bd
00000010: 0767 c33d d1db 5a3d cbd8 053e d6e7 953d
00000020: 1c13 0b3e f0bd 38bd dfca a4bc 13b9 b2bd
00000030: 6375 0f3e 91bc bfbd 2b4c 3a3d c843 c8bd
00000040: 6718 b83c f7fe fa3d 1908 dd3d 4e51 17be
00000050: 65f0 02bd a8d8 28bd 9252 b1bd bc8b b4bd
00000060: 55eb 85bc a4f9 d8bd 3684 153e 4538 b03d
00000070: 064d d2bd 616f 07be 050f 8c3d 7328 c93d
00000080: b589 f93c 1d2c c9bd b0c9 5fbc 91bd 12be
00000090: fff3 8c3d a4e3 ab3d 1a73 fe3d 82ab 21be
000000a0: 287a 133e 19e4 1abe 3883 cabd bc06 433d
000000b0: 5f85 b53d d98e d13d 27d0 c03c b2a5 843d
000000c0: 17d0 2fbc 8eb4 21be 7e40 3e3d edfa 92bd
000000d0: bc4b 033e 4864 8abc 1aa1 703b 9b27 febd
000000e0: f614 d9bd a48b 1bbe 72ec 13be 3dc6 113e
000000f0: 3796 0ebe 6da8 ea3d 74c6 85bc 4342 50bb
00000100: 4f34 78bd f41e 823a e0e8 253d bf1e 233d
00000110: 5bd5 10bd 48f0 093d f113 2cbc bc75 fcbd
00000120: e4c7 a53d 1774 9c3d a1ba 38bd 8e07 3ebd
00000130: 2fda 5dbd bc03 163e 336d 5d3d 9f0b 7e3b
00000140: 81de 053e 7581 063d c7e5 a73d 684c 8a3c
00000150: 02eb d63d c178 a93d a79a ffbd beb3 6d3d
00000160: 37bf bf3d 77d7 ce3d b710 eebd 8ff9 3c3d
00000170: 1e53 b83d 67a3 8f3d e58d e03c d8f1 823d
00000180: a4a3 b6bd 7af3 723d 784e 0bbd bcff 163e
00000190: 4644 e63d 1ab2 72bd 7cae 13be d87d 863d
000001a0: 4557 b3bc 7911 933d e0aa 0cbe 3086 c63d
000001b0: 4fcd bfbb a6c4 213d 7226 c33d 2802 3cbd
000001c0: 5fe5 2cbd 0116 18be d956 153e 5646 babd
000001d0: 5667 f8bd 027e ecbd d687 9d3d 13da 023e
000001e0: e2fa bd3b da3d c73d 0a1f b33d ac79 073e
000001f0: d388 18be 2e20 abbc dc7b 12be 96da c6bd
00000200: dcc3 6bbb 5f6f 0c3e 3ce3 093b 5d32 12be
00000210: 3300 083e 6c3c dd3d 8f31 0a3e 49f3 d23d
00000220: c217 05be 7832 eabb 31cd bfbc 78cd d03d
00000230: e3dc 153e c524 1b3e b31c 8dbd 9185 953d
00000240: a333 5fbd 7d1f 113e 0ee0 d0bd c454 6d3d
00000250: a72b 10be cf92 9fbd 2f85 a2bd 1824 123e
00000260: e786 98bd d7b8 bbbd 2ada 7a3c 1730 8fbb
00000270: 6f2b bebd cb30 823d 6034 90bd d345 c73d
00000280: f7b5 b5bd 19a3 2dbd 79b4 b73d 065a 1cbe
00000290: b6fb cabd e857 f0bd e0e6 0a3e bf89 213d
000002a0: bd40 a7bd 6ef9 153d c23c c23d 7539 1a3e
000002b0: ec26 b1bd c5dd febc e484 1bbe 82ff 7f3d
000002c0: eed0 fcbc b393 eb3d 480f debd e819 c23d
000002d0: f136 be3d aabe 1abe 0426 f8bd f0a7 1fbd
000002e0: e690 babc d7e5 103d 1be9 d13d 346c 8abd
000002f0: 3806 1fbe bb75 c53d adfe 173d 89e6 673d
00000300: a07b ec3b 14dd 113e 016c 0dbe 8dd3 ddbd
00000310: 5947 97bd 13b2 16be 9e4f 62bd 5697 85bd
00000320: 3c0c 073e 81d7 a6bc 68b5 16be 7058 a9bc
00000330: 273a 4d3d 1d0a ddbd 5f29 81bd 7f5b 113e
00000340: 6b2b 8cbd d0ff 0f3e 40fa 6bbd 7181 043c
00000350: 1e42 b6bb 6e5e 9e3d c5b7 0cbe 20ba 99bd
00000360: 786c 1a3d d753 d2bd 7081 173c dc80 f53d
00000370: 03b5 063d f70b 36bd a6d9 003e 1c05 1d3e
00000380: eb18 973d 33c6 92bd b272 e23c 582a d13d
00000390: 9a0b ccbd bc97 0d3e 1cba b2bc a181 11be
000003a0: 40b3 cbbd 19c5 223d aa8d 033e 3d15 d93d
000003b0: 7ae8 05bd bdea d6bd 3354 85bc a851 1dbe
000003c0: 605e 1cbe b10d aa3d f293 dbbc 59a0 d43d
000003d0: 3f5e ed3d 91d7 d73c f864 02be 5e78 53bd
000003e0: efdd d6bd 3046 a53d 4571 cabd 1ca0 28bd
000003f0: 1636 d3bd edeb ffbc eab5 f7bc 23b3 55ba

net.1.weight f4 [256]
0.95751435 1.01276 1.0321567 0.9896668 0.97664154 0.97388065 1.0535109 0.9321223
0.95685697 1.0234044 1.0189964 1.0313963 1.0076934 0.9749922 0.9668849 0.9655945
1.0437 1.0699724 0.9678204 1.0328808 0.9544641 1.0097264 0.98551375 1.0089719
0.9416335 0.98178184 1.0165721 1.0069755 0.9935429 1.0054083 0.979088 0.9587785
0.99850446 1.0438131 0.9806771 1.0052406 0.9412067 0.97840506 0.9455408 0.9467152
1.0063342 0.9634086 1.0410967 1.0063132 0.9925112 1.0052836 0.99961376 1.0126997
0.96947134 1.003674 0.9915841 1.0465844 0.9757856 1.0020593 1.0234784 1.0590837
0.9890422 1.0301701 1.0124805 1.0033513 1.0072432 1.0179217 0.917602 0.95854825
0.9442065 0.9835073 0.9457921 0.9873157 1.0061806 0.96921796 0.9852331 1.0120671
0.9994622 0.9693191 0.9629261 1.0036904 1.0311642 0.9801395 1.0088938 1.033505
0.9429948 0.9799511 1.0286317 0.99607295 0.9363077 0.95332575 0.9882911 1.0359067
1.0023526 0.9653054 1.0191312 0.9918795 0.9898913 1.0299857 0.9926352 1.0427929
0.9770911 0.9987829 0.9949501 0.9990453 1.0005037 1.0341843 1.0323517 1.0040915
1.0085732 0.94659555 0.9793815 0.9981481 1.0174747 0.9789793 1.0266222 1.0273712
0.9931427 0.97331333 1.0660591 0.9523288 0.98545253 1.042445 1.0188005 1.0109713
0.95682704 1.0139074 0.9905106 0.9710638 1.0150913 0.96435505 1.0576152 0.989067
1.0212713 1.0079442 1.0296001 1.0241472 1.0092214 0.9577096 1.0196053 0.97834575
1.0547057 1.0124354 0.9738986 1.0011574 1.0046151 1.0591308 0.9909391 0.9712347
1.0064113 1.0416831 1.0359379 0.993779 0.99464536 1.0277774 0.9915046 0.9557876
0.98585427 1.062129 0.91732836 0.9846578 1.0115806 1.0133104 0.9780764 0.9807389
1.0319805 1.0088942 1.0367087 0.95766675 1.0089104 1.0377127 1.0089605 0.98260444
1.0027987 1.0115072 0.9774045 0.96390766 1.0532907 0.99221134 1.044278 1.0077472
0.99462247 0.9884362 1.0063813 1.0317992 0.9877485 1.0049276 1.0134181 0.9091212
0.93463016 0.99468595 1.0114889 0.9514893 1.0016583 1.0017605 1.0011199 0.9983873
0.9915473 1.0159597 0.9926624 0.9601647 0.9753959 1.0070103 0.9976702 0.99422646
1.0075307 0.9902518 1.0260981 0.99925995 1.015783 0.9977901 0.9777718 0.9971026
0.9843282 0.98665416 1.0683984 0.9881902 0.98033595 0.9815281 1.0051645 0.96682924
0.97950745 0.9724478 0.9874247 0.98348105 1.057038 0.982031 0.966722 1.0238159
0.98975825 0.99089354 0.9683793 0.98969746 0.93225324 0.998318 0.98608416 0.99519044
1.0178567 1.0578786 1.0160638 0.9807857 1.0212187 1.0204875 0.98559594 1.0260614
0.98962075 0.98327625 1.0118277 1.0147804 0.99021316 1.0646263 0.9758252 0.9928333
1.0090059 1.0088289 1.0142275 0.99108225 1.0241214 1.0357043 1.0459106 0.9996608
00000000: a91f 753f 1fa2 813f b61d 843f ce5a 7d3f
00000010: 2e05 7a3f 3e50 793f 72d9 863f 919f 6e3f
00000020: 94f4 743f eafe 823f 796e 823f cb04 843f
00000030: 19fc 803f 1799 793f c585 773f 3331 773f
00000040: f697 853f dbf4 883f 14c3 773f 7035 843f
00000050: c257 743f b73e 813f a14a 7c3f fe25 813f
00000060: e50e 713f 0e56 7b3f 091f 823f 93e4 803f
00000070: d458 7e3f 38b1 803f 83a5 7a3f 8272 753f
00000080: fd9d 7f3f ab9b 853f a80d 7b3f b9ab 803f
00000090: ecf2 703f c178 7a3f f60e 723f ed5b 723f
000000a0: 8fcf 803f f2a1 763f a842 853f dfce 803f
000000b0: 3715 7e3f 22ad 803f b0e6 7f3f 25a0 813f
000000c0: 462f 783f 6478 803f 75d8 7d3f 7af6 853f
000000d0: 16cd 793f 7b43 803f 5701 833f 0e90 873f
000000e0: df31 7d3f 9ddc 833f f698 813f d16d 803f
000000f0: 58ed 803f 424b 823f f7e7 6a3f 6b63 753f
00000100: 84b7 713f 22c7 7b3f 6e1f 723f b9c0 7c3f
00000110: 87ca 803f ab1e 783f 3d38 7c3f 6a8b 813f
00000120: c1dc 7f3f 4c25 783f 5382 763f ed78 803f
00000130: 30fd 833f 6cea 7a3f 6f23 813f e449 843f
00000140: 1b68 713f 13de 7a3f 34aa 833f a3fe 7e3f
00000150: ddb1 6f3f 280d 743f a500 7d3f 9798 843f
00000160: 174d 803f 411e 773f e472 823f d1eb 7d3f
00000170: 8469 7d3f 92d6 833f 571d 7e3f 3d7a 853f
00000180: a422 7a3f 3cb0 7f3f 0db5 7e3f 6fc1 7f3f
00000190: 8110 803f 2760 843f 1a24 843f 1286 803f
000001a0: ed18 813f 1654 723f bfb8 7a3f a286 7f3f
000001b0: 9c3c 823f 639e 7a3f 5b68 833f e680 833f
000001c0: 9a3e 7e3f 102b 793f a074 883f d2cb 733f
000001d0: 9e46 7c3f d66e 853f 0e68 823f 8267 813f
000001e0: 9ef2 743f b8c7 813f 1a92 7d3f a397 783f
000001f0: 83ee 813f f9df 763f ef5f 873f 7f33 7d3f
00000200: 05b9 823f 5104 813f f0c9 833f 4117 833f
00000210: 2b2e 813f 752c 753f 6d82 823f de74 7a3f
00000220: 9900 873f 7c97 813f 6b51 793f ed25 803f
00000230: 3a97 803f 9991 873f 2fae 7d3f d6a2 783f
00000240: 16d2 803f df55 853f 9d99 843f 4d68 7e3f
00000250: 14a1 7e3f 368e 833f 3fd3 7d3f 7fae 743f
00000260: f260 7c3f d8f3 873f 08d6 6a3f 8912 7c3f
00000270: 797b 813f 28b4 813f 3763 7a3f b411 7b3f
00000280: f017 843f 7223 813f dfb2 843f a629 753f
00000290: fa23 813f c5d3 843f 9e25 813f f78b 7b3f
000002a0: b55b 803f 1179 813f 2e37 7a3f a7c2 763f
000002b0: 3bd2 863f 9001 7e3f e7aa 853f dcfd 803f
000002c0: 949f 7e3f 280a 7d3f 1ad1 803f ff11 843f
000002d0: 16dd 7c3f 78a1 803f afb7 813f 2bbc 683f
000002e0: ec43 6f3f bda3 7e3f 7878 813f ce94 733f
000002f0: 5736 803f b039 803f b224 803f 4f96 7f3f
00000300: 0bd6 7d3f f80a 823f 1f1f 7e3f 5bcd 753f
00000310: 8cb3 793f b7e5 803f 5067 7f3f a085 7e3f
00000320: c4f6 803f 2481 7d3f 2f57 833f 80cf 7f3f
00000330: 2d05 823f 2c6f 7f3f 414f 7a3f 1e42 7f3f
00000340: effc 7b3f 5e95 7c3f 47c1 883f 08fa 7c3f
00000350: 4cf7 7a3f 6d45 7b3f 3ba9 803f 1f82 773f
00000360: 00c1 7a3f 57f2 783f ddc7 7c3f 6ac5 7b3f
00000370: 054d 873f 6266 7b3f 187b 773f 660c 833f
00000380: cc60 7d3f 33ab 7d3f b5e7 773f d05c 7d3f
00000390: 26a8 6e3f c591 7f3f 0370 7c3f cdc4 7e3f
000003a0: 2149 823f 9168 873f 610e 823f c614 7b3f
000003b0: 4bb7 823f 569f 823f 0450 7c3f fb55 833f
000003c0: c957 7d3f feb7 7b3f 9283 813f 53e4 813f
000003d0: 9c7e 7d3f ad45 883f aecf 793f 532a 7e3f
000003e0: 1b27 813f 4e21 813f 35d2 813f 91b7 7d3f
000003f0: 6916 833f f591 843f 66e0 853f c5e9 7f3f

net.1.bias f4 [256]
-0.033069514 -0.00061383593 -0.019822298 0.020112237 -0.041480325 -0.005168078 0.004213233 -0.061653364
-0.094480075 -0.050126996 -0.051525738 -0.05389724 -0.02507946 -0.038142294 -0.031279046 -0.025507852
-0.03606458 0.010125728 -0.028091524 -0.05582081 -0.010349726 -0.013886467 -0.041763734 0.02520828
-0.053721074 -0.06816459 -0.060088217 -0.010970275 -0.031788673 -0.043647274 -0.06369717 -0.05990397
-0.0084980475 -0.005606082 -0.02950414 -0.057160627 -0.054901265 -0.014240991 -0.026595166 -0.04645135
-0.07059859 -0.00064905104 -0.015663764 0.024987955 0.0844305 -0.043915156 -0.025622644 0.026941761
-0.0017852754 -0.03959264 -0.048378102 -0.039600484 -0.051283848 -0.04027838 -0.018183315 -0.06939587
0.006887233 -0.08440426 -0.070022166 -0.07057477 -0.02427457 -0.048381057 -0.12038961 -0.030680913
-0.004954482 -0.039703593 -0.038069516 -0.006040627 -0.02166041 -0.026605267 -0.017685674 -0.041731875
-0.0021582325 -8.860381e-05 -0.009163907 -0.012377938 -0.02387347 -0.069168255 -0.023876175 -0.027111217
-0.117761634 -0.017769463 -0.03906154 -0.020800572 -0.037706036 -0.04447119 -0.043955255 -0.062732846
-0.016430778 -0.05293948 -0.015114468 -0.015068809 -0.018078763 -0.025801914 -0.038648512 -0.018840067
-0.07976523 -0.044798054 -0.018988889 -0.089007206 -0.055773262 -0.049273178 -0.058801524 -0.015572754
-0.07017043 -0.06748488 -0.013095116 -0.030172545 -0.041240014 -0.057195406 -0.038840335 -0.05603054
-0.007274897 -0.073476374 -0.063274264 -0.00092331506 -0.0647216 -0.0601293 -0.025762193 -0.06490204
0.005077423 0.0041727843 -0.03614277 -0.03374409 -0.052646067 -0.05489625 -0.049810287 -0.0650104
-0.10528037 -0.06724755 -0.020496009 -0.014218951 -0.055543173 -0.04078348 -0.016840264 -0.02607346
-0.012282126 -0.09306619 -0.056966692 -0.037347693 -0.006297173 0.022757277 -0.100185886 -0.08149818
-0.07862633 -0.034782775 0.026344484 0.003355419 0.0052783475 -0.0024583598 -0.05083692 -0.069683306
-0.05308293 -0.07466562 -0.047808662 -0.069452465 0.036196608 -0.102528274 -0.006545318 -0.04089861
-0.031459305 -0.01941613 -0.063020945 -0.00986262 -0.001356226 -0.056426056 -0.032938577 0.009172798
-0.05631483 -0.004366495 -0.05475475 -0.08152617 -0.051705483 -0.05951392 -0.004917658 -0.03863361
-0.033682678 -0.034112107 -0.039308894 0.034194592 -0.009100593 -0.03300319 -0.022464102 -0.085271254
-0.045705322 -0.07256262 -0.043292645 -0.078494795 -0.035936028 -0.041459568 -0.033528917 -0.029403891
-0.025819493 0.019602893 -0.16532384 -0.072947055 -0.05499595 -0.025424931 -0.094271585 -0.020850329
-0.083117805 -0.06401038 -0.08479531 -0.035071142 -0.02048486 0.0073028603 -0.010040643 -9.557771e-06
-0.03938311 -0.077704534 -0.02318937 -0.053026162 -0.060415525 -0.011138999 -0.059151366 -0.05804591
-0.05063321 -0.06279129 -0.050267972 -0.07508926 -0.030833758 -0.046852987 -0.043475375 -0.06499422
-0.057423145 -0.036727507 -0.07099287 -0.07288672 -0.09401154 -0.09020816 -0.0307083 -0.049743827
0.0018443192 0.0064732754 -0.016047953 -0.034641333 -0.08413128 -0.06720176 -0.056993008 -0.02052578
-0.037693534 -0.0110857515 -0.021128662 -0.071712114 -0.06864215 0.051537585 -0.0391388 -0.036892515
-0.055156562 -0.008773844 0.0067868955 -0.053836387 -0.04941686 0.019585751 -0.035168204 -0.051114414
00000000: e673 07bd d5e9 20ba 5f62 a2bc 6bc2 a43c
00000010: 46e7 29bd fb58 a9bb 290f 8a3b 3d88 7cbd
00000020: c57e c1bd f751 4dbd a70c 53bd 5ac3 5cbd
00000030: 7173 cdbc 183b 1cbd 751e 00bd d8f5 d0bc
00000040: 74b8 13bd 62e6 253c 3220 e6bc 5da4 64bd
00000050: e691 29bc 1084 63bc 7310 2bbd 9881 ce3c
00000060: a10a 5cbd e099 8bbd 101f 76bd abbc 33bc
00000070: d734 02bd 7cc7 32bd a973 82bd de5d 75bd
00000080: 653b 0bbc 39b3 b7bb abb2 f1bc 4321 6abd
00000090: 26e0 60bd 0c53 69bc 1bde d9bc c543 3ebd
000000a0: fe95 90bd 1425 2aba 4b51 80bc 8ab3 cc3c
000000b0: e6e9 ac3d 61e0 33bd 94e6 d1bc f8b4 dc3c
000000c0: e7ff e9ba e42b 22bd 1e28 46bd 1e34 22bd
000000d0: 030f 52bd f1fa 24bd 2df5 94bc 6c1f 8ebd
000000e0: 4cae e13b 24dc acbd c867 8fbd 8189 90bd
000000f0: 77db c6bc 372b 46bd d48e f6bd 8a56 fbbc
00000100: 3559 a2bb 3ca0 22bd c8ee 1bbd 74f0 c5bb
00000110: 2c71 b1bc 4af3 d9bc 8ce1 90bc 0bef 2abd
00000120: 2271 0dbb cfd0 b9b8 3624 16bc d6cc 4abc
00000130: 4c92 c3bc 16a8 8dbd f897 c3bc 5818 debc
00000140: 032d f1bd 4491 91bc fefe 1fbd f665 aabc
00000150: a571 1abd 6c27 36bd 6d0a 34bd 147a 80bd
00000160: d799 86bc 11d7 58bd aca2 77bc 2ae3 76bc
00000170: ea19 94bc 895e d3bc e74d 1ebd 7c56 9abc
00000180: f45b a3bd 2a7e 37bd 968e 9bbc 6949 b6bd
00000190: 8172 64bd acd2 49bd ded9 70bd dd24 7fbc
000001a0: 84b5 8fbd 8335 8abd e68c 56bc 6a2c f7bc
000001b0: 4aeb 28bd bb45 6abd 0b17 1fbd 4880 65bd
000001c0: 4262 eebb c87a 96bd f095 81bd a00a 72ba
000001d0: c28c 84bd 244a 76bd 3c0b d3bc 5ceb 84bd
000001e0: 8360 a63b dabb 883b 710a 14bd 3e37 0abd
000001f0: 67a3 57bd e4da 60bd df05 4cbd 2c24 85bd
00000200: 3c9d d7bd 15b9 89bd 3fe7 a7bc 9af6 68bc
00000210: 3d81 63bd 940c 27bd 98f4 89bc 0298 d5bc
00000220: f83a 49bc 7d99 bebd e855 69bd e5f9 18bd
00000230: 8458 cebb 786d ba3c 422e cdbd 85e8 a6bd
00000240: d706 a1bd 6278 0ebd 63d0 d73c 97e6 5b3b
00000250: fdf5 ac3b 6f1c 21bb 603a 50bd 1fb6 8ebd
00000260: 7d6d 59bd 4aea 98bd 04d3 43bd 183d 8ebd
00000270: e542 143d 58fa d1bd 1b7a d6bb 4d85 27bd
00000280: 79db 00bd 930e 9fbc 2011 81bd d496 21bc
00000290: 65c3 b1ba 021f 67bd 9aea 06bd 8149 163c
000002a0: 61aa 66bd d114 8fbb 8446 60bd 31f7 a6bd
000002b0: 21c9 53bd dec4 73bd 4e24 a1bb 473e 1ebd
000002c0: d9f6 09bd 23b9 0bbd 5d02 21bd a10f 0c3d
000002d0: a71a 15bc 5a2e 07bd a306 b8bc b2a2 aebd
000002e0: 8135 3bbd b69b 94bd a153 31bd e1c1 a0bd
000002f0: a831 13bd 82d1 29bd 9e55 09bd 6ee0 f0bc
00000300: 6783 d3bc 3f96 a03c a74a 29be 4465 95bd
00000310: 6f43 61bd f247 d0bc 7611 c1bd 4fce aabc
00000320: ab39 aabd e017 83bd 2aa9 adbd c2a6 0fbd
00000330: ddcf a7bc d54c ef3b 8281 24bc 505a 20b7
00000340: 2f50 21bd 8e23 9fbd a2f7 bdbc f631 59bd
00000350: 4576 77bd 5980 36bc b448 72bd 8cc1 6dbd
00000360: c564 4fbd b898 80bd cae5 4dbd 66c8 99bd
00000370: 1497 fcbc ebe8 3fbd 3c13 32bd b11b 85bd
00000380: 8834 6bbd 956f 16bd b664 91bd a245 95bd
00000390: 1f89 c0bd 0ebf b8bd f98f fbbc 2fc0 4bbd
000003a0: 15bd f13a c51d d43b ff76 83bc 12e4 0dbd
000003b0: 054d acbd 14a1 89bd 8071 69bd ae25 a8bc
000003c0: 8964 1abd 03a1 35bc 0416 adbc cddd 92bd
000003d0: 4194 8cbd 1319 533d 0250 20bd 9b1c 17bd
000003e0: d9eb 61bd 2bc0 0fbc 9b64 de3b 8b83 5cbd
000003f0: 5569 4abd 4c72 a03c 890c 10bd 595d 51bd

net.1.running_mean f4 [256]
0.0056011146 -0.14823103 -0.07365276 -0.1036307 0.09194853 0.054331496 0.13503647 0.061376136
0.14361998 -0.045152407 -0.013829576 -0.09290359 0.14120992 -0.089382954 0.053301092 -0.100384906
0.025904905 0.12570983 0.11106926 -0.14622276 -0.040439337 -0.046773948 -0.08993311 -0.087311
-0.024477154 -0.09617327 0.16100565 0.090842225 -0.0912614 -0.15027574 0.07011051 0.098773
0.032784384 -0.1036089 -0.020492129 -0.14877643 0.07679024 0.079189196 0.11333254 -0.1414422
0.15189494 -0.15764005 -0.09545508 0.042835664 0.077531286 0.09763747 0.02046451 0.064109676
-0.013560944 -0.1520095 0.056089826 -0.07203369 0.13036078 -0.013932782 0.0087684775 -0.12137822
-0.101608604 -0.14636934 -0.13923855 0.1433511 -0.14256538 0.124388225 -0.02093251 0.00045451178
-0.061760515 0.0033130327 0.037669145 0.039146613 -0.043549586 0.03074628 -0.008656221 -0.12928036
0.078567244 0.06656558 -0.03902871 -0.04748653 -0.044916242 0.16311763 0.058023866 0.0068532433
0.13490008 0.02883516 0.07952517 0.012210218 0.116703324 0.07316828 -0.12547262 0.05223973
0.0894466 0.101638615 -0.12120647 0.044766873 0.08316461 0.06847996 0.019425778 0.06916443
-0.10436053 0.055582847 -0.023585502 0.15766318 0.104734816 -0.04900982 -0.13078621 0.06882837
-0.027304 0.06625912 -0.13606523 0.098790504 -0.0052995547 0.046251398 0.0964541 -0.04754251
-0.046953063 -0.1465807 0.15328474 -0.0872292 -0.12319834 -0.11601619 0.08097685 0.13910772
-0.0016889394 0.091560714 0.096071236 0.13555402 -0.1590985 -0.020328382 -0.14174739 -0.08567956
0.0013511607 0.14431544 0.0004597924 -0.1487521 0.13385871 0.10784862 0.1369716 0.100055434
-0.12654604 0.0016404409 -0.011461349 0.103355855 0.14680795 0.14902246 -0.05806455 0.07057599
-0.055524305 0.15076351 -0.10224338 0.059281714 -0.1410069 -0.06922902 -0.07171362 0.1412431
-0.06953469 -0.09539418 0.0078062965 -0.0022245971 -0.097485565 0.072383866 -0.07101837 0.08829787
-0.082145475 -0.04766634 0.094860725 -0.15755096 -0.10934315 -0.10913543 0.13249066 0.039075583
-0.08213989 0.04187801 0.096886545 0.14158683 -0.09038089 -0.020935254 -0.15243386 0.05992043
-0.021584747 0.119013794 -0.10435574 0.096478604 0.081936814 -0.15592775 -0.12213311 -0.036770713
-0.01897754 0.040683035 0.09474193 -0.07472554 -0.1557769 0.10077003 0.040375415 0.053272124
0.0077917585 0.14081497 -0.12837902 -0.103015624 -0.08415581 -0.1452465 -0.048868783 -0.06588295
0.13345109 -0.017129363 -0.14474826 -0.0137651665 0.052813396 -0.1096954 -0.067540735 0.13612837
-0.051538207 0.13906373 -0.054707684 0.0070436434 -0.0058346484 0.0740858 -0.13932209 -0.08332685
0.03754644 -0.113278516 0.01476045 0.110278144 0.03731359 -0.050872814 0.13397054 0.15732932
0.07277091 -0.07245446 0.020349395 0.10867961 -0.10760807 0.1388026 -0.023298904 -0.12763603
-0.10159341 0.042120513 0.121765144 0.107226595 -0.02526587 -0.094772704 -0.009883046 -0.15426685
-0.15070194 0.08490206 -0.027864743 0.110472135 0.12321751 0.02565584 -0.13202778 -0.048513863
-0.09851338 0.076130085 -0.09790873 -0.033132713 -0.08926028 -0.04155864 -0.02909544 -0.004791975
00000000: 8e89 b73b e0c9 17be 42d7 96bd 553c d4bd
00000010: 834f bc3d b48a 5e3d 0047 0a3e 8b65 7b3d
00000020: 1e11 133e bbf1 38bd 7295 62bc 3d44 bebd
00000030: 5599 103e 690e b7bd 3f52 5a3d 9a96 cdbd
00000040: 8636 d43c 14ba 003e 4878 e33d 6bbb 15be
00000050: b8a3 25bd 0a96 3fbd da2e b8bd 1cd0 b2bd
00000060: 5084 c8bc 7ef6 c4bd aade 243e 7d0b ba3d
00000070: 42e7 babd e2e1 19be 1996 8f3d 8049 ca3d
00000080: eb48 063d e730 d4bd 1cdf a7bc d958 18be
00000090: 3444 9d3d f22d a23d e41a e83d 39d6 10be
000000a0: 598a 1b3e 656c 21be f47d c3bd 7374 2f3d
000000b0: b9c8 9e3d 27f6 c73d 30a5 a73c ef4b 833d
000000c0: b92e 5ebc 61a8 1bbe 72be 653d 6686 93bd
000000d0: 4c7d 053e 5346 64bc a9a9 0f3c 2595 f8bd
000000e0: 2c18 d0bd d8e1 15be 8d94 0ebe a1ca 123e
000000f0: a9fc 11be 41bf fe3d a87a abbc 8a4b ee39
00000100: 98f8 7cbd 771f 593b f64a 1a3d 3358 203d
00000110: 0d61 32bd 9fdf fb3c d3d2 0dbc 1262 04be
00000120: dde7 a03d 8953 883d 92dc 1fbd 3c81 42bd
00000130: 18fa 37bd 4f08 273e 6faa 6d3d 2c91 e03b
00000140: 3f23 0a3e b737 ec3c 18de a23d 5e0d 483c
00000150: 2702 ef3d 40d9 953d e57b 00be 54f9 553d
00000160: c72f b73d e827 d03d 193b f8bd 785d 373d
00000170: 3552 aa3d 393f 8c3d cf22 9f3c 15a6 8d3d
00000180: f9ba d5bd d7aa 633d 6236 c1bc 7572 213e
00000190: 357f d63d 85be 48bd d2ec 05be e3f5 8c3d
000001a0: a3ac dfbc ddb2 873d af54 0bbe ad52 ca3d
000001b0: e3a7 adbb 1b72 3d3d ba89 c53d efbb 42bd
000001c0: db51 40bd 4019 16be adf6 1c3e 39a5 b2bd
000001d0: 694f fcbd e599 edbd 31d7 a53d 4172 0e3e
000001e0: 675f ddba 2f84 bb3d ffc0 c43d acce 0a3e
000001f0: b8ea 22be b587 a6bc 3a26 11be c478 afbd
00000200: 6e19 b13a 6dc7 133e 4b10 f139 7852 18be
00000210: 4212 093e bddf dc3d 4842 0c3e dde9 cc3d
00000220: 4995 01be 1004 d73a 62c8 3bbc 3cac d33d
00000230: d354 163e 5899 183e 18d5 6dbd 258a 903d
00000240: 746d 63bd c061 1a3e fa64 d1bd 62d1 723d
00000250: 1d64 10be f2c7 8dbd 97de 92bd 08a2 103e
00000260: 3468 8ebd 065e c3bd f6cb ff3b 8cca 11bb
00000270: 83a6 c7bd fe3d 943d 1472 91bd 83d5 b43d
00000280: e33b a8bd c83d 43bd 5746 c23d 0a55 21be
00000290: 4def dfbd 6582 dfbd a2ab 073e b80d 203d
000002a0: f538 a8bd 4788 2b3d 746c c63d 23fc 103e
000002b0: 9e19 b9bd 6980 abbc 9f17 1cbe 206f 753d
000002c0: 7fd2 b0bc 81bd f33d 76b8 d5bd 9396 c53d
000002d0: 7dce a73d 86ab 1fbe ed20 fabd e39c 16bd
000002e0: c976 9bbc 41a3 263d 0f08 c23d b409 99bd
000002f0: fb83 1fbe 8460 ce3d b160 253d df33 5a3d
00000300: 0252 ff3b cd31 103e ca75 03be dbf9 d2bd
00000310: e259 acbd 80bb 14be a22a 48bd a4ed 86bd
00000320: 67a7 083e e152 8cbc e338 14be 4b87 61bc
00000330: dc52 583d fba7 e0bd cc52 8abd 3c65 0b3e
00000340: ba19 53bd b966 0e3e 2a15 60bd 5dce e63b
00000350: 9430 bfbb 4cba 973d 73aa 0ebe 44a7 aabd
00000360: 4cca 193d 91fe e7bd d1d5 713c 82d9 e13d
00000370: 23d6 183d 0360 50bd 932f 093e f01a 213e
00000380: ea08 953d 0163 94bd c6b3 a63c 6a93 de3d
00000390: 9f61 dcbd 4522 0e3e 58dd bebc 05b3 02be
000003a0: 3510 d0bd 8f86 2c3d 0160 f93d 9e99 db3d
000003b0: 5ffa cebc 3118 c2bd 80ec 21bc 21f8 1dbe
000003c0: 9c51 1abe 22e1 ad3d 9a44 e4bc 373f e23d
000003d0: 7659 fc3d 322c d23c 4a32 07be 79b6 46bd
000003e0: 62c1 c9bd 17ea 9b3d 5f84 c8bd 2bb6 07bd
000003f0: 18ce b6bd 6439 2abd 8f59 eebc 0006 9dbb

net.1.running_var f4 [256]
0.32183245 0.32964554 0.50877506 0.3793733 0.31972018 0.3577474 0.28658152 0.45996186
0.34422097 0.28916997 0.24513969 0.17153843 0.41777328 0.47384992 0.4058243 0.3112272
0.2026991 0.27605116 0.2748071 0.50964475 0.56405926 0.22479469 1.2882907 0.22108774
0.6455931 0.24058999 0.6728734 0.2516675 0.44292176 0.67486775 0.69799143 0.58588344
0.23349796 0.21245208 0.59717596 0.42724505 0.49580774 0.9708354 1.0237992 0.47808665
0.2905985 0.43181178 0.1875241 0.29341337 0.3567672 0.32039052 0.3626148 0.21549848
0.21281941 0.389132 0.23618037 0.25015646 0.5790056 0.15586059 0.5154634 0.14601003
0.3869549 0.17504056 0.24359159 0.3031527 0.45550844 0.30211905 0.45387098 0.5564948
0.3234752 0.2855163 0.30483538 0.24543768 0.38789544 0.37726998 0.1973913 0.70529276
0.41631496 0.42865276 0.5934484 0.19466937 0.26275942 0.7516777 0.32719135 0.26108834
0.3881708 0.36738223 0.30531204 0.26858625 1.1027107 0.68755746 0.38242456 0.19725895
0.27127323 0.3118584 0.43358937 0.2366124 0.35439825 0.27243176 0.2859806 0.23318768
0.75428647 0.5584515 0.2159601 0.3412191 0.3336987 0.40606958 0.42088413 0.25883812
0.37816355 0.40801135 0.36732438 0.25700352 0.15323928 0.4225237 0.50377786 0.38858327
0.47335854 0.39611268 0.20651329 0.350334 0.28547302 0.10723938 0.3366393 0.41143796
0.42033994 0.2897323 0.37156737 0.3350613 0.5209306 0.57846206 0.5296219 0.6161941
0.17730875 0.2307229 0.28580678 0.2563708 0.44633773 0.22969374 0.20205791 0.428853
0.13278796 0.42211622 1.1901984 0.3610987 0.23385587 0.3208519 0.38949487 0.2694654
0.19346088 0.2815411 0.40565485 0.15719166 0.49853545 0.36296377 0.34847865 0.36399144
0.4572949 0.31386632 0.40061173 0.33009878 0.46612203 0.44256452 0.16035292 0.5641603
0.40900996 0.24175029 0.14597279 0.23593572 0.42386135 0.18093571 0.29392523 0.9473315
0.25947437 0.3001642 0.20604163 0.7349888 0.4621821 0.6271322 0.15887143 0.40363345
0.44948107 0.50318396 0.43071687 0.21740404 0.416537 0.21094513 0.35910982 0.28877077
0.3025205 0.27369925 0.41939154 0.6761979 0.24617462 0.38068518 0.20437095 0.8398987
0.39507142 0.19416007 0.31275487 0.52468365 0.57238716 0.26109806 0.28595966 0.45751143
0.20897178 0.38354635 0.3922268 0.522308 0.5487849 0.7895934 0.22343433 0.4539807
0.99732673 0.19289489 0.49316964 0.36839005 0.31984183 0.5378286 0.19640948 0.48341188
0.3073258 0.45592448 0.20590836 0.56868047 0.59223646 0.38954902 0.2419502 0.36608794
0.35883826 0.108564414 0.53446054 0.38333696 0.5366949 0.26582795 0.24079429 0.9278616
0.18215434 0.23425832 0.3579108 0.3571675 0.33674866 0.29558143 0.6854948 0.22976305
0.23243275 0.4885791 0.23830675 0.17358957 0.26004642 0.17578264 0.33446315 0.28060487
0.2828623 0.20609312 0.23354529 1.1389978 0.6395127 0.3247345 0.18430835 0.5098779
00000000: 39c7 a43e 4dc7 a83e 153f 023f 383d c23e
00000010: 5db2 a33e ab2a b73e d0ba 923e 1f80 eb3e
00000020: bb3d b03e 160e 943e e605 7b3e c5a7 2f3e
00000030: 61e6 d53e 759c f23e 34c8 cf3e 2c59 9f3e
00000040: 5a90 4f3e 9456 8d3e 84b3 8c3e 1478 023f
00000050: 3066 103f 9430 663e b6e6 a43f d364 623e
00000060: 9745 253f 395d 763e 6e41 2c3f 90da 803e
00000070: a4c6 e23e 22c4 2c3f 91af 323f 75fc 153f
00000080: 171a 6f3e 0a8d 593e 86e0 183f ddbf da3e
00000090: 83da fd3e ab88 783f da0b 833f c6c7 f43e
000000a0: 54c9 943e 6f16 dd3e 5106 403e 473a 963e
000000b0: 31aa b63e 3a0a a43e a6a8 b93e a2ab 5c3e
000000c0: 55ed 593e 4f3c c73e 44d9 713e 8214 803e
000000d0: b639 143f eb99 1f3e 69f5 033f a783 153e
000000e0: f41e c63e d53d 333e 1370 793e d536 9b3e
000000f0: 6738 e93e 59af 9a3e c761 e83e 7176 0e3f
00000100: 8b9e a53e 312f 923e 6213 9c3e 0454 7b3e
00000110: 3b9a c63e 8829 c13e f220 4a3e 118e 343f
00000120: 3c27 d53e 6078 db3e 3cec 173f 6857 473e
00000130: 6788 863e f36d 403f a085 a73e 5fad 853e
00000140: 53be c63e 8619 bc3e dc51 9c3e 2384 893e
00000150: a025 8d3f c403 303f 27cd c33e 40fe 493e
00000160: 53e4 8a3e e7ab 9f3e 6dff dd3e 854a 723e
00000170: b073 b53e 2d7c 8b3e 0d6c 923e c0c8 6e3e
00000180: eb18 413f adf6 0e3f a524 5d3e 45b4 ae3e
00000190: 8eda aa3e 5ae8 cf3e 207e d73e 6e86 843e
000001a0: a79e c13e dde6 d03e f111 bc3e f795 833e
000001b0: c2ea 1c3e 0755 d83e 96f7 003f 63f4 c63e
000001c0: 0d5c f23e 48cf ca3e 3878 533e fa5e b33e
000001d0: 8529 923e 52a0 db3d fd5b ac3e ffa7 d23e
000001e0: cc36 d73e cb57 943e 143e be3e 288d ab3e
000001f0: b55b 053f 1716 143f 4d95 073f e6be 1d3f
00000200: 6d90 353e a042 6c3e 4455 923e 0943 833e
00000210: 6186 e43e d634 6b3e 45e8 4e3e 9f92 db3e
00000220: 91f9 073e 9e1f d83e 6c58 983f eee1 b83e
00000230: ea77 6f3e b346 a43e df6b c73e 5ef7 893e
00000240: 9c1a 463e 2826 903e feb1 cf3e daf6 203e
00000250: 0a40 ff3e 63d6 b93e cb6b b23e 165d ba3e
00000260: 8f22 ea3e 16b3 a03e fb1c cd3e b502 a93e
00000270: 8ca7 ee3e d197 e23e 8e33 243e cf6c 103f
00000280: c169 d13e 638d 773e e479 153e 2299 713e
00000290: 5b04 d93e 3647 393e 5e7d 963e 5184 723f
000002a0: d3d9 843e 1faf 993e 94fc 523e 3a28 3c3f
000002b0: 22a3 ec3e bc8b 203f 31af 223e 0ba9 ce3e
000002c0: 6222 e63e aad0 003f ec86 dc3e 2a9f 5e3e
000002d0: 5644 d53e 0002 583e 3edd b73e c3d9 933e
000002e0: f8e3 9a3e 4f22 8c3e 7dba d63e 4e1b 2d3f
000002f0: 3315 7c3e 2be9 c23e 9e46 513e 9a03 573f
00000300: cd46 ca3e e6d1 463e 6821 a03e ab51 063f
00000310: f787 123f a5ae 853e 4e69 923e f03e ea3e
00000320: b3fc 553e 3060 c43e f3d1 c83e fab5 053f
00000330: 2b7d 0c3f cb22 4a3f f8cb 643e 2970 e83e
00000340: ce50 7f3f 3d86 453e bb80 fc3e 9f9d bc3e
00000350: 4fc2 a33e 23af 093f 911f 493e c381 f73e
00000360: cf59 9d3e ef6e e93e a4d9 523e 0b95 113f
00000370: cf9c 173f f872 c73e cbc1 773e e16f bb3e
00000380: a6b9 b73e 0557 de3d 68d2 083f be44 c43e
00000390: d664 093f 9a1a 883e c792 763e 5688 6d3f
000003a0: ab86 3a3e 6ae1 6f3e 1640 b73e a9de b63e
000003b0: 526a ac3e 7356 973e 967c 2f3f 0147 6b3e
000003c0: da02 6e3e 0a27 fa3e af06 743e 77c1 313e
000003d0: ce24 853e 5d00 343e c13e ab3e 71ab 8f3e
000003e0: 54d3 903e 130a 533e 7f26 6f3e aeca 913f
000003f0: 1bb7 233f 9a43 a63e 54bb 3c3e 5c87 023f

net.4.weight f4 [128, 256]
0.059190676 -0.01477505 -0.09261396 -0.056419987 -0.05152151 -0.055529833 -0.07930305 -0.023655914
-0.03531473 -0.0752201 -0.0714714 -0.048765972 -0.03639635 0.027320892 0.029717226 0.013013239
-0.002746519 0.021194318 -0.040481918 -0.008657739 -0.05908361 0.042409908 -0.07166315 0.0011150732
0.0350971 0.044907495 0.059780285 0.064664096 -0.03428188 -0.04935093 -0.029604662 -0.026453897
0.013765302 -0.09047958 0.030988777 0.009611551 -0.044976376 0.014881953 -0.06505356 0.015690293
0.018117724 0.0006539737 -0.12404345 -0.08667626 0.055439703 -0.0025929797 -0.073962644 -0.054044306
-0.032475807 -0.020699106 0.028127259 0.0062553417 0.011502828 -0.078795046 -0.09081403 -0.07070508
0.04757969 0.0019724749 -0.006620502 0.049217246 -0.018269429 0.0019186075 0.026332783 -0.039955053
0.039186902 0.004201527 0.005279277 0.009034512 -0.038292173 -0.08880996 -0.07462147 -0.049074374
0.05866765 0.015242179 0.04003705 -0.0105804 0.020443082 0.062641054 -0.041833315 -0.018233676
-0.056602966 0.025953136 0.011167046 -0.08041593 0.0035460321 -0.03361831 -0.056822695 -0.04752959
-0.052093964 0.0105129825 -0.0046621813 0.010834139 0.00089024706 0.009387863 0.03616605 0.013957877
-0.036720954 0.026222462 0.045600288 0.011799096 -0.083989464 -0.053673528 0.019794269 -0.029245697
-0.043840393 -0.022130331 -0.055490755 0.033136487 0.0074317516 -0.08741524 -0.026574276 0.034250785
0.024228184 0.012149604 -0.039845508 -0.0031870524 -0.05118869 -0.02187553 0.027713712 -0.020784244
0.008691095 -0.0735658 -0.05598314 0.0049480195 0.009010975 0.06346349 -0.01827671 0.071020275
-0.005006129 0.038390245 0.03474552 -0.09483653 -0.030738914 -0.008492777 0.046006255 -0.017047217
-0.013912977 -0.045784518 -0.08389006 0.06527949 0.09453979 -0.056455716 -0.016447438 0.035216995
0.019583266 -0.057072412 -0.016475817 -0.035307497 0.011844039 0.049205713 0.018356627 0.016142549
-0.07515054 0.026576862 -0.079964854 0.039355062 -0.003465454 -0.05513 0.0764555 -0.038654957
0.038199756 0.018145494 0.019727958 0.048841786 -0.05256912 -0.039010804 0.014312629 0.021869516
0.03542996 0.050029304 -0.08336212 0.05655619 -0.03693982 -0.020634444 0.11308543 -0.042273875
-0.0035864506 0.06515322 0.06177897 -0.037873425 0.060054265 0.06945119 -0.022909857 -0.033330407
-0.066897765 -0.08766528 -0.039164044 -0.08233588 0.01034445 -0.055927895 0.017674072 -0.06962118
-0.06003074 0.029445019 -0.05682706 -0.040385645 -0.09332223 -0.08210158 0.027708754 0.04301984
-0.018951437 -0.054176237 -0.021618126 0.013223519 -0.06768934 -0.050473943 -0.027916092 0.017796418
-0.02581881 -0.014036056 -0.017611584 -0.012421434 -0.0023816496 -0.01976515 0.0073911217 0.0227954
-0.0005893154 0.01586477 -0.05678797 0.04434022 0.034817804 -0.04258568 0.08080472 -0.02565473
-0.026296401 -0.03185619 -0.08247848 -0.014974016 -0.009966725 -0.046050254 0.042882003 -0.024708608
-0.06257365 -0.06883875 0.05641576 -0.011558827 -0.009231284 0.07011131 -0.0052348888 -0.016314086
0.05803596 0.05743647 -0.009076977 0.013960894 -0.019296816 0.042242598 -0.0070267683 -0.06305454
-0.078147486 -0.06491166 -0.040570285 0.044711996 0.014726597 0.042524632 0.006251937 -0.10004885
00000000: ec71 723d 0d13 72bc 63ac bdbd a518 67bd
00000010: 3808 53bd 4073 63bd a369 a2bd 0cca c1bc
00000020: 2ea6 10bd ff0c 9abd 995f 92bd d4be 47bd
00000030: 5714 15bd 10d0 df3c 8a71 f33c 7b35 553c
00000040: f1fe 33bb b59f ad3c 5ed0 25bd 30d9 0dbc
00000050: a801 72bd 03b6 2d3d 21c4 92bd a627 923a
00000060: fac1 0f3d ecf0 373d 2cdc 743d 9c6e 843d
00000070: 286b 0cbd 3324 4abd 7a85 f2bc d8b5 d8bc
00000080: dc87 613c 5c4d b9bd 2ddc fd3c c479 1d3c
00000090: 2639 38bd 6fd3 733c cd3a 85bd ee88 803c
000000a0: 9f6b 943c 6f6f 2b3a 7e0a febd 5383 b1bd
000000b0: be14 633d fbee 29bb ba79 97bd 905d 5dbd
000000c0: 5a05 05bd 2c91 a9bc 236b e63c 9cf9 cc3b
000000d0: 5c76 3c3c 4c5f a1bd b5fc b9bd d3cd 90bd
000000e0: ece2 423d a344 013b ccf0 d8bb 0698 493d
000000f0: c5a9 95bc c979 fb3a d9b7 d73c e9a7 23bd
00000100: 7282 203d f7ac 893b c9fd ac3b 7d05 143c
00000110: 41d8 1cbd ffe1 b5bd 24d3 98bd 3602 49bd
00000120: 7d4d 703d 55ba 793c e4fd 233d 6a59 2dbc
00000130: 4078 a73c f449 803d 6959 2bbd ca5e 95bc
00000140: 83d8 67bd ac9b d43c fcf5 363c 1bb1 a4bd
00000150: 8c64 683b 5ab3 09bd eabe 68bd 63ae 42bd
00000160: 7b60 55bd a53e 2c3c 36c5 98bb ac81 313c
00000170: 785f 693a 8dcf 193c da22 143d 94af 643c
00000180: b668 16bd 7dd0 d63c 5ec7 3a3d ff50 413c
00000190: ab02 acbd c6d8 5bbd 9727 a23c ac94 efbc
000001a0: fc91 33bd ab4a b5bc 464a 63bd 20ba 073d
000001b0: 0d86 f33b c306 b3bd 4cb2 d9bc 8d4a 0c3d
000001c0: 2f7a c63c 220f 473c 0b35 23bd dedd 50bb
000001d0: 3bab 51bd 5034 b3bc de07 e33c b843 aabc
000001e0: 1865 0e3c aba9 96bd 944e 65bd ff22 a23b
000001f0: c5a2 133c 25f9 813d 0ab9 95bc 1473 913d
00000200: 740a a4bb 173f 1d3d 5251 0e3d a839 c2bd
00000210: 2dd0 fbbc 4a25 0bbc 0e71 3c3d 9ba6 8bbc
00000220: 41f3 63bc 8c88 3bbd 8dce abbd 41b1 853d
00000230: 149e c13d 1c3e 67bd c7bc 86bc b23f 103d
00000240: 166d a03c c3c4 69bd 4bf8 86bc 989e 10bd
00000250: 800d 423c ee8b 493d a360 963c 613d 843c
00000260: 87e8 99bd b8b7 d93c 9dc4 a3bd c632 213d
00000270: ac1c 63bb ffcf 61bd b494 9c3d a954 1ebd
00000280: 5977 1c3d dca5 943c 879c a13c 530e 483d
00000290: b852 57bd cbc9 1fbd 847f 6a3c b327 b33c
000002a0: 011f 113d 87eb 4c3d c2b9 aabd 77a7 673d
000002b0: 354e 17bd 9109 a9bc 5599 e73d 5f27 2dbd
000002c0: a80a 6bbb 0d6f 853d f20b 7d3d 2a21 1bbd
000002d0: 76fb 753d 6d3c 8e3d 74ad bbbc 7785 08bd
000002e0: b201 89bd db89 b3bd 7a6a 20bd b79f a8bd
000002f0: c57b 293c a614 65bd 37c9 903c 8d95 8ebd
00000300: cbe2 75bd ae36 f13c 7ec3 68bd 6b6b 25bd
00000310: ba1f bfbd e024 a8bd 78fd e23c 9235 303d
00000320: 0b40 9bbc e7e7 5dbd 7f18 b1bc 75a7 583c
00000330: b5a0 8abd c4bd 4ebd 4ab0 e4bc cbc9 913c
00000340: f881 d3bc 7cf7 65bc 2b46 90bc 4583 4bbc
00000350: 7315 1cbb 86ea a1bc 3931 f23b 6bbd ba3c
00000360: 497c 1aba d6f6 813c 819a 68bd 179e 353d
00000370: 1d9d 0e3d 526e 2ebd f27c a53d de29 d2bc
00000380: 8d6b d7bc a37b 02bd 7aea a8bd 9355 75bc
00000390: 794b 23bc 319f 3cbd 0aa5 2f3d b569 cabc
000003a0: 9d26 80bd 55fb 8cbd 3614 673d 3c61 3dbc
000003b0: d03e 17bc 8596 8f3d 6e89 abbb 1ea5 85bc
000003c0: 1db7 6d3d 8142 6b3d 9ab7 14bc 3cbc 643c
000003d0: 5b14 9ebc 9306 2d3d ce40 e6bb bd22 81bd
000003e0: ca0b a0bd 68f0 84bd 072d 26bd ed23 373d
000003f0: d347 713c 4f2e 2e3d 0cdd cc3b 69e6 ccbd

net.4.bias f4 [128]
0.017217914 0.022373764 -0.021699227 0.05177314 0.054224435 0.021501077 -0.02837293 0.04733207
0.00663768 0.035479728 0.040761597 -0.046882372 0.0060645402 0.014514989 0.021590943 -0.025060382
-0.018723732 -0.055443604 -0.03546783 0.017066166 0.013136807 0.025440378 -0.024499223 0.03929329
0.04512763 0.03062187 0.053708117 0.003129856 -0.043020435 -0.0012264606 0.016344562 -0.010845642
-0.021201354 0.0012154782 -0.03791856 0.017427556 0.006217054 -0.017431993 -0.05144072 0.047050215
0.03449389 -0.037772518 -0.045519937 0.025775662 -0.05276786 -0.034460735 0.053234126 -0.020449191
-0.035194132 0.041641597 0.007052487 0.017701335 0.05842271 -0.018514276 0.05348582 -0.047146797
0.040329847 0.018816916 -0.050001167 0.028742252 -0.06178501 -0.007852264 -0.053835507 0.04414407
0.04731355 -0.00962642 -0.027807651 0.015186778 0.058331184 -0.06075859 0.061646607 -0.03184026
-0.05231203 -0.021408081 0.014483574 0.0076757753 0.007401417 -0.041791618 -0.0071224654 0.059441347
-0.0009303928 -0.032819845 0.048724934 0.03707511 -0.00568354 -0.012373565 0.013797179 0.043542325
0.019324249 0.06025443 -0.033263914 0.061894614 -0.010203549 0.010189108 0.015036648 -0.013688481
-0.018600482 0.010432942 0.026744071 -0.020979011 0.05887191 -0.014186696 0.002254998 -0.055239204
0.03841988 -0.017603585 -0.013540514 0.03767036 0.012401976 0.033407707 0.02197375 -0.0300284
0.017907124 0.024943653 0.06244223 0.0043073497 -0.03070943 0.011624667 -0.028970083 -0.056309737
-0.061839398 -0.03568833 0.055183183 -0.009529547 -0.05576795 -0.048722308 0.016065964 0.045775242
00000000: 950c 8d3c 2f49 b73c 94c2 b1bc 1210 543d
00000010: 711a 5e3d 0723 b03c 596e e8bc 46df 413d
00000020: e580 d93b 3153 113d a2f5 263d bb07 40bd
00000030: 0db9 c63b 47d0 6d3c 7ddf b03c 6e4b cdbc
00000040: 8362 99bc d518 63bd b746 11bd 58ce 8b3c
00000050: c33b 573c 5768 d03c 98b2 c8bc 00f2 203d
00000060: c0d7 383d b7da fa3c 0bfd 5b3d 451e 4d3b
00000070: 3236 30bd 30c1 a0ba 08e5 853c ebb1 31bc
00000080: 76ae adbc ae50 9f3a 7e50 1bbd 3cc4 8e3c
00000090: 6eb8 cb3b 8acd 8ebc 81b3 52bd bab7 403d
000000a0: 7749 0d3d 5bb7 1abd 1d73 3abd 7b27 d33c
000000b0: 1d23 58bd b326 0dbd 070c 5a3d 1085 a7bc
000000c0: b927 10bd 6190 2a3d 8d18 e73b 6402 913c
000000d0: a74c 6f3d 40ab 97bc f213 5b3d 001d 41bd
000000e0: e930 253d ef25 9a3c 06ce 4cbd df74 eb3c
000000f0: 4712 7dbd c8a6 00bc 9f82 5cbd 6ad0 343d
00000100: dacb 413d 22b8 1dbc dfcc e3bc f7d1 783c
00000110: aeec 6e3d 00de 78bd 2781 7c3d ef6a 02bd
00000120: 2445 56bd 0060 afbc 834c 6d3c 1285 fb3b
00000130: 9687 f23b b02d 2bbd 9263 e9bb c578 733d
00000140: 9be5 73ba 1a6e 06bd cc93 473d 12dc 173d
00000150: fd3c babb 7eba 4abc 900d 623c 7059 323d
00000160: e34d 9e3c 59cd 763d be3f 08bd 3585 7d3d
00000170: c92c 27bc 37f0 263c 465c 763c a745 60bc
00000180: 0a60 98bc eeee 2a3c 6216 db3c 2ddc abbc
00000190: ac23 713d 516f 68bc 97c8 133b 8142 62bd
000001a0: 2a5e 1d3d 6535 90bc 08d9 5dbc 3c4c 1a3d
000001b0: a831 4b3c 85d6 083d 4b02 b43c 1efe f5bc
000001c0: f6b1 923c a256 cc3c 6cc3 7f3d ab24 8d3b
000001d0: 5892 fbbc 6375 3e3c ab52 edbc 0aa5 66bd
000001e0: 4f4b 7dbd ed2d 12bd c307 623d d121 1cbc
000001f0: ef6c 64bd 0b91 47bd c59c 833c d27e 3b3d

net.5.weight f4 [128]
1.0204264 0.9513624 1.0010055 1.0538684 0.97941244 0.949591 0.9804714 0.92830163
1.0094533 1.0034487 1.0322666 1.0009456 0.9968878 1.0374315 0.95551693 0.95413005
0.98342013 0.9987736 1.0090655 1.0245798 0.9966123 1.0036049 1.0135554 1.0522122
0.9718382 1.0042742 0.9614897 1.0241089 0.99140716 0.9658276 0.99713343 0.99243134
0.97326404 1.0186467 1.0042335 0.98643875 1.0382203 0.9978412 1.013773 0.98274815
0.99192864 0.97931695 1.0216107 0.97786236 1.0064757 1.0172057 1.0141965 0.951043
0.99693733 0.9750853 1.0075622 1.0298276 0.9555211 1.0158979 1.0351143 0.98200524
1.0331342 0.97722083 0.9754137 0.9399041 0.9664478 1.004895 1.0076885 1.0467497
0.97923315 1.0690316 1.0438142 1.0050247 1.0120977 1.0616056 1.0465548 1.0124414
1.0087937 1.045983 1.0122669 0.99915034 1.0469166 1.0192599 1.0393884 1.0317767
0.9831624 1.0183222 1.0524628 0.9665877 0.97167665 0.96706796 0.9694794 0.9879342
0.9950889 1.0037233 1.011209 0.975815 0.9856316 1.016746 1.0001851 0.99269843
1.0426841 0.97995317 0.9889897 0.9864829 0.97225225 0.98784804 1.01145 0.9717884
1.0443408 0.9627059 1.0560884 0.99476606 0.96449643 1.0064403 0.96743685 1.0392569
1.0031227 1.0093313 0.9791839 0.95942223 0.9788599 0.996958 1.0050352 0.98677546
1.0035896 0.9729683 0.9829764 1.0076898 0.9828013 1.0526758 0.9794928 0.9979572
00000000: 559d 823f 7c8c 733f f320 803f 29e5 863f
00000010: c6ba 7a3f 6518 733f 2c00 7b3f 2da5 6d3f
00000020: c435 813f 0271 803f 5021 843f fc1e 803f
00000030: 0a34 7f3f 8eca 843f c29c 743f de41 743f
00000040: 6cc1 7b3f a0af 7f3f 0f29 813f 6e25 833f
00000050: fc21 7f3f 2076 803f 2fbc 813f e4ae 863f
00000060: 63ca 783f 0f8c 803f 3024 763f 0016 833f
00000070: dccc 7d3f 7a40 773f 2344 7f3f fb0f 7e3f
00000080: d527 793f 0463 823f b98a 803f 4087 7c3f
00000090: 67e4 843f 8572 7f3f 50c3 813f 6295 7b3f
000000a0: 09ef 7d3f 84b4 7a3f 24c4 823f 3055 7a3f
000000b0: 32d4 803f cc33 823f 31d1 813f 8e77 733f
000000c0: 4937 7f3f 319f 793f ccf7 803f 64d1 833f
000000d0: 089d 743f f108 823f a07e 843f b264 7b3f
000000e0: be3d 843f 252b 7a3f b6b4 793f 8e9d 703f
000000f0: 1f69 773f 66a0 803f f0fb 803f e5fb 853f
00000100: 06af 7a3f 07d6 883f b49b 853f a6a4 803f
00000110: 6b8c 813f b1e2 873f 82f5 853f ae97 813f
00000120: 2720 813f c5e2 853f f691 813f 51c8 7f3f
00000130: 5d01 863f 1c77 823f ae0a 853f 4211 843f
00000140: 88b0 7b3f 6258 823f 1ab7 863f 4b72 773f
00000150: cdbf 783f c491 773f cd2f 783f 41e9 7c3f
00000160: 25be 7e3f 017a 803f 4c6f 813f 03cf 793f
00000170: 5a52 7c3f bc24 823f 1106 803f 7c21 7e3f
00000180: ac76 853f 36de 7a3f 6e2e 7d3f 258a 7c3f
00000190: 86e5 783f 9ce3 7c3f 3277 813f 20c7 783f
000001a0: f6ac 853f e573 763f e82d 873f fda8 7e3f
000001b0: 3de9 763f 09d3 803f f1a9 773f 5f06 853f
000001c0: 5366 803f c531 813f ccab 7a3f b29c 753f
000001d0: 9096 7a3f a438 7f3f fea4 803f 519d 7c3f
000001e0: a075 803f 7314 793f 57a4 7b3f fbfb 803f
000001f0: de98 7b3f 15be 863f 0ac0 7a3f 207a 7f3f
