models/nn_model_int8.onnx (onnx, 57149 bytes, 7 tensors)

net.0.bias f4 [256]
000000 27 7b e3 3c c6 d7 20 bc 30 c7 27 bc d8 cd 40 bd
       0.027768685 -0.009817069 -0.010240361 -0.047071308
000010 6f 3d 14 bd 16 d4 3e bd fa 7d be bb f9 90 01 bd
       -0.0361914 -0.04658898 -0.0058133574 -0.031632397
000020 85 30 a4 bc 1e a6 86 3b b2 17 20 3d 7c d6 aa bc
       -0.020042667 0.004109158 0.039085098 -0.020854227
000030 2d 23 71 3c 59 1e c5 bc 64 27 dd bc 40 98 fa bc
       0.014717859 -0.024062322 -0.026996322 -0.030590177
000040 8c 52 44 3c 9b a8 4c 3d 30 41 88 3b 04 d2 ee bb
       0.011982571 0.049965482 0.0041581616 -0.0072882194
000050 ce 49 ee 3b b3 92 99 bc aa 1b a0 bd e1 0c 7b bc
       0.007271982 -0.01874671 -0.078177765 -0.015322895
000060 17 c4 55 bd 65 3e 15 bd a4 0d 4f bd cd cd 87 bd
       -0.05218896 -0.036436457 -0.050550118 -0.0663105
000070 7a 82 d6 bc 3a ea cf bc 6b 16 ad bb be 0c 1d bd
       -0.026185263 -0.025380243 -0.0052822134 -0.03834223
000080 69 f9 45 bd 76 04 e0 bc 71 3a 93 3c 02 f2 81 bd
       -0.04833356 -0.027345877 0.017972203 -0.063449875
000090 ba 1d a0 3a 16 6d 3e bd 23 0a dd bb 8b ff 8d bd
       0.001221589 -0.04649075 -0.006745593 -0.069335066
0000a0 5c 1d ac ba 2e 9e 7c bc 62 ea 48 3c 57 fc 6b 3d
       -0.0013131308 -0.015418572 0.0122629125 0.057613697
0000b0 95 67 6a bd a3 f7 fc bc 44 08 2e 3c 1f be 9e bc
       -0.05722769 -0.030879801 0.010622088 -0.019377766
0000c0 c6 a0 96 3c 8a b2 a2 bc 14 c7 c2 bc 6c 41 95 3a
       0.01838721 -0.019860525 -0.023776568 0.0011387295
0000d0 8a 89 c8 3c bd 33 0e 3d 24 fc 09 bd 75 82 c6 bd
       0.024479646 0.03471731 -0.033687726 -0.096928515
0000e0 36 24 27 bd d2 1c c6 bb 85 00 1d bc 50 1e 43 3b
       -0.040806018 -0.006045916 -0.009582643 0.0029772706
0000f0 71 0c af bc d1 d7 d0 bc e0 3a 8b bc 49 e3 30 3d
       -0.021368237 -0.025493534 -0.016995847 0.043185506
000100 db d8 af bd 9e 94 cd 3c d3 e9 56 bd 2c a3 44 3d
       -0.08586284 0.02509528 -0.052469086 0.048007175
000110 6d 0a bd bd e3 82 4e bd e7 1e ec bc 74 1a 5f bb
       -0.09230504 -0.050417792 -0.02882333 -0.0034042867
000120 4e 9c d9 bc 75 ac 37 bc 86 52 4d bd 8a 00 bd bd
       -0.02656379 -0.011210551 -0.05012753 -0.092286184
000130 40 f9 d2 bc 9f 7e a8 3c 35 97 7a bd 66 8a 35 bc
       -0.025753617 0.02056819 -0.06117936 -0.01108036
000140 c6 44 28 bd c7 68 5e bd 2b 71 5b bd 58 5c b4 bd
       -0.041081212 -0.054299142 -0.053574722 -0.08806676
000150 2d 10 8a bd 31 9f a7 bc bc 2b e2 bc 78 5f 22 3b
       -0.067413665 -0.02046165 -0.027608745 0.0024776142
000160 73 d5 00 bd 42 95 00 3c 88 80 41 bd f6 f3 b5 bd
       -0.03145356 0.007848086 -0.047241718 -0.088844225
000170 23 b7 35 bd 8a 20 da bc 32 16 df bc 10 89 0f bc
       -0.044364106 -0.026626844 -0.027232263 -0.008760706
000180 1c 44 53 bb 49 51 02 bd 3e 9c ff 3b 90 be 6a bd
       -0.0032236641 -0.0318158 0.007800608 -0.05731064
000190 89 23 54 bd 32 57 4c bc ca f4 01 bd 89 90 96 bd
       -0.0517917 -0.012471961 -0.03172759 -0.07351787
0001a0 58 9c b9 bd b0 04 f8 bb 75 be 14 bd 74 64 6f 3b
       -0.09063023 -0.007568918 -0.036314446 0.003652838
0001b0 7e 1d 46 bc 06 90 7e bd d2 5a cf bb d0 8f 0e bd
       -0.012091992 -0.06214907 -0.0063279653 -0.03480512
0001c0 48 83 72 38 4b 19 12 3d b5 b9 8b bc ce ec 97 bd
       5.781956e-05 0.035668653 -0.017056325 -0.07418214
0001d0 5b a3 d9 3c 81 97 cb bc ff b8 9a bd 13 cb 2d bd
       0.026567152 -0.024852516 -0.075548165 -0.042429995
0001e0 5c 93 64 3c 9f 51 34 bd 7d 15 f6 bc 30 9a 0a bd
       0.013951149 -0.044023152 -0.030039543 -0.03383845
0001f0 66 e7 3a bd f8 e1 af bc da 7d e0 bc d4 b3 c6 3a
       -0.045630835 -0.021470055 -0.02740376 0.0015159794
000200 41 55 2a bd ee d2 86 bd a4 5c e2 3b da 56 5d bc
       -0.04158521 -0.065832004 0.0069080163 -0.013509477
000210 0f b8 b3 bd 47 4f 04 bd 1c 22 69 bc 46 3b 07 bd
       -0.08775341 -0.032302167 -0.014229324 -0.033015512
000220 16 27 7e bd dd b3 16 bd b5 a2 7a bd bb 0e d3 bc
       -0.062048994 -0.036792625 -0.061190326 -0.02576386
000230 51 17 65 bc 5e 96 ea 3c 22 bd 93 3b 08 ac 81 3b
       -0.01398261 0.028636154 0.0045086304 0.0039572753
000240 1e e9 64 bd 43 c9 47 bd 07 77 58 bc f5 25 57 bd
       -0.05588638 -0.048775923 -0.013211972 -0.052526433
000250 53 54 55 bd 5c 77 90 bc 47 62 b1 bc 73 42 7d bd
       -0.05208237 -0.01763504 -0.021653308 -0.06183095
000260 c4 96 25 bd 5c ab d0 3c 62 f9 8f bc 20 13 ba ba
       -0.040426984 0.025472336 -0.01757497 -0.0014196374
000270 a8 21 26 bd 9c 93 ad 3a 7a 4e 09 bd a3 39 cd 3b
       -0.04055944 0.0013242844 -0.033522107 0.0062629743
000280 63 a9 d8 bc 77 36 73 bc b2 d2 c5 bd a8 7e 17 bd
       -0.026447957 -0.014844528 -0.096593276 -0.036986023
000290 d4 9a bf 3b c8 5f a7 ba 28 87 e1 bc 20 6a dd b9
       0.0058473144 -0.0012769634 -0.027530268 -0.00042231474
0002a0 5e 17 2a 3d c0 a4 dc bc 1b 69 da bb 65 d6 bb bb
       0.04152619 -0.026934028 -0.0066653616 -0.005732345
0002b0 15 0c c4 bc 8d 82 b0 bc 9c bb 64 bc 52 e5 c0 bc
       -0.023931542 -0.021546626 -0.013960745 -0.023546848
0002c0 36 38 ad bd 97 61 d3 3c 7c 7c c2 bc 86 7c 5d bc
       -0.08457987 0.02580337 -0.023741 -0.013518458
0002d0 ac f4 46 bd b0 d6 8e bd 20 54 a9 bc 64 5d 30 bc
       -0.04857318 -0.06974542 -0.020669997 -0.010764454
0002e0 b5 40 44 bd cc 3a ce bc 0b c1 b5 bc 35 48 6e bd
       -0.047913272 -0.02517452 -0.022186777 -0.05817433
0002f0 b7 cd 3f bd c5 d4 96 bd d5 8a 06 bd c0 42 0f bd
       -0.046827044 -0.07364801 -0.032847244 -0.034975767
000300 7b 1c 82 3c 12 a4 19 3d f4 60 25 bd c8 c7 8d ba
       0.015882721 0.037509985 -0.040375665 -0.0010816986
000310 51 1b eb bc 6c 43 95 bc 6a 46 a4 3c e6 14 06 bd
       -0.028699549 -0.018220626 0.020053107 -0.032734774
000320 96 09 36 bd d5 cd ca bc 5a 85 83 bc 4f 79 a1 bd
       -0.044442736 -0.024756351 -0.016054798 -0.07884466
000330 ac 5e 74 bd cc 52 70 bd 92 71 43 bd 14 ee 38 bd
       -0.0596606 -0.05867271 -0.04771573 -0.045148924
000340 d3 ac a2 bc 4e 12 cc bd 60 26 0f ba 43 e6 c2 3c
       -0.0198578 -0.09964429 -0.00054607354 0.023791438
000350 6a 3b 81 bd 9b 13 05 bc 00 85 10 bc fd f5 94 bd
       -0.063101605 -0.00812235 -0.008820772 -0.07273481
000360 5f 44 9f bd 73 25 85 bc d4 40 aa bc e2 ff 37 bd
       -0.077767126 -0.016253209 -0.020782866 -0.044921763
000370 94 28 d8 bc eb 6c 48 bd 08 bf 75 3c 56 45 8c bc
       -0.026386537 -0.048931997 0.014999159 -0.017122906
000380 43 1c f6 3c eb ad ee 3c 9c fb 1b bd 70 c4 3f bd
       0.030042773 0.029135665 -0.03808175 -0.046818197
000390 02 b9 32 bd 7c ab 54 bd d8 c9 21 bd d1 0d 81 bd
       -0.04363347 -0.051921353 -0.039499134 -0.063014634
0003a0 7e ca 24 bc 13 55 47 bd 9e 82 3d bd bc 64 f0 bc
       -0.0100580435 -0.048665117 -0.046267144 -0.029344909
0003b0 f4 33 89 bc 1a 96 9c 3c a8 e4 c4 bc 72 8a 0c bd
       -0.016748406 0.019114543 -0.024034813 -0.03431172
0003c0 50 fe dd bc 96 71 17 bc b4 a3 7d bc c0 00 f1 3c
       -0.027098805 -0.00924339 -0.015480924 0.029419303
0003d0 12 f2 59 bd 00 9a c8 bd 5a be ac bd 7d 8a 19 bd
       -0.053209372 -0.09794998 -0.08434744 -0.03748559
0003e0 40 f1 89 bc 86 86 22 bd 0d c3 be bc 2c f1 ad bc
       -0.01683867 -0.039679073 -0.023286367 -0.021233164
0003f0 86 8b 82 bd 70 6b 14 bd e9 7e 27 bd a7 99 41 bd
       -0.06374268 -0.036235273 -0.040892515 -0.047265675

net.4.bias f4 [128]
000000 dc 70 5f 3e bd 23 ae 3e f8 fb 34 be 22 87 6b 3f
       0.21820396 0.3401164 -0.17674243 0.9200307
000010 d5 94 13 3f 0a ca 08 3e 6d df 3a be 05 0d 78 3f
       0.57648975 0.13358322 -0.18249293 0.96894866
000020 ac b0 d0 be f6 e4 9c 3f f6 df 34 3f f7 d4 0b 3f
       -0.4075979 1.2257373 0.7065424 0.54621834
000030 9f a7 14 3e 01 a6 36 3f 5e eb dd 3e d1 51 a9 3f
       0.14517067 0.7134705 0.43343633 1.3228093
000040 8c 31 a8 3f bf 6f 21 bf a5 19 9b be 19 a6 a6 3f
       1.314012 -0.63061136 -0.30293003 1.3019439
000050 cc 29 be bd 2d 70 8f 3f c3 f2 10 3e 1f c5 90 3f
       -0.09285316 1.1206108 0.14155106 1.1310157
000060 47 e3 94 be 0e bd 04 3f c4 07 94 3d 65 f1 7d 3f
       -0.2907965 0.51850975 0.07228044 0.99196464
000070 38 19 da 3d 1d 84 3a 3f 4f 96 91 bf 0f c1 81 3e
       0.10649341 0.7285784 -1.1373996 0.25342605
000080 53 da 84 3f cb 82 84 bf f3 79 e7 be 32 8d c2 3e
       1.0379127 -1.0352415 -0.45210227 0.37998348
000090 44 01 bd bd 4b 4d a1 3f 1f 72 4e 3e 90 58 7e bc
       -0.09228757 1.2601713 0.20160721 -0.015524045
0000a0 27 5d 3e 3f f1 a1 54 3f b8 50 bd be 82 c9 e0 3e
       0.7436089 0.830596 -0.36975646 0.43903738
0000b0 78 27 9f 3f 77 cd 74 be e6 89 5a bf 1a 2b 68 3f
       1.243392 -0.23906504 -0.85366666 0.9069077
0000c0 2b ad 17 3f 65 74 aa be 9a de 1e 3f fa fd 82 3d
       0.5924861 -0.33291927 0.62058413 0.063960984
0000d0 b7 af 85 3e 57 5a 6b 3e 90 2f 11 bd a1 bd 94 3e
       0.26110622 0.2298368 -0.03544575 0.29050925
0000e0 0b d9 92 3e 02 5e 68 3f 8c 7d 12 bf 03 3b bb 3e
       0.28681216 0.90768445 -0.5722282 0.3656846
0000f0 02 9e 82 3f 2d 78 a3 be 89 e9 b3 be 1d fc a1 3f
       1.020447 -0.31927624 -0.3513911 1.2655064
000100 db 4a 2b 3f 47 86 47 3e 6a 56 8b 3f 63 38 72 3f
       0.66911095 0.19484816 1.0885746 0.9461729
000110 fe f8 bf 3f 12 7e 56 bf 0d c5 5f be fb c3 83 3e
       1.4997861 -0.8378612 -0.21852513 0.2573546
000120 76 90 18 bf 87 b4 a1 3f df e2 2c bf c7 09 3c 3f
       -0.5959543 1.2633218 -0.6753368 0.7345242
000130 bf d5 91 bf b8 dd 5a 3f 89 82 99 be 4a 62 02 bf
       -1.1393355 0.85494566 -0.29982403 -0.5093123
000140 68 a1 51 3e 16 b7 6f 3e 8e b5 96 bf cc 01 4f 3d
       0.20471728 0.23409685 -1.1774156 0.050538823
000150 3a 9e 9e be 58 24 c2 3f a6 58 4a 3f 38 a0 9d 3f
       -0.30980092 1.5167341 0.79041517 1.231452
000160 43 8e 35 bf 66 2a c4 be b8 72 67 bf 23 3f 39 bf
       -0.709202 -0.38313597 -0.9040942 -0.72361964
000170 af e6 a4 be 8e fb cd 3d d8 22 a3 3f a1 b4 86 3f
       -0.32207248 0.10057746 1.2745008 1.0523874
000180 16 91 99 bf f6 30 55 be 51 c9 9d 3e c9 f3 dc 3f
       -1.1997402 -0.20819458 0.30817655 1.7261897
000190 24 2a 82 3f 90 56 c9 3c 99 b6 25 3f 9e 8c a7 3f
       1.016911 0.024577409 0.64731747 1.3089788
0001a0 05 6d 92 3f d2 14 4f bf 02 b8 cb 3d 97 07 ba 3f
       1.143952 -0.80891144 0.09947206 1.4533566
0001b0 0f c3 26 bf 6f cc 49 bf 70 9f 6a 3c f2 4e 79 3f
       -0.65141386 -0.78827566 0.014320239 0.97386086
0001c0 0a 35 5d bf 0a c2 0e be cc ea 66 3f 59 d4 9a 3f
       -0.86409056 -0.13941208 0.9020202 1.2096053
0001d0 48 95 00 3f f4 dd 9c bf a6 05 9f 3e 20 11 ca be
       0.50227785 -1.2255235 0.31058997 -0.3946619
0001e0 ca 98 eb 3e 1e f3 82 3d d1 dc 87 3f 79 16 42 3f
       0.46015006 0.06394027 1.0614263 0.7581554
0001f0 15 b6 a1 3e fb be 48 3e 1f 6d 2e bf 36 ea a8 3f
       0.3158423 0.19604103 -0.68135256 1.3196476

net.8.bias f4 [64]
000000 07 1a 57 3f 1d 59 0b 3f ca 4a 99 3d d2 3b d4 bc
       0.8402409 0.5443285 0.07484968 -0.02590743
000010 25 8f 54 3e cb c5 0e 3f 32 27 9d 3e 96 7b 83 3e
       0.2075773 0.5577056 0.30693966 0.25680226
000020 56 80 27 3f 88 8e 78 3f ad 69 d4 3e 5f da 1b 3f
       0.654302 0.97092485 0.41486874 0.6088008
000030 79 8c 1b bf 9c 38 8c 3f a2 9e 29 3f 20 f1 7c be
       -0.6076122 1.0954776 0.6625768 -0.24701357
000040 6c e3 89 3f 60 b3 40 bf 50 a0 67 3f 8d 49 45 3f
       1.0772529 -0.75273705 0.9047899 0.77065355
000050 2f ad 73 3f fc 31 a9 bf af 3a 92 3e 80 a3 47 be
       0.9518613 -1.3218379 0.28560397 -0.19495964
000060 7d 19 f3 3e 1e f4 50 3f ac 4f 87 3f 20 ef 24 3f
       0.47480384 0.81622493 1.0571189 0.64427376
000070 38 67 0c 3f 55 21 49 bf f8 96 b4 3e 01 7d 78 3f
       0.54845 -0.78566486 0.3527143 0.9706574
000080 44 a0 43 3f 24 1b 5f 3d 15 40 4c 3f f3 68 dc be
       0.7641642 0.054469243 0.7978528 -0.4304882
000090 30 ce 26 3f ae 15 9b be 26 94 93 be 79 16 fa 3e
       0.6515837 -0.30289978 -0.28823966 0.4884527
0000a0 12 a3 cc 3d 1d 5a e0 be 21 15 ee be 8c af 6d 3e
       0.09992041 -0.4381875 -0.46500495 0.23211497
0000b0 2c 22 9d be 34 a8 e7 3e 2c a6 8c 3e 42 6e 27 3f
       -0.30690134 0.45245516 0.2747053 0.65402615
0000c0 8f ec 55 3f da 93 bc be b6 a6 94 3e 80 61 2b 3f
       0.83564085 -0.36831552 0.2903344 0.6694565
0000d0 63 bc cf be 48 a2 aa 3e 1e e3 8a 3f d5 fa ec 3e
       -0.40573415 0.33326936 1.0850561 0.4628512
0000e0 76 eb 1d 3f 66 1f 62 3f 11 de 90 3f 1b 2f f2 3e
       0.6168741 0.8832916 1.1317769 0.47301564
0000f0 bb 37 09 3f 31 97 e1 be e7 81 b2 be ba c4 45 3f
       0.5360066 -0.44060662 -0.34864733 0.77253306

net.0.weight_quantized i1 [40, 256]
000000 dd 1e 00 ed 26 26 16 25 32 cc 21 f5 00 32 da f9
       -35 30 0 -19 38 38 22 37 50 -52 33 -11 0 50 -38 -7
000010 cf 35 14 cd 18 d9 05 ff d2 e5 02 21 d8 e2 34 ee
       -49 53 20 -51 24 -39 5 -1 -46 -27 2 33 -40 -30 52 -18
000020 0f 2b 23 e8 12 ef f3 f4 1b fb b4 02 ff ee f8 29
       15 43 35 -24 18 -17 -13 -12 27 -5 -76 2 -1 -18 -8 41
000030 10 21 1b eb 22 1c f7 f7 b6 f2 dc f5 43 11 cb f4
       16 33 27 -21 34 28 -9 -9 -74 -14 -36 -11 67 17 -53 -12
000040 fd 2f f8 16 e2 19 0d f2 2f d2 0c 05 2f e8 ef 14
       -3 47 -8 22 -30 25 13 -14 47 -46 12 5 47 -24 -17 20
000050 10 e6 20 2e e2 ec f7 b4 de 07 2d 0d 12 2f 35 16
       16 -26 32 46 -30 -20 -9 -76 -34 7 45 13 18 47 53 22
000060 16 cf ed fe 15 e2 df e6 f0 17 0e d3 ff d2 b9 da
       22 -49 -19 -2 21 -30 -33 -26 -16 23 14 -45 -1 -46 -71 -38
000070 0d d2 fe 14 d7 e2 f6 12 34 e3 02 e4 f8 2f 0d f2
       13 -46 -2 20 -41 -30 -10 18 52 -29 2 -28 -8 47 13 -14
000080 e4 f8 27 ff e6 0d da e7 f9 18 e3 0b 1b 25 14 f0
       -28 -8 39 -1 -26 13 -38 -25 -7 24 -29 11 27 37 20 -16
000090 ef 0c 0c 1c 21 e7 14 02 f2 fe 0d fa d4 f1 f3 00
       -17 12 12 28 33 -25 20 2 -14 -2 13 -6 -44 -15 -13 0
0000a0 e5 25 06 e2 42 fe d5 f0 fc 21 14 1f 09 32 17 2e
       -27 37 6 -30 66 -2 -43 -16 -4 33 20 31 9 50 23 46
0000b0 d2 e5 06 20 0f 23 f7 1a ff 17 38 0b 19 0f e5 0f
       -46 -27 6 32 15 35 -9 26 -1 23 56 11 25 15 -27 15
0000c0 53 22 08 0b fe f2 12 ed 0f c5 0f 39 d8 0b ce d3
       83 34 8 11 -2 -14 18 -19 15 -59 15 57 -40 11 -50 -45
0000d0 2b 10 37 b2 fc fd 10 dd e5 fd bf 13 02 eb e2 4c
       43 16 55 -78 -4 -3 16 -35 -27 -3 -65 19 2 -21 -30 76
0000e0 20 fd 14 f5 f3 18 16 27 10 2c ef 1d e0 1c e1 e9
       32 -3 20 -11 -13 24 22 39 16 44 -17 29 -32 28 -31 -23
0000f0 e2 d3 eb 10 ce fc 27 b2 f1 04 ff 0b 12 f2 ea ec
       -30 -45 -21 16 -50 -4 39 -78 -15 4 -1 11 18 -14 -22 -20

net.4.weight_quantized i1 [256, 128]
000000 2a 2f df 0f ea 36 16 ef ed e2 33 2c 0a f8 22 df
       42 47 -33 15 -22 54 22 -17 -19 -30 51 44 10 -8 34 -33
000010 e6 20 00 d0 d4 1a fb ed f1 f4 05 07 fb f1 e9 e7
       -26 32 0 -48 -44 26 -5 -19 -15 -12 5 7 -5 -15 -23 -25
000020 fe d7 c9 31 fc b0 f4 0e d8 f0 23 d1 0b fa f9 05
       -2 -41 -55 49 -4 -80 -12 14 -40 -16 35 -47 11 -6 -7 5
000030 00 07 e2 1c 09 3d f0 11 fc 06 12 05 1c d3 ed 03
       0 7 -30 28 9 61 -16 17 -4 6 18 5 28 -45 -19 3
000040 f6 12 b9 e7 ff d6 da 03 02 fe db 2e fd 00 05 f9
       -10 18 -71 -25 -1 -42 -38 3 2 -2 -37 46 -3 0 5 -7
000050 f1 02 0c 15 1c e6 2b d8 ea f5 d4 f6 1a e4 1b ef
       -15 2 12 21 28 -26 43 -40 -22 -11 -44 -10 26 -28 27 -17
000060 07 0f e5 ce 17 e7 b2 f4 06 14 23 e1 06 1e e8 21
       7 15 -27 -50 23 -25 -78 -12 6 20 35 -31 6 30 -24 33
000070 ef d4 23 07 eb ef 1f 1b 23 e1 1c e3 17 e4 f0 c3
       -17 -44 35 7 -21 -17 31 27 35 -31 28 -29 23 -28 -16 -61
000080 01 24 2b e7 e6 f1 2a f6 13 ed ec ef 1f e9 fb 17
       1 36 43 -25 -26 -15 42 -10 19 -19 -20 -17 31 -23 -5 23
000090 f3 e6 0d dd 1d 0b e9 14 d8 d8 e3 df 03 0d de fd
       -13 -26 13 -35 29 11 -23 20 -40 -40 -29 -33 3 13 -34 -3
0000a0 11 1a 0e de 15 f7 0f ef 05 1b f1 14 00 02 05 0f
       17 26 14 -34 21 -9 15 -17 5 27 -15 20 0 2 5 15
0000b0 c2 eb d6 fc 02 fc 28 12 e1 0b 2b 01 17 fa f6 0d
       -62 -21 -42 -4 2 -4 40 18 -31 11 43 1 23 -6 -10 13
0000c0 de f2 ff 06 12 07 05 cc 35 d7 1e f1 db 1c f9 f6
       -34 -14 -1 6 18 7 5 -52 53 -41 30 -15 -37 28 -7 -10
0000d0 01 08 18 ea 33 17 f2 1c 0f f4 f3 f2 eb d4 14 d1
       1 8 24 -22 51 23 -14 28 15 -12 -13 -14 -21 -44 20 -47
0000e0 f9 16 db e7 ec 21 38 08 fc e0 eb d0 1a da f6 d9
       -7 22 -37 -25 -20 33 56 8 -4 -32 -21 -48 26 -38 -10 -39
0000f0 2d fb 10 e1 09 1a 22 e8 19 f7 e5 0b 0a d6 ed 0e
       45 -5 16 -31 9 26 34 -24 25 -9 -27 11 10 -42 -19 14

net.8.weight_quantized i1 [128, 64]
000000 22 fa fc f5 f9 f9 1b 35 03 12 46 0e a9 d5 e2 ef
       34 -6 -4 -11 -7 -7 27 53 3 18 70 14 -87 -43 -30 -17
000010 ba d7 dd 19 ef 22 18 aa e0 f7 06 ee cc 58 d2 e4
       -70 -41 -35 25 -17 34 24 -86 -32 -9 6 -18 -52 88 -46 -28
000020 23 de 06 d6 05 5f 0a fa db d6 a5 fb 1c 20 b8 d1
       35 -34 6 -42 5 95 10 -6 -37 -42 -91 -5 28 32 -72 -47
000030 e9 1d 06 f5 3a 01 e3 e6 d5 e3 a8 2b 02 bd 0f 1e
       -23 29 6 -11 58 1 -29 -26 -43 -29 -88 43 2 -67 15 30
000040 d8 30 b2 04 3f fc f5 18 09 2d d8 27 f0 d8 0b 26
       -40 48 -78 4 63 -4 -11 24 9 45 -40 39 -16 -40 11 38
000050 2c 24 d0 f9 24 f0 0a ba 08 f9 f5 ff fc 07 bc dc
       44 36 -48 -7 36 -16 10 -70 8 -7 -11 -1 -4 7 -68 -36
000060 19 b6 0e 35 03 35 05 c8 ee bd 36 cd ca 33 eb 0a
       25 -74 14 53 3 53 5 -56 -18 -67 54 -51 -54 51 -21 10
000070 01 d2 ea 22 0d 01 fc ef f7 c6 ec c5 19 e1 f4 e2
       1 -46 -22 34 13 1 -4 -17 -9 -58 -20 -59 25 -31 -12 -30
000080 c9 1d 3d 1a 2e dd 28 08 ce f5 14 dd e6 f1 ed 24
       -55 29 61 26 46 -35 40 8 -50 -11 20 -35 -26 -15 -19 36
000090 da 25 ee d9 0d cc 19 25 fd fd cd cf 04 33 d6 15
       -38 37 -18 -39 13 -52 25 37 -3 -3 -51 -49 4 51 -42 21
0000a0 bc c0 d8 ad 23 de 00 ec 16 cc eb c3 41 06 2f 17
       -68 -64 -40 -83 35 -34 0 -20 22 -52 -21 -61 65 6 47 23
0000b0 0f e0 c9 fe c6 fa 26 21 9a e9 ef 0d 18 f0 da 0e
       15 -32 -55 -2 -58 -6 38 33 -102 -23 -17 13 24 -16 -38 14
0000c0 e2 cb 11 19 0d cd f2 32 0d e9 e9 37 ed 1e 03 2c
       -30 -53 17 25 13 -51 -14 50 13 -23 -23 55 -19 30 3 44
0000d0 30 11 0a 09 ea d4 f5 13 f9 1e 34 d9 30 36 36 2a
       48 17 10 9 -22 -44 -11 19 -7 30 52 -39 48 54 54 42
0000e0 de 3e eb 39 df 51 19 0e 01 53 da e1 cf 0d 49 d3
       -34 62 -21 57 -33 81 25 14 1 83 -38 -31 -49 13 73 -45
0000f0 f3 24 fb 0e 50 16 13 e2 19 f1 ec 14 f9 30 f9 17
       -13 36 -5 14 80 22 19 -30 25 -15 -20 20 -7 48 -7 23

net.12.weight_quantized i1 [64, 1]
000000 c2 a8 9f ed ef b0 df 43 8a c3 0c a0 db 9d 9f 07
       -62 -88 -97 -19 -17 -80 -33 67 -118 -61 12 -96 -37 -99 -97 7
000010 ac 96 9d 91 91 04 86 d1 db a3 a7 c7 bc 15 26 86
       -84 -106 -99 -111 -111 4 -122 -47 -37 -93 -89 -57 -68 21 38 -122
000020 81 3b 90 0c c7 04 22 28 2c 37 0e d1 dc ee 1b 8e
       -127 59 -112 12 -57 4 34 40 44 55 14 -47 -36 -18 27 -114
000030 c5 23 0c 9d 29 99 d0 a7 c2 b7 b3 b6 cc 2c 15 90
       -59 35 12 -99 41 -103 -48 -89 -62 -73 -77 -74 -52 44 21 -112
