models/nn_model.onnx (onnx, 2498 bytes, 2 tensors)

net.8.bias f4 [64]
000000 fd da 2a bf 56 fd 73 3f a6 40 78 3d fc 9e a5 3e
       -0.667404 0.95308435 0.06060853 0.32347858
000010 5f dc d7 be aa 97 1b 3f a2 56 32 bf d4 b0 a0 3d
       -0.42160317 0.60778296 -0.6966344 0.07846227
000020 88 66 aa 3e a7 f9 5d 3f 4e 14 e8 3d 11 bd 90 3f
       0.3328135 0.86709064 0.11331998 1.1307698
000030 a8 3f eb be 31 e1 1f be 09 18 66 3f da 93 43 3d
       -0.45947003 -0.15613247 0.89880425 0.047748424
000040 ff 56 96 be 62 f2 66 3f de 1c 61 3f da e5 67 3f
       -0.29363248 0.90213597 0.8793467 0.905851
000050 3c 6a 89 3e 53 59 65 3f fd bf 34 3e 13 ea 7c bd
       0.26838863 0.8958942 0.17651363 -0.061746668
000060 c5 75 4b 3f 59 0e 98 3e fe c9 6d 3e d2 62 09 3f
       0.7947658 0.29698446 0.23221585 0.5366641
000070 e0 8c 13 3e 2b e9 25 3f 12 55 0c bf e1 9e b8 3d
       0.14409208 0.6480891 -0.54817307 0.09014679
000080 cf a0 a1 3d ce fd c2 3e 74 46 e8 3e 16 7b 8b 3f
       0.07892 0.38084263 0.4536625 1.0896938
000090 e5 41 a0 3e 96 f2 51 3e a7 64 42 3f 2c 66 07 3e
       0.31300274 0.20502695 0.75934833 0.13222569
0000a0 e6 ce 08 3f 2b c7 0d 3f 46 c5 b8 3e 52 be 06 3f
       0.534407 0.5538203 0.36088008 0.52634156
0000b0 8b 5c 91 3f bc 21 e1 3e cc 7b 79 3f be 39 46 3f
       1.1356367 0.4397105 0.97454524 0.7743186
0000c0 b1 ec 74 3f 60 b2 3b 3f 38 a3 57 3f 76 a4 98 3f
       0.9567366 0.73319054 0.8423343 1.192519
0000d0 d7 85 0f bf b5 aa 4a 3f ea 98 8d be e8 8d 2f 3d
       -0.560636 0.7916673 -0.27655727 0.04285994
0000e0 df 63 7a 3e 5d 77 0f 3e 62 c1 0f 3f b7 8c af 3e
       0.2445216 0.14010377 0.56154454 0.34287044
0000f0 8c de 62 3f 37 3d 52 3f fc f2 8f bc 53 0d 9d be
       0.8862083 0.82124656 -0.017571919 -0.30674228

net.12.weight f4 [1, 64]
000000 9e 73 f3 3b 3b 34 15 be ce d1 82 3d 84 bf 27 be
       0.007429554 -0.14570706 0.06387673 -0.16381651
000010 67 4b bd 3b db 3b d3 bb 54 a5 84 bb c5 cf 16 3d
       0.005776811 -0.0064463443 -0.004048029 0.03681924
000020 ce 86 16 3d fd be 8d bd 2e ea d1 3c 56 74 2e bd
       0.036749654 -0.06921194 0.02562436 -0.042591415
000030 a6 8e 3b 3d bc 9e 0f 3c bd 7b a4 bd 92 a2 02 3d
       0.045790337 0.008765873 -0.08031414 0.03189332
000040 f0 b1 86 3a c1 29 ad bd d4 3f f0 bd 41 9f 08 be
       0.0010276418 -0.084552296 -0.11730924 -0.13342
000050 7c e0 11 be 4a ac 25 bd a0 0f 38 3d f0 8a 81 3c
       -0.1424579 -0.04044751 0.044936776 0.01581332
000060 22 3a 9f bc 74 82 7b 3d 23 71 5d 3d 25 b7 10 be
       -0.0194369 0.061403707 0.054062974 -0.14132364
000070 5c ea 54 3d 73 0b b1 bd 87 2e e6 3c b3 51 86 3d
       0.051981315 -0.08644762 0.028098358 0.06558552
000080 94 7b c3 bb bf e0 fb bd 93 26 19 be cc fa b5 bd
       -0.0059656594 -0.12298726 -0.14956121 -0.08885726
000090 ab fb fe bc b7 85 3a 3c 80 a8 25 be 5e 01 bf 3c
       -0.031125864 0.011384419 -0.16177559 0.023316082
0000a0 fc 06 f8 bd 3b a6 13 be 21 6d cb bd e2 ec cd bd
       -0.12110707 -0.1441888 -0.09932924 -0.100549474
0000b0 dc 56 f4 bd 96 7b 19 be 44 8d 22 be 1d 66 38 be
       -0.119306296 -0.1498855 -0.15874201 -0.18007703
0000c0 ce a5 1c be 4c 7b fc bd 9d 38 d2 bd 59 2c e8 bc
       -0.15297624 -0.123282045 -0.102647044 -0.02834146
0000d0 50 3e 4a bc 90 31 36 be fd a1 1f 3d aa a9 a9 bd
       -0.012343958 -0.17792344 0.038972843 -0.08284314
0000e0 12 b7 7c 3d 19 e7 80 3d 90 cf 9c bd 18 9d 4d bb
       0.061698027 0.062940784 -0.07656777 -0.0031374153
0000f0 98 eb 39 be 66 e6 de bc 5b ae 41 3d 15 e9 46 bb
       -0.18156278 -0.027209472 0.04728542 -0.003035133
