models/nn_model.pt (torch, 222075 bytes, 19 tensors)

net.0.weight f4 [256, 40]
00000000: 489b 4f3d d821 be3d 964c d6bc 2c4e f4bd
00000010: a9b9 4d3d c49f cebd a08d 023e eb51 d8bd
00000020: 989c 1f3e 15a5 0abd bbc3 37bd 8268 a9bd
00000030: f0d5 063e a401 eebd 6087 8c3c cfc5 7f3d
00000040: 3cac 0e3e 8dcb 083e 14e1 4d3d 1ac6 893c
00000050: 2741 8dbd c77c 073d 7a4c b23d d1e6 57bc
00000060: 5250 9ebd 1632 1b3e 220f 2abd 6f21 15be
00000070: 3d80 2a3c 24f7 b5bd 102d 0b3e a1c7 be3d
00000080: bf75 ce3d 1ceb 2f3e bbf4 a83d 0704 77bd
00000090: ff1d 033e ae67 f13c f27e b43d 3e00 c5bd
000000a0: 30b5 31bd f11b 763d 4da1 b73a f692 ae3c
000000b0: 8206 01be cdb8 fcbd 240b 653d 7f53 843d
000000c0: 4aee 653d c5f5 d03d edc8 e3bc 223d 65bd
000000d0: fd8e 673d fc8f e7bd 6fcb cebb 51df 3fbd
000000e0: 14e5 79bb 4e9d 13bd 25e2 debd 2193 163e
000000f0: 5562 b9bd 7a5a 09be c905 bb3d 35bd 863d
00000100: 7215 f83d 33c4 0cbd 5a94 573d 66c7 05bd
00000110: 9b87 863d 70e6 57b9 15c1 a43d a0d5 91bd
00000120: 8472 ffbc bcae 06be 8f1e 0e3b aa93 8bbd
00000130: a141 c8bc 8f45 02be bfba c1bd 434d 0e3e
00000140: 7df4 6fbd b076 b8bd 8add 83bc 2b74 0c3e
00000150: 18c8 043e 5235 ac3c 4a32 62bd 4309 c3bd
00000160: db72 0b3e f446 2e3c fefc ee3d 0691 75bd
00000170: fd9e 7bbd ae10 983c 2cde 103d a973 843d
00000180: 5276 94bd 79b4 4cbe f4d6 93bb 0fbc a1bd
00000190: 365a 1c3d 039f 5abd c318 fa3d 8f79 503d
000001a0: 429e 0bbd bc62 1f3e 1406 8bbd cce6 d03d
000001b0: 0b98 0c3d 8983 93bd a9f2 dcbd 55b0 6e3b
000001c0: 557c 39be 05b1 1ebd 0698 c6bc 7ec7 85bd
000001d0: 864e 3bbd 226c ab3d 4e28 863d 58af c3bd
000001e0: f278 2bbd a4de 2a3d ee33 8cbd 4467 7c3d
000001f0: 8067 fbbd d8d3 4f3e f3f8 d13d 558e 4d3d
00000200: 423f d8bd f67a 7a3d 1eb4 61bd 70fd e1bd
00000210: 9570 353d 967d 07be 376f a8bd 7264 d6bc
00000220: 4bd1 0e3e 527b 99bd 5e91 873d d2a8 cbbd
00000230: f78e 1e3e 6a27 ffbc 34a9 3dbd f332 cbbd
00000240: f7ac c03d 6144 f93d 19c6 223d 903b 043d
00000250: f377 a43d 42be 803d c737 213e 2bf9 d33d
00000260: 40e6 f0bc b9b5 483c 38c8 bb3d 41f1 dfbd
00000270: b6f3 80bd e461 903d 3ada a93d 623a b3bd
00000280: 27f2 f0bc 22fc 0bbe c624 8eba 170a 883d
00000290: fa16 b53c bfd0 f23c 0b29 063b f2ba 553c
000002a0: 3c39 3e3d f276 fd3d dc28 ebbd e4b2 47bb
000002b0: e20a e4bd e215 153b ba7a f43d fb89 cfbd
000002c0: be22 4cbd e8da 293e 1e58 393c 6366 ff3d
000002d0: 8eb1 f4bd a7b4 d8bd 1b48 0e3e 462b 0cbe
000002e0: 7e70 fdbd 45d0 1bbe 4d19 21be be4e 18bd
000002f0: b74d c33d d793 983d cd63 08bd 4bce 25bd
00000300: 997d aabd 83e7 15be 2a87 2c3e a9be 9abc
00000310: ca6f 4fbd 4696 9abd e57a d73d bffa 123b
00000320: d791 b6bd 51cd 1d3d 098e b03d 9d00 aabd
00000330: 340a f03d 1b5d aebd ec0b 86bb 0cce 7fbd
00000340: 650a 0dbe 0fec a93d 652f 16bd 64ed 0c3d
00000350: feb4 c43a a8ff ccbd 1fd6 dbbd 1188 b3bd
00000360: c645 533d 429b 143e 71be adba 0dc3 dd3d
00000370: 9d4d 08be 0b9a e83d 9467 143e 9aa4 b03c
00000380: ce01 9dbd 7c34 8dbd 704b f0bc c952 4c3d
00000390: c648 9e3c 1b45 243e e8e0 2abd 6ebb 2fbc
000003a0: 99a8 9b3d 1e8d 82bc 4fbb 263e 50d2 c8bc
000003b0: dd71 883d db28 d13d 5011 99bd 8516 eb3d
000003c0: 0083 7ebc a07c 6f3d 835e ac3d 1098 f6bd
000003d0: c2db 96bd dbad 293e 1eb9 be3b 8d31 a6bd
000003e0: 6735 1bbe 0fdf 5a3b 1418 1dbe e64d 5a3d
000003f0: 58f5 183e 87d5 a03d d2fb a33d c00f a93d
0.050685197 0.09283799 -0.026159566 -0.119289726 0.050225887 -0.100890666 0.12749338 -0.105624996
0.1558708 -0.03384884 -0.044864397 -0.082718864 0.13167548 -0.11621407 0.017154396 0.062444504
0.1393289 0.13358898 0.05026348 0.016818095 -0.068971924 0.03307798 0.08705993 -0.0131775895
-0.07730164 0.15155825 -0.041518338 -0.14563535 0.010406551 -0.08885029 0.13591409 0.0931542
0.10081052 0.17179531 0.08249804 -0.060306575 0.12804411 0.029468384 0.088132754 -0.09619187
-0.043385684 0.06008524 0.0014009863 0.02131031 -0.12600139 -0.123399355 0.055918828 0.06461238
0.056135453 0.10203127 -0.02780577 -0.055966504 0.05653285 -0.1130676 -0.0063108723 -0.04684383
-0.0038130926 -0.03603869 -0.108829774 0.14704563 -0.090519585 -0.1341342 0.09131963 0.06579057
0.12113465 -0.034366798 0.052631713 -0.032660864 0.065688334 -0.00020589842 0.0804464 -0.07120824
-0.031182535 -0.13152593 0.0021685695 -0.06815274 -0.024445357 -0.12721847 -0.09459447 0.1389666
-0.05858277 -0.09007013 -0.016096849 0.1371619 0.12966955 0.021021519 -0.05522374 -0.09523251
0.13618033 0.010637034 0.11669348 -0.05995276 -0.06143092 0.018562641 0.03536813 0.06467373
-0.0724913 -0.1999072 -0.0045117084 -0.078971975 0.03817197 -0.0533743 0.12211754 0.050897177
-0.034086473 0.15565008 -0.06788269 0.10200271 0.034324687 -0.07202823 -0.10788471 0.003642102
-0.18113835 -0.038743038 -0.024242412 -0.06532191 -0.045729183 0.08370234 0.06550656 -0.095549285
-0.04186339 0.041716233 -0.06845842 0.06162192 -0.122756004 0.20295656 0.102525614 0.050184567
-0.105589405 0.06115242 -0.055103414 -0.110346675 0.04429682 -0.13231501 -0.082243375 -0.026170943
0.13947026 -0.074942246 0.066195235 -0.09944309 0.15484224 -0.031146724 -0.046303943 -0.09921827
0.094079904 0.12171245 0.039739702 0.032283366 0.08030691 0.06286289 0.15743934 0.103502594
-0.029406667 0.012250357 0.09169048 -0.109346874 -0.06296484 0.07049921 0.082935765 -0.0875137
-0.029412342 -0.136704 -0.00108447 0.066425495 0.022105683 0.029640554 0.002047124 0.0130450595
0.0464413 0.12376203 -0.11482403 -0.0030471617 -0.11134888 0.002274864 0.11937471 -0.101337396
-0.04983782 0.16587412 0.011312513 0.124707006 -0.11947928 -0.10581332 0.13894694 -0.13688383
-0.12374972 -0.15216167 -0.15732308 -0.03718447 0.09536307 0.07450073 -0.033298302 -0.04047994
-0.08324737 -0.14639096 0.16848436 -0.018889742 -0.05064372 -0.07548194 0.10521487 0.0022427288
-0.089145355 0.038525883 0.08620841 -0.08300898 0.11720696 -0.08513852 -0.0040907767 -0.06245236
-0.13773496 0.08296978 -0.036666293 0.03440608 0.0015007553 -0.100097 -0.107342 -0.08766187
0.051580213 0.14512351 -0.0013255609 0.108282186 -0.13310857 0.11357506 0.14492637 0.021562863
-0.0766636 -0.06894776 -0.029332846 0.049883638 0.01932181 0.16041987 -0.041718394 -0.010725839
0.07600517 -0.01593643 0.1628239 -0.024514347 0.06662343 0.10212871 -0.07474005 0.11478905
-0.0155341625 0.05846846 0.08416464 -0.12040722 -0.07366134 0.16570227 0.0058204075 -0.0811492
-0.1515709 0.0033397113 -0.15341216 0.053296946 0.14937341 0.07853227 0.08007015 0.08254957

net.0.bias f4 [256]
00000000: 8442 1f3d 8ca1 93bd f31e ad3d 0053 ebbd
00000010: f6bd 893d 4fa8 683d 6838 913d 7409 0dbe
00000020: 2874 80bd bc6a fa3d 69eb ec3b c52c 82bc
00000030: 39a5 1e3d cfa9 93bd 4e16 0bbe 06f2 cb3d
00000040: 2c31 c2bc e9c6 9a3a cc8a ee3d 9935 8c3d
00000050: 2e05 6b3d 30cb 55bd 1586 1ebe acfb 8e3d
00000060: c4f9 163e 611f 4d3c c2e7 173e 6a34 d23c
00000070: 55f2 65bd 4075 7bbd aab0 123e f60c 8bbd
00000080: 7b1c b73c 3d21 faba 0275 77bd c16c 163c
00000090: 62d0 68bd 8eab 0d3e 4fdc 56bd f422 ea3c
000000a0: 3e5c 78bd c2fc 013d 2c40 85bd c5b8 77bc
000000b0: 8d9d c13d aad7 053e 5744 10be a749 e83d
000000c0: 6fe0 0c3d 76e7 973d b74b cfbd 118d c33c
000000d0: 4b91 a7bc 8c40 573d 7a1f b9bd e675 00be
000000e0: a96d 0dbc 5193 eabd 401a 03be 3a2f 11bd
000000f0: 1a71 f43d 9cdd 4c3c 3b02 f4bd 7959 4f3c
00000100: e276 8b3c 642a 5abd 2a34 d43d 9710 7f3c
00000110: 3e6a 943d b51b f1bc 49cd b43b 0d98 20bd
00000120: db2b ee3d 1664 16bc bd8e 88bd 5276 623d
00000130: 5d25 c93d eea3 ad3d 1873 18be 2f46 5c3b
00000140: c790 1ebd 02cc eabd 5da7 613d e18e 9c3d
00000150: 3f99 24bd d081 f9bd 764b 0c3e 9935 04be
00000160: 91a5 833d 1740 5abd fe3d f9bd 7b71 55bb
00000170: 449f c0bd 1fa4 ccbc 4ceb b7bd a5a0 9abc
00000180: 15b3 adbd f8ad f43c 5fcd 853d ad20 b13d
00000190: 4e25 33bd df03 7e3d f0d5 3a3b 83c8 36bd
000001a0: 202c 4e3d bf78 16be dab0 083d 35f1 173e
000001b0: aac9 ecbd 161a a33d f3b3 bfbd 4814 55bc
000001c0: 7105 b93d 0216 2cbd fcde 273d 7c56 a13c
000001d0: f1b2 efbc b9f4 1a3c 84bd 293d 28d4 6ebd
000001e0: e0e7 f1bd dbc0 cb3d bed8 113d f2a7 18bc
000001f0: f77b 943d 68e3 113e 0710 a5bd 1c74 e43c
00000200: cb64 2f3d 29ba 17bb 465e d63d e520 983d
00000210: 7de7 16be 3a92 f2bd 9a2b 78bd 9e0e c8bc
00000220: 0931 0cbe b027 193e 4c4f 083e eac6 ef3d
00000230: 8d7f a5bb 6f91 cebd ad91 dfbd a99c aabd
00000240: 8703 9b3d b8af 07be 2740 ebbd b113 dfbd
00000250: dc31 5ebd 9553 03be c1a4 8d3d ccb3 1fbe
00000260: caae d7bd d825 c93d 840f c6bd 1557 643c
00000270: b7cf d2bd d849 a43d a6a7 6fbd 0a4f 8ebd
00000280: 81b3 173e 1329 e1bd 4d05 193e 5067 fd3d
00000290: 79cd cabd e339 7cbd f353 b0bd ac00 093e
000002a0: 355d 5b3d a351 fb3d c57c c43c 8077 79bc
000002b0: e7b3 6dbc 6081 1b3d ff4d 153e 421c 8c3d
000002c0: 32f8 1e3e a9ae 19bc 12a2 1cbe e6c8 1b3e
000002d0: 8209 793d 0ef2 e03d 940c 5dbc 7ac7 1d3d
000002e0: 548c 263d 1b89 de3c b98a 9abd 30a9 d2bd
000002f0: 2ac3 12be 81a0 5cbd 457c ad3d f82b 43bb
00000300: 7b23 953d 0a58 93bc 1169 023e 42e3 a9bd
00000310: 32e4 f83d 6d80 223e 05b8 0f3e c18c 08be
00000320: 9419 133e 3e4d fe3d da09 163e a85f 7abc
00000330: 1ee6 0fbe bd79 15be 4685 8dbc 9cc1 98bd
00000340: f1f3 b3bb 6487 17be e00a 853d 1022 443d
00000350: 9a5a ccbd 8d4c 33bb d6b9 dc3d 2405 be3d
00000360: d2c5 45bd a91c b93d 78dd aabd ccc6 c83d
00000370: 6057 c13c 015f e93d 49ed 1c3e 1dc9 c1bd
00000380: 5e3b b03d f3ce 0e3e 0122 0dbe 6b51 333d
00000390: 2cbb b3bd 6d09 ef3d f55b 70bd 4037 b73d
000003a0: 8288 adbd c82f 143e 5d55 123e 1772 c1bd
000003b0: 8088 15bd ea4c 86bd 93d9 1fbd 628f d73d
000003c0: dcd2 963d 5810 46bd c26f 17be b955 dfbd
000003d0: c222 8ebd 5f40 b03d 9c41 c9bd f944 6dbc
000003e0: a48b 11be 41f1 f3bd 9ff9 ed3c 51f3 bc3d
000003f0: 67db d7bd 2c4d b5bd e351 17be 6818 9abd
0.038881794 -0.07208547 0.08453169 -0.1149044 0.06725685 0.056801137 0.07090837 -0.13773137
-0.06272155 0.12227389 0.0072302115 -0.015890488 0.038731787 -0.07210123 -0.13582727 0.09958272
-0.023705088 0.0011808547 0.11647567 0.068461604 0.057377987 -0.052195728 -0.15480836 0.06981596
0.14743716 0.012519688 0.14834502 0.025659759 -0.05613931 -0.061391115 0.14325204 -0.067895815
0.022352448 -0.0019083392 -0.06041432 0.009181202 -0.056839354 0.13834974 -0.052456196 0.02858112
-0.060634844 0.03173519 -0.065063804 -0.015119736 0.094538786 0.1307055 -0.1408857 0.11342173
0.034393724 0.074171945 -0.10121863 0.023870977 -0.020455023 0.05255179 -0.09039207 -0.12544975
-0.008632102 -0.114538796 -0.12802982 -0.03544543 0.11935635 0.012504008 -0.11914488 0.012655609
0.017024461 -0.053263083 0.10361512 0.01556792 0.072468266 -0.029432157 0.005517636 -0.039207507
0.116294585 -0.009179136 -0.0666785 0.05528862 0.098215796 0.08478533 -0.14887655 0.0033611169
-0.03871229 -0.11464693 0.05509125 0.076444395 -0.04018521 -0.12182963 0.13700661 -0.12911071
0.06428064 -0.053283777 -0.12170027 -0.003256886 -0.094053775 -0.024980603 -0.08980426 -0.01887543
-0.08481423 0.029868111 0.06533312 0.086488105 -0.04373675 0.06201541 0.0028508864 -0.044624817
0.05033505 -0.14694498 0.033371784 0.14838107 -0.11561902 0.0796396 -0.093604945 -0.013005324
0.09034241 -0.042013176 0.04098414 0.01969456 -0.02926013 0.0094577605 0.0414405 -0.058307797
-0.11811805 0.09948894 0.035607092 -0.009317385 0.07250207 0.14246905 -0.080596976 0.027887397
0.042820733 -0.0023151732 0.104672 0.07428149 -0.14736743 -0.11844297 -0.060588457 -0.024421033
-0.1369058 0.14956546 0.133115 0.11707862 -0.0050506056 -0.10086333 -0.10916457 -0.08330662
0.07569032 -0.13250625 -0.114868455 -0.10892428 -0.05424677 -0.12824853 0.0691619 -0.15595931
-0.10531385 0.09821671 -0.09670928 0.013936778 -0.10293525 0.08021897 -0.05850949 -0.06948669
0.14814569 -0.109941624 0.14943428 0.12373221 -0.09902472 -0.061578643 -0.08609762 0.13379163
0.053555686 0.1227143 0.023985276 -0.015226245 -0.014508224 0.03796518 0.14580534 0.06841327
0.15524366 -0.009380021 -0.152962 0.15213355 0.060800083 0.10983668 -0.013491768 0.038520314
0.04066117 0.027164986 -0.075459905 -0.10286176 -0.14332262 -0.053864006 0.08470968 -0.0029780846
0.07282158 -0.017986316 0.12735392 -0.08295299 0.121529 0.15869303 0.14035042 -0.13334943
0.14365226 0.124170765 0.14652196 -0.015281595 -0.14052626 -0.1459722 -0.017275464 -0.07458803
-0.0054917266 -0.14797741 0.06496215 0.047884047 -0.099782184 -0.002735886 0.10777633 0.09278324
-0.04828436 0.090386696 -0.08343023 0.098035425 0.023601234 0.11395074 0.15324892 -0.094621874
0.086050734 0.13946132 -0.13782503 0.043778818 -0.087759346 0.1167172 -0.058681447 0.08946085
-0.084733024 0.14471352 0.14290376 -0.09445589 -0.03650713 -0.06557639 -0.039025854 0.10525395
0.07364437 -0.04835543 -0.14788726 -0.10905022 -0.06940223 0.08606028 -0.09826967 -0.014481776
-0.14213425 -0.1191125 0.029049693 0.092260964 -0.105398946 -0.0885261 -0.14777331 -0.075241864

net.1.weight f4 [256]
00000000: 3f1b 813f 7fbc 7a3f d152 823f 64a9 823f
00000010: 1c91 7b3f d6b7 823f 25f7 7b3f fbdf 803f
00000020: 1ba1 7e3f 7a6b 803f ef2d 793f 44eb 763f
00000030: d04c 813f 3aaf 823f 28d9 823f 3f01 7c3f
00000040: 3cc6 7d3f 897c 833f 17f6 813f 0376 813f
00000050: bfb3 813f 1c2e 833f 2b6b 7b3f 67bb 833f
00000060: 18b0 813f a7a0 833f 36d7 743f 2e15 803f
00000070: d804 813f 0879 813f a76c 773f 7ef3 803f
00000080: 1549 823f 801e 803f ec9f 7d3f 29ac 813f
00000090: 5391 803f d97a 7f3f 4f5e 7a3f 1733 7f3f
000000a0: 267c 7e3f 0ed2 7b3f d5c7 803f c97e 7c3f
000000b0: 4688 7c3f a657 773f 99e3 7a3f b4f2 7f3f
000000c0: 8a53 763f 0e1c 773f 853f 743f 8701 803f
000000d0: efe0 7b3f 5364 833f 9891 813f 1158 813f
000000e0: 05ba 843f 6342 7a3f 0178 823f 977e 823f
000000f0: f447 803f 8894 813f 8d3e 813f 03d0 843f
00000100: 2587 823f a164 7f3f 1db1 813f fc99 7d3f
00000110: 209b 803f aa30 813f 17fc 813f 853b 843f
00000120: 333f 7d3f 94a0 833f a78a 813f fa15 7d3f
00000130: 491d 803f 8404 833f 434d 823f be66 823f
00000140: c407 823f e65c 833f ff78 7f3f 95dc 7e3f
00000150: 37df 813f a2c9 813f 6507 783f 552d 7b3f
00000160: 4ca5 783f 4379 813f 8960 803f fdcc 813f
00000170: 22d0 7f3f 6bb1 763f 150e 833f 6d37 833f
00000180: 5508 823f cece 803f 7b0b 7e3f b093 833f
00000190: e015 7e3f 0805 803f 96a5 803f de22 7e3f
000001a0: 8493 853f d94d 813f 13ba 7c3f ade5 7d3f
000001b0: 7ed5 7f3f 6c60 793f 80dc 803f d24f 733f
000001c0: 27ef 7b3f 4246 843f 3c06 813f c835 783f
000001d0: 8e4b 7e3f d6fa 743f e9d2 7b3f 37c6 803f
000001e0: 33b7 783f 66fa 823f 446a 823f 2964 7f3f
000001f0: 562c 7a3f 119e 803f 5c85 803f ce31 7e3f
00000200: 7e98 803f ceec 7d3f f0a5 793f 0568 843f
00000210: fa2e 803f 40ac 813f c22d 7a3f 3381 793f
00000220: ad50 803f be2d 7d3f 55b8 803f b319 7e3f
00000230: a213 813f eb80 7b3f e51f 803f 13a1 783f
00000240: f91c 803f 8774 823f e9cd 803f 95b6 803f
00000250: 4f5a 823f f61c 803f 5071 833f ff5d 7b3f
00000260: c87c 7b3f f4de 803f 558e 7e3f 2573 853f
00000270: 2908 803f 3171 823f 527c 793f b006 7c3f
00000280: 7769 7f3f 8f2e 7a3f 158f 7f3f ee68 7c3f
00000290: 1e05 803f b54a 803f b1ff 803f b49d 7d3f
000002a0: 4978 803f b44f 7f3f 7154 7e3f 5fce 7b3f
000002b0: 2a43 7d3f 43f4 7f3f 6c68 843f 227b 7d3f
000002c0: a267 7b3f 8722 803f ae0b 7e3f fb14 793f
000002d0: 4f35 813f c35c 7f3f e04f 7e3f 4337 7f3f
000002e0: 0327 7d3f 2b53 7c3f f468 833f fa5a 7f3f
000002f0: 125f 7f3f 3c08 7b3f ee16 803f 8ad0 7c3f
00000300: ae8f 7b3f e5fb 823f 0f8c 753f 4cde 7f3f
00000310: 1a72 803f f3b1 803f fb84 7f3f 2247 803f
00000320: 8d6e 793f 7369 803f 5de3 7e3f fcb8 823f
00000330: ac5b 7d3f 8647 813f c071 803f 596f 823f
00000340: 721b 843f fa39 7e3f b4e9 7a3f d9a7 7e3f
00000350: 64d0 7c3f acfa 803f 8148 7d3f e314 813f
00000360: e355 7b3f 5e55 803f f23a 833f 2580 823f
00000370: 3899 833f f226 773f 1913 7e3f 3aee 7d3f
00000380: 888a 7c3f b4c4 7e3f 093b 7f3f 4ea6 7e3f
00000390: db8a 813f 8968 7d3f 2ebd 7f3f a6fb 813f
000003a0: 6f69 7b3f 730a 813f a90f 7b3f 672d 713f
000003b0: d04f 803f 90c0 803f bd92 843f 2c94 813f
000003c0: c0af 803f 3b94 793f 8e22 763f d60f 803f
000003d0: d59f 7f3f 5e05 813f a95a 7c3f 6823 813f
000003e0: 8feb 803f 37f5 7e3f 3fce 7f3f cce9 813f
000003f0: db4a 793f d903 7f3f e65b 7f3f 254b 833f
1.008644 0.9794387 1.0181524 1.0207944 0.98268294 1.0212352 0.9842399 1.0068353
0.9946458 1.0032799 0.97335714 0.96452737 1.0101566 1.0209725 1.0222521 0.984394
0.99130607 1.027238 1.0153226 1.0114139 1.0132979 1.0248446 0.982104 1.0291566
1.0131865 1.0283402 0.95640886 1.0006464 1.0079603 1.0115061 0.96650165 1.0074308
1.0178553 1.0009308 0.99072146 1.0130664 1.004435 0.99796826 0.97800153 0.9968733
0.99408185 0.98367393 1.0060984 0.9863096 0.98645437 0.96618116 0.98003536 0.9997971
0.9622122 0.96527183 0.95409423 1.0000466 0.98390096 1.0264992 1.0122557 1.0105001
1.0369269 0.9775755 1.0192872 1.0194882 1.0021958 1.0123453 1.0097214 1.037598
1.0197493 0.9976292 1.0132176 0.99063087 1.004734 1.0092976 1.0155057 1.0330664
0.9892456 1.028338 1.0120438 0.9886166 1.0008937 1.0235753 1.0179828 1.0187604
1.015862 1.0262725 0.99794 0.9955533 1.0146245 1.0139658 0.96886283 0.98116046
0.97127223 1.0115131 1.002946 1.0140682 0.9992696 0.9636447 1.0238672 1.025129
1.0158793 1.0063112 0.9923627 1.0279446 0.9925213 1.0001535 1.0050533 0.99271953
1.0435643 1.0101882 0.98721427 0.9917858 0.9993514 0.97412753 1.0067291 0.9504367
0.9841179 1.0333941 1.0080028 0.96957064 0.9933404 0.95695245 0.983687 1.006049
0.9715454 1.0232666 1.018868 0.9976221 0.977239 1.0048238 1.0040698 0.99294746
1.0046537 0.9918946 0.97518826 1.0344244 1.0014336 1.0130692 0.9772607 0.9746277
1.002462 0.9889792 1.0056254 0.99257964 1.0084116 0.9824359 1.0009733 0.9712078
1.0008842 1.0191811 1.0062839 1.005572 1.018381 1.0008838 1.0268955 0.981903
0.98237276 1.006804 0.9943593 1.0425764 1.000249 1.0190793 0.9745532 0.98447704
0.997703 0.9772729 0.998277 0.9859761 1.0001562 1.0022799 1.0078031 0.9906876
1.0036708 0.9973099 0.993476 0.9836177 0.9893061 0.9998209 1.0344367 0.9901601
0.98205006 1.0010537 0.9923657 0.9729764 1.0094393 0.9975092 0.9934063 0.996937
0.9888765 0.98564404 1.0266404 0.99748194 0.9975444 0.9805944 1.0006998 0.98755705
0.9826611 1.0233122 0.9591684 0.99948573 1.0034821 1.0054306 0.9981229 1.0021708
0.9743431 1.003218 0.9956568 1.0212703 0.98968005 1.0099952 1.0034714 1.0190231
1.0320876 0.99307215 0.9801285 0.99474865 0.9875548 1.0076499 0.9893876 1.0084499
0.9817793 1.0026052 1.0252364 1.0195357 1.0281134 0.965438 0.9924789 0.9919163
0.9864888 0.99518895 0.99699455 0.9947251 1.01205 0.98987633 0.9989804 1.0154922
0.98207754 1.0081314 0.9807077 0.94209903 1.0024357 1.0058765 1.0357281 1.0123343
1.0053635 0.97491807 0.96146476 1.0004833 0.9985326 1.0079763 0.98575836 1.008893
1.0071887 0.9959292 0.9992408 1.0149474 0.97379845 0.99615246 0.997496 1.0257307

net.1.bias f4 [256]
00000000: 655f 9abc 11e6 05bd dea4 fcbc 4406 98ba
00000010: e071 00bd 7ba4 223c 1197 7abc 9d2a a0bc
00000020: 0f99 e0bb cb20 65bc 658f 2dbd 7408 d6bc
00000030: 1f18 093c e1d6 03bc 4040 0aba 1501 843c
00000040: 9b2d 9bbc 1759 87bc 95fc 5cbb 1779 d23c
00000050: c70d b8bc 82ca 29ba 2b1f bdbc e634 733c
00000060: b9cb 2b3c 0c41 c23c bc43 03bd 9062 a93c
00000070: 1a2b 7cbb 6e86 943b 47e5 e2bc 8562 01bc
00000080: ae4e 1abc 974c 3a3c b752 46bc 4bac 48ba
00000090: 7d12 3c3b 8de7 443b 621a f8bb 3407 c43b
000000a0: 363b 9bbc d10a b3bc a626 f9bc 6ef9 94bc
000000b0: c8c6 38bd c6a0 bcbc 08b5 af3b fe67 25bb
000000c0: fb43 a6bc 1756 dcbc f897 73bc 5f6f aa3c
000000d0: 52cc 56bd 1846 72bc 757b 673c 0fd4 d63a
000000e0: 10d9 f63b d799 dcbb ff07 9c3c c2cc 053d
000000f0: c834 bd3c 70ab 08bc add4 d73c 9685 bd3c
00000100: 2823 e23c 0ad5 18bc 0359 18bd a4ec 4f3b
00000110: a00e 15bb 99ff 9abc 9c63 b93c 11a4 a63b
00000120: b4cb 23b9 b5f5 8a3c 063d 8c3c 234e 95bb
00000130: f406 99bb 76e7 0c3c 943a fc3c a50d e03c
00000140: e6b6 63bb 1fde a53a b551 e8bc 9d71 363a
00000150: 9f99 973c 94fc 433c 91cb e7bc 6bb3 15bd
00000160: 0200 3ebd 6507 ee3c a226 a2bc bf8e 083b
00000170: 32f8 723c 1e96 2c3b 2af3 543b f2fe 793c
00000180: 56e2 0139 dfba bf3c 819f 51bc 8f19 c2bb
00000190: 04d8 d8bc 66fa fabc a9bf e23c 5a93 513c
000001a0: 07a1 cbbc 7fd8 05bc 37d5 88bc 9423 b3bc
000001b0: f3ac d5bc dd29 9dbb 04ef 46bc 8b81 63bd
000001c0: e0cc ecbb 489b fc3c 84fb 94bc c4ac c8bc
000001d0: e8b2 2ebd 9f0c 08bd e0c0 8fbb 9361 c13a
000001e0: 435c babc b7b0 923c baca 923b 5cd4 6ebb
000001f0: 0cfe a2bc f2a3 14bb d990 1e3c f941 e1ba
00000200: 32f6 8cbc d208 ba37 5ce9 aabc 5214 213c
00000210: 40b7 33bc 5c7b 76bc 5ae3 a23c 5dde 2a3a
00000220: 8a2f c8bc 1b38 903b ba89 b1ba c586 6abc
00000230: 5a63 9b3b ccd4 16bc 1443 5abc dec5 10bd
00000240: 1543 e83b ad73 aabc 28f2 28bc c743 4a3c
00000250: 0892 df3c a4d2 ba3c 5a6f 683d 0682 d1bc
00000260: 98ac 7dbc 8b34 d5bc ffcb 99bc 368b 8c3c
00000270: f133 2c3d c10c 4cbd 6c75 0fbd 2a64 81bb
00000280: 5b29 f1bc 1296 34bc d986 a8bc f41e c63c
00000290: 9f17 163b 8bf5 2cbc a234 393c 19d5 143c
000002a0: c603 bb3c e5eb 1a3a db51 a7bc c626 5dbc
000002b0: 5a28 903b 6dbe c53c a54c b7b9 000c c7bb
000002c0: f494 1abc 1236 a6bc a158 21bd 3d39 88bc
000002d0: eb03 813c 2f30 1b3d 793b 353c f34f a53b
000002e0: fc41 65bc 6d38 52ba 3ddd ee3c 03b2 75bc
000002f0: 8a5a 8d3c 464e 4ebd c718 ad3b 395e 00bd
00000300: ed4e c4bb d51b edbb eff8 c6bc 9203 b2bb
00000310: e2a1 01bc 6d01 19bb aff8 91bb 10b4 b7bc
00000320: 20d8 bbbc 677a f43c 2d52 2abc 0e3d af3a
00000330: ad61 2ebd d5da e33c c790 15bc 9c03 02bb
00000340: 4752 5d3b 8858 e53c 7816 88bb 4d6a b7bc
00000350: 488a 6b3b 9547 da3c c5b4 0dbc 0e65 e4bb
00000360: cda9 e4bb 5d48 4a3c ebb9 b63a 7133 9dbb
00000370: 85a7 bf3c de5a 26bd 594d 1a3c 448f 94bc
00000380: fb0e ebbc 6a57 603b 368a 083c 680f d7bc
00000390: 21f8 29bd da5b a0bc 60b3 c6bc 8873 2a3c
000003a0: 2a67 53bd a715 9dbc b022 47bc d1fa b4bc
000003b0: 1de2 2dba 7c88 323c 2f2b 52bc a546 583b
000003c0: 2f84 0f3c d447 d4bc 86ee f4bc d84f 373c
000003d0: 0230 f63b 6b92 30bd e3a1 62bc 3f10 3dbd
000003e0: cf27 b43c 3c7e 0bbd a3f6 25bb a613 d5bc
000003f0: c4bf 25bd 26a5 2e3c 6657 96bc b743 6f3b
-0.018844316 -0.03269011 -0.030840334 -0.0011598547 -0.0313586 0.0099269105 -0.015294806 -0.01955157
-0.0068541835 -0.013984869 -0.04237308 -0.026127078 0.008367567 -0.008046837 -0.0005273856 0.016113797
-0.018942645 -0.016521974 -0.0033719887 0.025692506 -0.022467507 -0.00064770144 -0.023086151 0.014844155
0.010485583 0.023712657 -0.03204702 0.020676881 -0.003847784 0.004532627 -0.027697219 -0.007897024
-0.009418173 0.0113707995 -0.012104682 -0.0007655068 0.0028697543 0.0030045242 -0.0075715045 0.005982304
-0.018949132 -0.021855744 -0.030413937 -0.018185344 -0.045111448 -0.023025881 0.005362157 -0.0025238986
-0.020296087 -0.02689652 -0.014867775 0.020805059 -0.05244095 -0.014787219 0.014128556 0.0016390103
0.0075332 -0.0067322063 0.019046782 0.032665975 0.023096457 -0.008341655 0.026346529 0.023134988
0.027604654 -0.009328136 -0.037194263 0.0031726742 -0.0022744313 -0.018920707 0.022630505 0.005085476
-0.00015620777 0.016962865 0.017118942 -0.0045564338 -0.0046700183 0.008600106 0.030789651 0.027350256
-0.0034746467 0.0012654698 -0.028359273 0.0006959679 0.01850587 0.011962075 -0.02829531 -0.03654806
-0.046386726 0.02905626 -0.019793812 0.0020837036 0.014829682 0.0026334594 0.003249357 0.015258538
0.00012386715 0.023404537 -0.012794376 -0.005923457 -0.026470192 -0.030636977 0.027679281 0.012791479
-0.024857057 -0.0081692925 -0.016703231 -0.02186755 -0.026083445 -0.0047962503 -0.012141947 -0.055543464
-0.0072265714 0.030835763 -0.018186338 -0.024496444 -0.042651087 -0.03321516 -0.004387006 0.0014753811
-0.022749072 0.01790653 0.0044797333 -0.0036442494 -0.01989653 -0.0022680727 0.009678089 -0.0017185799
-0.017207239 2.2177035e-05 -0.020863228 0.009831505 -0.010968983 -0.01504406 0.0198838 0.000651812
-0.02443673 0.0044012195 -0.0013545074 -0.014314358 0.0047420682 -0.009206008 -0.013321657 -0.03534495
0.007088075 -0.020807112 -0.010311641 0.012345261 0.027291313 0.02280552 0.056746818 -0.025574695
-0.015483044 -0.026026031 -0.01877403 0.017156225 0.042041723 -0.04981685 -0.03502409 -0.003948708
-0.029438665 -0.011022108 -0.020572113 0.024184681 0.0022902263 -0.010556589 0.011304053 0.00908401
0.022828948 0.0005909785 -0.020424774 -0.013498014 0.0043993415 0.024138654 -0.00034961585 -0.0060744286
-0.009434927 -0.020289455 -0.039391164 -0.016628856 0.015748939 0.03788775 0.011061543 0.005044931
-0.013992783 -0.00080192724 0.029158229 -0.014996055 0.017255086 -0.050367616 0.0052824947 -0.031339858
-0.005990854 -0.007235984 -0.024288623 -0.0054325545 -0.007912131 -0.0023346797 -0.004454694 -0.022424728
-0.022930205 0.029843522 -0.010395569 0.0013369636 -0.04257362 0.027814308 -0.009128756 -0.0019838577
0.0033770965 0.027996317 -0.004153069 -0.022389555 0.0035940576 0.026645461 -0.008649056 -0.0069700545
-0.0069782496 0.012346354 0.0013940906 -0.004797392 0.02339531 -0.040614 0.009417855 -0.01813472
-0.028693667 0.003423179 0.008333733 -0.026252463 -0.0414964 -0.019575048 -0.024255455 0.010403521
-0.051612057 -0.019175364 -0.012154266 -0.022092255 -0.000663312 0.010896798 -0.012827679 0.0033001092
0.008759542 -0.025913157 -0.029898893 0.01118847 0.007513047 -0.043108385 -0.013832542 -0.04615807
0.021991638 -0.034055933 -0.002532401 -0.026010346 -0.040466085 0.010659492 -0.018352222 0.0036508867

net.1.running_mean f4 [256]
00000000: 1e4d 243d 0c79 9ebd 487c aa3d 0240 eabd
00000010: 7561 903d 8652 6b3d 757b 8f3d d738 09be
00000020: 456f 81bd 0a53 013e f262 2a3c f39c 9ebc
00000030: ea72 243d e3c1 92bd 2167 0abe 5ccd cb3d
00000040: 3580 babc 6fb4 e939 068a e83d b493 8a3d
00000050: 7fb2 733d 1ec7 69bd cf40 1bbe ccb2 883d
00000060: 887d 163e 7595 283c 1954 123e fd2d 9f3c
00000070: ba34 4ebd 7e46 81bd ba16 0d3e a4a5 72bd
00000080: 12b4 bf3c 42b6 85bb c70b 86bd fb6d ef3b
00000090: 42fe 79bd e720 113e acc4 57bd 9137 bb3c
000000a0: 1264 79bd 4cd2 043d 43ff 8bbd 1e9c 85bc
000000b0: 650d c03d 1716 063e 8a13 11be f349 e13d
000000c0: 7b6a 013d 0974 973d f14b cabd 1b68 bc3c
000000d0: 6d53 b1bc 12ae 553d 6db1 b9bd 7e49 04be
000000e0: 2230 0abc c761 ecbd 54b8 05be cf45 17bd
000000f0: 7011 fe3d 8572 723c 4ec2 ecbd 9d33 393c
00000100: 4989 883c 7494 57bd f026 cb3d 61a6 753c
00000110: 97b1 943d 0d5c 10bd 2530 0a3c 5f43 2ebd
00000120: 0475 ed3d 98de 31bc df8d 85bd e756 533d
00000130: 5d80 c83d c44f a73d 99f1 1bbe 6dd0 b23b
00000140: d962 29bd 6b07 e8bd 17c3 783d fd1f 9b3d
00000150: 5f74 26bd 230a fcbd 170d 0c3e 36eb 07be
00000160: 27c7 793d 2cfe 61bd 3920 fcbd 10e4 87bb
00000170: 50da d0bd 7e8a d6bc 3f16 b5bd 25fd 79bc
00000180: 546e b2bd 66de f43c 1215 813d 8219 af3d
00000190: 080c 27bd 78a1 7c3d d33f 453a a699 34bd
000001a0: 0588 503d 624a 12be ed8b 013d d0b6 153e
000001b0: 58d3 ebbd fd8f b13d 9936 bbbd 0d48 4fbc
000001c0: 5f65 c33d 2c69 27bd b357 343d 0182 8d3c
000001d0: 43c6 eabc fa83 183c b518 213d 942e 59bd
000001e0: 3ce9 edbd 9993 cb3d 9ae3 fc3c a576 3cbc
000001f0: 0283 913d 2756 103e df0c a7bd 58d4 d43c
00000200: ea44 383d ca4c 093a 8bea db3d 0aaa 993d
00000210: 87f6 1abe a0b7 f5bd df17 74bd 0703 a4bc
00000220: 6f29 0dbe bb8b 193e 2bd4 043e e060 e93d
00000230: 4139 bfba bdb3 ccbd 715a ddbd 00f9 b0bd
00000240: 4195 993d 0027 0bbe 4738 eebd 58d1 d8bd
00000250: 1fdc 4fbd b2f4 f9bd 2b00 923d 3936 20be
00000260: beea cfbd 82c8 c83d 5c7c cabd b0c3 213c
00000270: 297a d4bd 4c1c 9f3d a4b9 82bd a6d8 8abd
00000280: 08a1 133e e909 d7bd 0b59 143e 9e13 ff3d
00000290: c087 cdbd 8af4 6fbd d7e6 b7bd 2b2c 093e
000002a0: f039 593d c7ac fc3d a031 ef3c ba78 96bc
000002b0: 5bd5 48bc 9124 2f3d b7fa 153e 41c1 8c3d
000002c0: ceba 1f3e 3172 3bbc e030 1bbe a641 233e
000002d0: 4730 6a3d 9bd7 d93d 7667 15bc 748b 163d
000002e0: 7baa 283d 7ddc c43c ea66 9abd bcc1 ccbd
000002f0: 8f38 15be 2166 62bd ba82 b03d 1ba0 12bc
00000300: 2a4f a13d 98d9 a6bc 7391 013e f126 b5bd
00000310: bf76 f83d 9134 1c3e bb9f 0e3e 98fe 06be
00000320: 9997 183e f32f fd3d 98af 123e e62f 87bc
00000330: b7c5 0cbe ac34 17be a95f 58bc ad52 94bd
00000340: 29fd 19b9 132f 14be 940a 863d 9264 313d
00000350: 7709 d2bd 6e68 08bc af8d d83d d202 b23d
00000360: 37da 5abd fb29 bb3d 0bd8 b1bd 22dc c33d
00000370: 6d0c bc3c c029 e63d a51e 163e dd36 c5bd
00000380: 2e8d b53d ff2c 113e 5d69 0bbe 000d 333d
00000390: fad5 b9bd 27bc ec3d c27e 6cbd d48a c83d
000003a0: 45c7 a8bd f992 193e e348 103e c5be bfbd
000003b0: 38aa 1abd 6e30 7abd dd54 1fbd c662 df3d
000003c0: 9ca1 a23d 4921 4bbd 5adc 15be 3672 dbbd
000003d0: 8453 8abd 7dc5 b93d 2542 cbbd b3d9 32bc
000003e0: 62a7 12be 2640 edbd e807 093d b3f4 c13d
000003f0: 52c8 d7bd 5a68 abbd ae5f 16be 0634 98bd
0.040112607 -0.077379316 0.08324486 -0.1143799 0.070498385 0.057451747 0.070059694 -0.13400589
-0.06320051 0.12629333 0.010399567 -0.019361949 0.040148653 -0.07165887 -0.13515903 0.099512786
-0.022766212 0.00044575657 0.11354451 0.067664534 0.0594964 -0.05707466 -0.15161441 0.06674728
0.14696324 0.01028954 0.14289893 0.019431109 -0.050343253 -0.063122734 0.13778201 -0.05924
0.023401294 -0.0040805647 -0.06545215 0.007306812 -0.061033495 0.14172707 -0.052677795 0.022853645
-0.06088645 0.032427117 -0.06835797 -0.016309794 0.09377555 0.13094364 -0.1416761 0.11000433
0.03159569 0.07395179 -0.09877766 0.02299886 -0.021646226 0.05216796 -0.090670444 -0.1291866
-0.008434327 -0.11542087 -0.13058597 -0.03693181 0.1240567 0.014797811 -0.11560498 0.0113038095
0.016667025 -0.05263181 0.09919536 0.014993281 0.07260435 -0.035244036 0.00843433 -0.04254472
0.115945846 -0.010856293 -0.065212004 0.05159655 0.09790108 0.08169511 -0.15228881 0.005456975
-0.041354034 -0.1132954 0.060732927 0.07574461 -0.040638324 -0.12306621 0.13676868 -0.1327332
0.060980942 -0.055174038 -0.123108335 -0.00414706 -0.1019789 -0.026189085 -0.08842134 -0.015258108
-0.0871245 0.029891204 0.06302847 0.08549787 -0.04078296 0.061677426 0.0007524464 -0.044091843
0.05091097 -0.14286187 0.031627584 0.14620519 -0.1151492 0.08670042 -0.09141273 -0.012651456
0.095408194 -0.040871784 0.04402895 0.017273905 -0.028658992 0.009308809 0.039330203 -0.053022936
-0.116167516 0.099402614 0.030870248 -0.011502896 0.07105066 0.14095365 -0.08156752 0.02598016
0.044987597 0.0005237578 0.10738095 0.075031355 -0.15133105 -0.11997914 -0.059593078 -0.020020975
-0.13785337 0.14994709 0.1297156 0.113954306 -0.0014589207 -0.0999522 -0.10808266 -0.08641243
0.07499171 -0.13589096 -0.11631828 -0.10586804 -0.050747033 -0.12204875 0.07128938 -0.15645684
-0.101521954 0.09803869 -0.09887001 0.009873316 -0.10374863 0.07769069 -0.063830644 -0.06779604
0.14416897 -0.10499937 0.14487092 0.124549136 -0.10035658 -0.05858282 -0.08979576 0.13395755
0.05303377 0.12337642 0.029198468 -0.018368114 -0.012257899 0.04275948 0.14646421 0.06872798
0.15598604 -0.0114408 -0.15155363 0.15943012 0.057174947 0.106368266 -0.009118905 0.036754087
0.041178208 0.024030918 -0.075391605 -0.099978894 -0.14572357 -0.05527318 0.08618684 -0.008949305
0.078764275 -0.020367429 0.1265314 -0.08845318 0.12132024 0.15254427 0.1392812 -0.13183057
0.1490158 0.12362661 0.14324796 -0.016502332 -0.13747297 -0.14766186 -0.013206401 -0.07242332
-0.00014685527 -0.14471082 0.06544986 0.043308802 -0.102557115 -0.008325679 0.10573899 0.08691944
-0.053430762 0.091388665 -0.08683785 0.095634714 0.022955144 0.11238432 0.14660127 -0.09629605
0.088648185 0.14177321 -0.13614412 0.04371357 -0.09074016 0.11559325 -0.057738073 0.09792104
-0.08241133 0.14997472 0.14090304 -0.09362558 -0.03775999 -0.061081342 -0.03889929 0.109075114
0.07940981 -0.04959229 -0.14634839 -0.107151434 -0.067542106 0.09070871 -0.099247254 -0.010916161
-0.14321664 -0.11584501 0.033454806 0.09470501 -0.10536255 -0.08369513 -0.14684936 -0.07431798

net.1.running_var f4 [256]
00000000: 70a8 043f 89fd 9a3e d291 b73e 23e1 923e
00000010: 6084 b83e 02b0 773e 8e81 9e3e 7cb0 cf3e
00000020: 15b1 cb3e f4ae 613e 2534 933e efa7 8b3e
00000030: f3e9 333f d4e2 833e 9edf 5d3e 837c f73e
00000040: f5ae ef3e 06db ab3e 2a19 053f a99e 683f
00000050: 6e74 a83e a045 3c3f 4232 653e f40c dc3e
00000060: 52fb 903e e678 993e 2f78 ee3e c49e 403f
00000070: 9fd5 233e 26a8 743e 61ff 4b3f 1a7c b73f
00000080: af50 1e3f 1364 a93e f8c9 a53e eb5e a33e
00000090: c1a2 8f3e 4ae6 ff3e 1c85 b83e 0d9a e73e
000000a0: 3d27 813e 9c70 103f 44b8 6b3e 0d53 8e3e
000000b0: 2bdd 8d3e 5035 6b3e 04ea 403e 89e8 783e
000000c0: 42f5 a63e 4121 c33e 4bdf 203f 6f97 a63e
000000d0: 6165 b33f 2ac7 5d3e a7a2 583e 3efa ee3e
000000e0: 99c6 583e ae69 df3e 1791 9d3e 0d82 923e
000000f0: 2f09 993e c548 853e 89c2 da3e 2799 053f
00000100: 222d ca3e c91c 0b3f fb9d c63e 5f6d 823e
00000110: 5e1c b13e 5b69 6d3e 8957 cf3e 6329 7a3e
00000120: b223 d63e e381 b03e 72fe d03e 42b3 ac3e
00000130: f5ca 743e ac6b bd3e 564a 313f fbcf b63e
00000140: 5d8b 093f eb0b a03e 1544 ad3e 720b 6d3e
00000150: 45b3 0a3e e7c2 663e 95c2 043f b90b b93e
00000160: 63e3 f03e aaea 8c3e fa78 7f3e 67e4 9c3e
00000170: 6776 863f 10a6 903e 5b97 733e 6afe 833e
00000180: c672 7d3e f298 713e 98f5 c73e 8381 313f
00000190: 5379 f83e a92d 123e 3662 233e 4525 bd3e
000001a0: 65a2 df3e 7c1f 4c3e 5011 853e 976b 163f
000001b0: 956d 5b3e 6b5e e03e 4993 b13e 5109 683e
000001c0: 3b24 8c3e 6041 533e 82d1 913e 6fd0 cd3e
000001d0: aee6 0e3f 5db1 903e 66b5 d33e 10bd 203f
000001e0: 1f5b bc3e eed3 6a3e 7aa8 d13e eb77 9c3e
000001f0: 581f a93e 73c6 073f acb8 983e 2e77 013f
00000200: e0d8 493e 0473 913e df21 d33e 6f60 873e
00000210: e275 183f 9316 ba3e da8c 183f 531d 833e
00000220: 14fc 8d3e bcb1 393f 243e 873e 7ee5 ef3e
00000230: e5ba b23e a05d f23e 982a 823e 19f5 5d3e
00000240: 7c10 333f ed5a dd3e 5df5 bb3e 7bba 013f
00000250: 8686 9a3e e144 303f a5ce 6e3e 6cc9 953e
00000260: a441 fb3e f5d5 d63e 3e60 4e3e d027 663e
00000270: 7647 5a3e f110 b93e 1a82 763f f343 b33e
00000280: 5d8b 593f c110 f43e 5b18 293f ae61 2d3f
00000290: 1b81 063e a6ff 743e 79ef 4d3e dd58 123e
000002a0: 2670 6c3e 390f 9b3e c15b 8a3e 9af4 9d3e
000002b0: f364 023f 463d 8f3e eb3f 4b3e 32bb 623e
000002c0: cee0 6e3f 3039 583f a30a ec3e 7f86 013f
000002d0: 1e77 853e 06cc e93e 49fb 203f 9aa6 833e
000002e0: b575 133f 0dce 9c3e e519 a03f a552 e93e
000002f0: 01c3 573e fb73 843e 20b4 f53e 9688 3c3f
00000300: d693 253f 6e66 1f3e 3a06 ec3e 9c8a 393e
00000310: 0595 593e fe96 2e3f 41cf ff3e 9635 eb3e
00000320: 4aa4 de3e de29 8a3e 78be bc3e a9b7 1c3f
00000330: 2fd0 943e a78c 293f df53 b63e 1dfe 843e
00000340: 6f1c 0b3f be47 a03e 49c4 b33e 1f34 3e3f
00000350: 9882 aa3e aa1e b63e 3cdf aa3e 3375 d23e
00000360: 2daf c33e 2237 983e b473 0f3f 9b06 973e
00000370: cd41 ab3e 71a7 333e 847d 9e3e 60c4 8b3e
00000380: 60b8 c13e 070e b43e 1949 b63e b75f a63e
00000390: 7f4c 8d3e 8c0b a73e d462 c53e b0d2 353f
000003a0: 9887 213f 97b8 8d3e 7ef4 a33e fa1a 123e
000003b0: 0e66 b43e 417c d43e ad4b 123f 579b 073f
000003c0: dc59 0a3f eb96 f63e ba38 b63e 0f68 a13e
000003d0: 775b 2d3f 5e17 f73e fdf4 793e 9c3f 833e
000003e0: 2d6d 693e 9e99 fe3e 4d7f 333f 895a ae3e
000003f0: 7997 3d3e 525f cf3e 66c4 b63e cd2d ae3e
0.51819515 0.30271557 0.3585344 0.2868739 0.36038494 0.24188235 0.30958217 0.40564334
0.3978354 0.22039396 0.2875072 0.2727656 0.70278853 0.25758994 0.21667334 0.48337182
0.4681317 0.3356554 0.5199152 0.90867096 0.3290133 0.7354374 0.22382453 0.42978632
0.28316742 0.2997505 0.46576068 0.7524226 0.15999459 0.23892269 0.7968655 1.4334748
0.61841863 0.33084163 0.32380652 0.31908354 0.2805386 0.49980384 0.36039054 0.4523472
0.2522525 0.5642183 0.2301951 0.27797738 0.277078 0.22969556 0.1883927 0.24307455
0.32608992 0.38111308 0.6284072 0.3253741 1.4015313 0.21658006 0.21155797 0.46675295
0.21169509 0.43635315 0.30774757 0.28614846 0.2988982 0.2603208 0.42726544 0.52186817
0.3948756 0.543408 0.38792405 0.2547407 0.34591955 0.23184721 0.40496472 0.2442985
0.41824108 0.34474096 0.40819126 0.33730513 0.23905547 0.3699621 0.6925405 0.35705552
0.53728276 0.31259093 0.33841005 0.23148897 0.13544948 0.22535287 0.5185941 0.36141756
0.47048482 0.27522784 0.24948493 0.30643007 1.0504884 0.28251696 0.23788206 0.2578004
0.24750814 0.235935 0.3905456 0.69338244 0.48530063 0.1427523 0.15955433 0.36942497
0.43678585 0.19933885 0.2598977 0.5875792 0.21428521 0.43822035 0.34682682 0.22659804
0.27371392 0.20630407 0.28480154 0.40198085 0.5582074 0.28260317 0.41349334 0.62788486
0.3678827 0.22932407 0.4094885 0.3056024 0.33031726 0.53037184 0.29828393 0.5057248
0.19711637 0.28408062 0.4123678 0.2644076 0.59554875 0.36345348 0.5958992 0.2560831
0.27731383 0.72536826 0.26414597 0.46854776 0.34908214 0.47337055 0.2542312 0.21675529
0.6994703 0.43233433 0.36710635 0.5067517 0.30180758 0.688551 0.23321016 0.29255235
0.49073517 0.4196011 0.20153901 0.22476125 0.21316323 0.36145738 0.9629227 0.3501278
0.84978276 0.47669032 0.6605279 0.6772717 0.13135187 0.23925647 0.20110883 0.14291711
0.23089656 0.3028505 0.27023128 0.3085068 0.50935286 0.27976435 0.19848602 0.22141722
0.93311775 0.8446226 0.46101865 0.5059585 0.26067442 0.4566347 0.6288343 0.25713044
0.5760148 0.30625954 1.2507902 0.45570865 0.21070482 0.25869736 0.47988987 0.73645914
0.64678705 0.15566418 0.460985 0.18119282 0.21248253 0.68199146 0.4996281 0.4593932
0.43484718 0.26985067 0.36864066 0.61217743 0.2906508 0.66230243 0.35610864 0.25975123
0.5434026 0.31304735 0.3511069 0.7429828 0.3330276 0.3557027 0.3337344 0.4110504
0.38219586 0.29729563 0.56035924 0.29497227 0.3344864 0.17544343 0.30955136 0.2729826
0.3783598 0.35166952 0.35602644 0.324949 0.27597424 0.32625997 0.38551962 0.7102461
0.63097525 0.27679893 0.3202247 0.14268103 0.35234112 0.41501048 0.5714672 0.52971405
0.54043365 0.48162016 0.35590154 0.31524703 0.6771769 0.48260015 0.24409862 0.25634468
0.22795554 0.49726576 0.7011612 0.34053448 0.18514813 0.4050241 0.35696715 0.34019318

net.4.weight f4 [128, 256]
00000000: 4375 8f38 4604 fb3c c1b1 27bc 158f 093d
00000010: 17a7 1bbb 71db 8fbd ee1c 83bd a6b7 57bd
00000020: c336 34bd 2711 2ebb 5fe6 3f3b 422d 87bc
00000030: 1dcb 0d3d 31e8 f83c cef2 0cbd 17ce d53c
00000040: aa2d d03c fd75 5cbc 49cd 8ebd 0463 4ebd
00000050: ae38 80bd e089 28bc bd78 053d dd5d 2cbc
00000060: f529 533c 3f1a 493c a12b 9abc 92d3 bdbb
00000070: c1eb 2c3c 5c1e c83c 7883 90bd b345 77bd
00000080: bdb3 3ebd c289 4fbd 604f 3c3b d5d6 c9bc
00000090: 35c8 953c 766f 92bb f92b 6bbc 706d 84bc
000000a0: d5d6 183d fd31 6cbd e04e 863c 8170 483d
000000b0: d0d7 203d 4ed0 eaba de6c 883d 2353 f8b9
000000c0: 2376 fbbc 1e55 183d 2334 0b3c b2ea 3dbd
000000d0: aa43 3ebd 9005 bcbc f3db 27bd cce3 edbc
000000e0: 2c00 2ebc c01d 1b3b 43e5 5e3c 3b33 963d
000000f0: d66d 7f3c 266c 50bd ac41 683d 080b 0a3c
00000100: a014 7ebd ddf9 393c 30af d7bc 80ef 943c
00000110: 4730 28bd 1f0c 46bd 993b 643d 757b 0dbc
00000120: e81e 4fbd d2f2 513a 710c 0a3c b6cf 5b3c
00000130: a70e 843d 8a85 2c3b 4481 9e3c 7f42 063d
00000140: df12 8ebd 88cc 20bd 5b33 c03b e738 2a3d
00000150: 3761 5bbc 59bf 813d 8296 27bc 8618 5ebd
00000160: 7cb2 a7bd 3a46 febc c6f6 e73c c7cd 0d3d
00000170: df42 d13c 62b4 9d3d bea2 b93c 4c9b 323d
00000180: d5d5 17bc e305 dbbc 5227 bebd 84ab e3bb
00000190: 89bc 153c 85ea 353c 5a22 c43c 7fe7 3f3c
000001a0: 5179 e7bc b124 2c3c 2d01 7e3d 140a 94bb
000001b0: 3646 9f3c b9c4 41bd 3739 dfbc 8639 c23b
000001c0: 2398 d2bc e333 6a3c 44e7 7abc c448 663c
000001d0: ff54 80bb 06d5 6abc 28d5 0bbc 7fb2 86bd
000001e0: 0f84 8dbd ff40 ecba a9de 6cbd 289c 94bd
000001f0: eb5e 3bbd 2495 ce3c 8abe 8bbc a917 ee3a
00000200: 20d0 aebb aba1 ebbc df77 483c ca32 173c
00000210: 4e25 c53c 6404 91bd 5288 733c b88e 4b3d
00000220: b1b8 413c 19ba 36bd f70d 8f3c 4b59 273c
00000230: 2c70 43bc 02b1 203d 1cd9 2b3d 5c39 4f3d
00000240: 55ae d9bc ca71 d0bc d4dc 4bbd 3a83 46bc
00000250: 4020 14bd ca1d 7c3d ce79 46bd 58b4 2dbd
00000260: 5f8c 90bc 7b28 16bd f9e0 083d 70db f2bc
00000270: d664 0abd 3e9d 4ebd 2021 9fbd ef79 2f3d
00000280: d2ca 7cbc a8dc 943d 730f 3dbc faa6 68bc
00000290: b689 9bba 06a1 d5bc cf79 a43c 80b4 7abc
000002a0: 111c a6bd 604b d0bc 2e75 babb 19b6 dc3c
000002b0: 46eb 9339 6601 be3c 066e 17bb 8168 20bd
000002c0: 2e74 33bd af91 33bd 017d 22bd 93ca 6b3d
000002d0: 5ef2 043d d49f 92bd bb11 873a 4cfa 8cbd
000002e0: d70e 81bd aedb afbc 1838 22bd 265d 05bd
000002f0: e9d4 43bd ade2 503d 3b37 da3c bc75 b4bc
00000300: 41d2 ce3c 8b08 543c 892f ddbb 1983 97bd
00000310: 5d5c debb fd83 4fbc 6613 353d 107e c5bd
00000320: ce83 ca3b 96e3 be3b 9d3d 32ba 11a4 593c
00000330: e7d7 88bc 80d9 993c 207d a13d c536 acbd
00000340: dd88 613d cb76 fcbc e102 6c3d 786a 16bd
00000350: 799c 573d d630 1ebd 1252 0b3d 4c68 62bd
00000360: 7a52 2bbd 70f5 e3bb a28e babd aa54 18bd
00000370: 1651 5fbd 129b dd3b d56b 61bb 1a37 5fbc
00000380: 4792 90bb dd3b 54bd 6839 69bd d5c6 76bd
00000390: 9d92 8f3c ea6d a63c b1b6 1abc 51ce 3abd
000003a0: 11da 4abd 31dd 04bc 11bc a6bc 6aef 223d
000003b0: 25d7 31bd 8374 3c3d 6e53 833c c4e6 7ebd
000003c0: f55b 2cbc 7573 563c ca93 18bd 93a0 aeba
000003d0: e73a 753a 11d6 ab3c 17d5 d13c 5b58 fdbb
000003e0: c93a 27bd 3496 55bd 9687 06bd 5274 fcbc
000003f0: 7937 80bd 88d2 823d 3a4c 1cbc 4d6a 34bd
6.840613e-05 0.030641686 -0.010235251 0.03358372 -0.0023750716 -0.07024277 -0.06402002 -0.052665375
-0.043997537 -0.0026560517 0.00292816 -0.016501073 0.034617532 0.030384155 -0.034411244 0.026099248
0.0254124 -0.013455865 -0.06972749 -0.050387397 -0.06260811 -0.010286778 0.032585848 -0.010520426
0.012888421 0.012274324 -0.018819632 -0.0057930434 0.010554255 0.024428539 -0.07056326 -0.060369205
-0.04655813 -0.050668485 0.0028733835 -0.024638573 0.018283943 -0.0044688536 -0.014353746 -0.016165465
0.037314255 -0.05766486 0.016395032 0.048935417 0.039268315 -0.0017914863 0.0666139 -0.00047364188
-0.03069598 0.03719055 0.008496317 -0.0463664 -0.04645125 -0.022951871 -0.040981244 -0.029039286
-0.010620158 0.0023668855 0.013604465 0.0733399 0.015590152 -0.05088439 0.056703255 0.008425482
-0.06203139 0.011351076 -0.026328653 0.018180609 -0.041061666 -0.048351403 0.0557209 -0.0086353915
-0.050566584 0.00080089003 0.008425818 0.013416221 0.06448107 0.0026324713 0.019348748 0.03277826
-0.06937193 -0.039257556 0.005865497 0.041558173 -0.013389877 0.06335325 -0.010228755 -0.054222606
-0.0818834 -0.031039346 0.028315913 0.034620073 0.025544582 0.07700421 0.02266061 0.043605134
-0.00926729 -0.026736205 -0.092848435 -0.0069479365 0.009139189 0.011103277 0.023942161 0.011712908
-0.02825609 0.010506795 0.06201284 -0.004517803 0.019442659 -0.04730675 -0.027248962 0.0059272675
-0.02570731 0.014294597 -0.015313927 0.014055435 -0.0039163823 -0.014333015 -0.008534707 -0.06577014
-0.06909954 -0.0018024741 -0.057829533 -0.07256347 -0.045744818 0.0252176 -0.01705863 0.001816501
-0.005334869 -0.028763613 0.012235611 0.009228418 0.02406564 -0.070809156 0.014864044 0.049696654
0.011823819 -0.04461107 0.017462714 0.01021416 -0.011928599 0.039231308 0.0419551 0.05059181
-0.026572386 -0.025444884 -0.049771145 -0.012116248 -0.03616357 0.061551847 -0.048456006 -0.042408317
-0.01764506 -0.0366597 0.033417676 -0.029645652 -0.03378757 -0.050442927 -0.0776999 0.042840894
-0.0154292155 0.07268649 -0.011539328 -0.014199967 -0.0011866603 -0.026077759 0.020077614 -0.015301824
-0.08110822 -0.025426567 -0.0056902384 0.0269423 0.00028213317 0.023194026 -0.002310635 -0.039162163
-0.04381197 -0.043840107 -0.039669994 0.057566237 0.0324577 -0.07159391 0.0010304967 -0.06883678
-0.063016586 -0.021467056 -0.039604276 -0.032559536 -0.04781047 0.050997425 0.026637664 -0.022028796
0.025246741 0.01294149 -0.0067500514 -0.07398052 -0.006785913 -0.012665746 0.044207953 -0.09643185
0.006180263 0.00582547 -0.0006799342 0.013283745 -0.016704513 0.01878047 0.07885194 -0.08408884
0.055062164 -0.030818364 0.057619933 -0.03672263 0.05263946 -0.038620792 0.034013815 -0.055275247
-0.041826703 -0.0069567487 -0.09109236 -0.037190117 -0.05452069 0.0067628706 -0.0034396548 -0.013623977
-0.004411969 -0.051814903 -0.056939512 -0.060248215 0.017525965 0.020316083 -0.009442971 -0.045606915
-0.04952437 -0.008109377 -0.020353349 0.039779104 -0.04341807 0.04600955 0.016030993 -0.062231794
-0.010519971 0.013089051 -0.037250318 -0.0013323001 0.00093547854 0.020976098 0.025614304 -0.00773148
-0.040827546 -0.052145198 -0.03284415 -0.030817185 -0.062605806 0.06387812 -0.009539658 -0.04404669

net.4.bias f4 [128]
00000000: 9fec 37bd 28f5 53bd a5f0 533d 3651 b23c
00000010: 8120 433d 4852 6a3d 9c83 283d 1a57 773b
00000020: 837b 86bc 8fda 53bd b784 04bd 2de1 6cbd
00000030: 68e9 c03c bc55 70bd 8434 2c3d 897c abbc
00000040: c8c0 253d cbe0 2dbd bf72 4a3d dd90 283d
00000050: ba2e 67bd 482e 82bd 2c98 19bd a164 8b3c
00000060: 2bb1 74bd 6111 9d3c d821 63bd 7f2d d43c
00000070: 5463 8a3c 9420 3c3d d4b0 d4bc 8e67 6d3d
00000080: 0c77 dabc ff9c 70bd 8c13 a2bc 2a88 36bd
00000090: 721c f03c 6dea cabc f72a 5bbd e620 eebc
000000a0: 28a7 13bc 56b0 d93c 2b2f 823c ed23 ce3c
000000b0: d175 c93c 0bfd bc3c c732 28bc 8d40 5abd
000000c0: f120 82bb 12b4 4bbd 7c0f 6ebc ccca 723d
000000d0: 0404 953c 50e2 ec3c 9447 b63c b0cf 7b3d
000000e0: 3865 03bd a475 683d 2548 ee3b ca21 49bd
000000f0: a101 3dbc b8e3 233c 9b90 0bbd adf5 d43c
00000100: 1e26 283c 1499 083d 904d 6dbd 5676 2fbd
00000110: 0e6d 44bc bd82 13bd e60b 1c3d fc8d e33c
00000120: b337 293c aab3 66bd 1e9c 6fbc e0bb 273c
00000130: 5a0d 00bd 2fca 16bd 6303 313d 205c e03c
00000140: 6aec c8bc cfff 6a3d c1cd 653d 8741 5e3d
00000150: 911a 793d b90a 65bd 8acc 37bd 296f c93b
00000160: 8f9e 943c efeb 6abc 0df3 01bc 1dcf e73c
00000170: d7a4 893c b035 67bd 6e70 3dbd 8a05 613d
00000180: fdc4 75bc 30dc 3cbb d1da 2dbd 106d b63c
00000190: 70bd 74bd ed27 2d3d 43b2 78bd 89a1 763d
000001a0: 74d2 2cbd f38b 18bd 4fec 28bc 8f46 13bd
000001b0: 7845 7d3d 5dec 30bd af9b 7a3c 1830 093d
000001c0: 9264 2d3d 0fcc 4dbc 6c20 6ebd 135e 1d3d
000001d0: 7c63 9bbc f10c 573c e71a 54bd 69a2 4ebd
000001e0: b455 07bb 30de ec3b 4af0 8d3b 52a4 3abd
000001f0: 445f 47bc b754 4e3d 84b1 40bd 3579 45bd
-0.044903394 -0.05174747 0.05174317 0.02176724 0.04763842 0.057207376 0.041141137 0.0037741126
-0.016416317 -0.051722106 -0.03235313 -0.05783193 0.023548797 -0.058675513 0.04204227 -0.020933406
0.040467054 -0.042450707 0.049425837 0.041153777 -0.056441046 -0.06356484 -0.037498638 0.017015757
-0.059739273 0.019173326 -0.055452198 0.0259006 0.016893066 0.045929506 -0.025963224 0.057960086
-0.026668094 -0.058743473 -0.019784711 -0.04456345 0.029310439 -0.024769986 -0.05350777 -0.029068422
-0.009012021 0.026573341 0.015891632 0.025163615 0.024592312 0.023069879 -0.0102660125 -0.053284217
-0.003971212 -0.049732275 -0.014530059 0.059275433 0.018190391 0.028916508 0.022250928 0.061477363
-0.03207895 0.056752816 0.007271784 -0.04910449 -0.011536033 0.010003023 -0.034073453 0.025996054
0.010262994 0.03334911 -0.057935297 -0.042837463 -0.011988891 -0.036013354 0.038097285 0.027777664
0.010328221 -0.056323685 -0.014624624 0.010237664 -0.031262733 -0.03681391 0.04321612 0.027387679
-0.024526794 0.057372864 0.056104425 0.05426171 0.06081635 -0.05591843 -0.044872798 0.0061472845
0.018142013 -0.0143384775 -0.007931483 0.028297001 0.016802235 -0.056447685 -0.0462498 0.054936923
-0.015000579 -0.0028817765 -0.042445008 0.022268802 -0.059750974 0.042274404 -0.06071688 0.060212646
-0.04219289 -0.03724284 -0.010310247 -0.03595596 0.06183383 -0.043194164 0.015295907 0.03349313
0.04233224 -0.012560858 -0.05813639 0.038419794 -0.018968336 0.013125644 -0.05178347 -0.050447855
-0.0020650448 0.0072286353 0.004331623 -0.045566864 -0.012168709 0.05037376 -0.047044292 -0.048211295

net.5.weight f4 [128]
00000000: 11b1 7e3f 86df 803f b3e1 783f c6a6 7c3f
00000010: f4cc 7d3f 6e75 7f3f 3651 803f c139 803f
00000020: 161b 803f 3527 7d3f a1a4 833f aa7f 813f
00000030: 41b4 803f 3821 813f f018 823f 3b27 7c3f
00000040: 9566 7b3f b9e2 7d3f 2e5f 843f a45f 823f
00000050: ab73 7e3f 448b 7d3f 82f8 813f a883 7c3f
00000060: 7587 7d3f da1b 7f3f ca66 7e3f 6004 7e3f
00000070: 93af 763f 6ae7 803f c23b 803f 6000 823f
00000080: 7537 773f 2a6a 713f d913 7a3f 6522 793f
00000090: 5b14 803f 4299 7d3f d7ee 813f 480e 7c3f
000000a0: 4c54 823f 0792 843f 90f4 7c3f 6f00 7c3f
000000b0: c50c 813f adb7 833f f867 7c3f edc0 7a3f
000000c0: 62ea 7f3f ae16 7a3f 11a2 7c3f 7f56 7a3f
000000d0: 935e 7f3f 06d1 803f 0b18 7b3f 656d 813f
000000e0: d603 823f 53ce 803f bf87 7c3f 25f2 7b3f
000000f0: 756c 803f 532c 7b3f 2d5c 7c3f 1366 803f
00000100: b9fa 803f 2310 823f c034 7a3f c9ba 793f
00000110: d7b6 7c3f 0078 7f3f 8acc 823f 31f4 783f
00000120: 5e2c 7d3f 1581 7e3f ff08 813f 625b 7d3f
00000130: 9c65 7c3f 2af8 833f eef6 823f cdf5 823f
00000140: 59c6 833f 1f60 823f 5fd5 7c3f 3ae1 7b3f
00000150: 0537 843f ac9d 7f3f f23e 843f e5c9 823f
00000160: 32de 783f f18c 7e3f b2ca 7e3f 2ee9 813f
00000170: 2c52 773f 1212 813f ce97 823f a3b3 803f
00000180: c8e7 813f af92 7c3f a466 7f3f b925 7c3f
00000190: 92a4 7b3f 5f21 7c3f 08e0 7c3f 9e61 833f
000001a0: a8f2 7f3f 41ce 863f 1b56 7a3f df6b 813f
000001b0: 4b92 853f 6bef 823f 07db 803f 2f1c 7f3f
000001c0: 9d39 803f a163 803f 4f8e 7e3f 0c36 813f
000001d0: aa92 7e3f 9838 813f 7ccd 7d3f 38f0 7e3f
000001e0: a22c 7a3f f66b 813f 12cb 833f 9db3 7a3f
000001f0: 8840 7c3f 5f25 853f 5505 823f 3c37 7a3f
0.9948893 1.0068214 0.9721939 0.98691976 0.9914086 0.9978856 1.0024784 1.0017625
1.0008266 0.9888795 1.0284616 1.0117085 1.0055009 1.0088263 1.016386 0.9849736
0.982034 0.99174076 1.0341547 1.0185437 0.99395245 0.9904063 1.0153964 0.9863839
0.99034816 0.99651873 0.99375594 0.99225426 0.96361655 1.0070622 1.0018237 1.0156364
0.96568996 0.9430262 0.97686535 0.97318107 1.0006212 0.9906198 1.0151013 0.9845929
1.0181975 1.0357064 0.9881067 0.9843816 1.0082022 1.0290428 0.98596144 0.9795063
0.99967015 0.97690856 0.98684794 0.9778823 0.99753684 1.0063789 0.9808356 1.011151
1.0157421 1.0062965 0.9864463 0.9841636 1.0033098 0.9811451 0.9857815 1.003115
1.0076514 1.0161175 0.9773674 0.97550637 0.9871649 0.9979248 1.021867 0.97247607
0.98895824 0.99415714 1.008087 0.98967564 0.98592544 1.0310109 1.0231607 1.0231262
1.0294906 1.0185584 0.9876308 0.98390543 1.0329291 0.99849963 1.0331709 1.0217863
0.97214043 0.9943381 0.9952804 1.0149286 0.9660976 1.008364 1.0202577 1.0054821
1.0148859 0.9866132 0.9976599 0.9849506 0.9829799 0.9848842 0.98779345 1.0264165
0.9997964 1.0531694 0.97787637 1.0111045 1.043527 1.0229315 1.0066842 0.9965238
1.0017582 1.0030404 0.99435896 1.0094619 0.9944254 1.0095396 0.9914167 0.99585295
0.97724354 1.0111072 1.0296347 0.9793032 0.98535967 1.040203 1.0157877 0.9774053
