models/nn_model.onnx (onnx, 2372 bytes, 2 tensors)

net.8.bias f4 [64]
0	0x3f571a07	0.8402409
1	0x3f0b591d	0.5443285
2	0x3d994aca	0.07484968
3	0xbcd43bd2	-0.02590743
4	0x3e548f25	0.2075773
5	0x3f0ec5cb	0.5577056
6	0x3e9d2732	0.30693966
7	0x3e837b96	0.25680226
8	0x3f278056	0.654302
9	0x3f788e88	0.97092485
10	0x3ed469ad	0.41486874
11	0x3f1bda5f	0.6088008
12	0xbf1b8c79	-0.6076122
13	0x3f8c389c	1.0954776
14	0x3f299ea2	0.6625768
15	0xbe7cf120	-0.24701357
16	0x3f89e36c	1.0772529
17	0xbf40b360	-0.75273705
18	0x3f67a050	0.9047899
19	0x3f45498d	0.77065355
20	0x3f73ad2f	0.9518613
21	0xbfa931fc	-1.3218379
22	0x3e923aaf	0.28560397
23	0xbe47a380	-0.19495964
24	0x3ef3197d	0.47480384
25	0x3f50f41e	0.81622493
26	0x3f874fac	1.0571189
27	0x3f24ef20	0.64427376
28	0x3f0c6738	0.54845
29	0xbf492155	-0.78566486
30	0x3eb496f8	0.3527143
31	0x3f787d01	0.9706574
32	0x3f43a044	0.7641642
33	0x3d5f1b24	0.054469243
34	0x3f4c4015	0.7978528
35	0xbedc68f3	-0.4304882
36	0x3f26ce30	0.6515837
37	0xbe9b15ae	-0.30289978
38	0xbe939426	-0.28823966
39	0x3efa1679	0.4884527
40	0x3dcca312	0.09992041
41	0xbee05a1d	-0.4381875
42	0xbeee1521	-0.46500495
43	0x3e6daf8c	0.23211497
44	0xbe9d222c	-0.30690134
45	0x3ee7a834	0.45245516
46	0x3e8ca62c	0.2747053
47	0x3f276e42	0.65402615
48	0x3f55ec8f	0.83564085
49	0xbebc93da	-0.36831552
50	0x3e94a6b6	0.2903344
51	0x3f2b6180	0.6694565
52	0xbecfbc63	-0.40573415
53	0x3eaaa248	0.33326936
54	0x3f8ae31e	1.0850561
55	0x3eecfad5	0.4628512
56	0x3f1deb76	0.6168741
57	0x3f621f66	0.8832916
58	0x3f90de11	1.1317769
59	0x3ef22f1b	0.47301564
60	0x3f0937bb	0.5360066
61	0xbee19731	-0.44060662
62	0xbeb281e7	-0.34864733
63	0x3f45c4ba	0.77253306

net.12.weight f4 [1, 64]
0	0xbd97302a	-0.073822334
1	0xbdd60bd7	-0.10451477
2	0xbdec926e	-0.11551367
3	0xbcbb4260	-0.022858799
4	0xbca3ad04	-0.019979961
5	0xbdc162ab	-0.094426475
6	0xbd1ed025	-0.03877272
7	0x3da27caa	0.07933934
8	0xbe0f24b2	-0.13978842
9	0xbd92fc5e	-0.071770415
10	0x3c69e398	0.014275454
11	0xbde87c36	-0.11351816
12	0xbd31ce54	-0.04340966
13	0xbdf07ea0	-0.11742902
14	0xbdea781d	-0.11448691
15	0x3c0cacc4	0.008586112
16	0xbdcb24d2	-0.09919132
17	0xbe00eba0	-0.12589884
18	0xbdf0798c	-0.11741933
19	0xbe0671aa	-0.13129297
20	0xbe064473	-0.13112049
21	0x3b994f6a	0.0046786563
22	0xbe13fd58	-0.14452112
23	0xbd650892	-0.055916376
24	0xbd33baaf	-0.043879207
25	0xbde1e2e7	-0.11029606
26	0xbdd707bf	-0.10499524
27	0xbd8947c0	-0.06703138
28	0xbda508b5	-0.08058301
29	0x3ccc6c03	0.024953848
30	0x3d3970b1	0.045273487
31	0xbe13f259	-0.14447917
32	0xbe1a390e	-0.15060827
33	0x3d8eec22	0.069786325
34	0xbe07bdce	-0.13255998
35	0x3c7111f3	0.014713752
36	0xbd893e94	-0.06701389
37	0x3b903125	0.0044003897
38	0x3d2749d0	0.040841877
39	0x3d415f4b	0.04721002
40	0x3d54ee41	0.05198503
41	0x3d85d1d5	0.06534163
42	0x3c8b93df	0.017038284
43	0xbd66a276	-0.05630728
44	0xbd2ddd81	-0.04244757
45	0xbcb0de22	-0.021590296
46	0x3d012766	0.031531714
47	0xbe0a7f89	-0.13525213
48	0xbd902c3f	-0.07039689
49	0x3d29ac2f	0.041423973
50	0x3c6734ea	0.014111737
51	0xbdf09944	-0.11747983
52	0x3d46d124	0.048539296
53	0xbdfb2035	-0.122620024
54	0xbd674320	-0.0564605
55	0xbdd8946b	-0.105751835
56	0xbd96253c	-0.07331321
57	0xbdb03dfa	-0.08605571
58	0xbdbbddf9	-0.09173197
59	0xbdb30329	-0.08740837
60	0xbd7ceaa9	-0.061747227
61	0x3d543853	0.051811527
62	0x3cc9b78c	0.024623655
63	0xbe082aab	-0.13297527
