models/nn_model.onnx (onnx, 2372 bytes, 2 tensors)

net.8.bias f4 [64]
000000 9d 4e 36 3f 76 a1 b1 bd 15 35 25 3f 1a bf 80 3f
       0.71213704 -0.08673374 0.6453412 1.005832
000010 92 03 1f bf 4a ce 6a bf 08 af 23 3f b0 21 5b bf
       -0.6211482 -0.9172102 0.6393895 -0.8559828
000020 99 10 04 3f c1 90 3d bf bc 6c a8 be 1f b8 03 3f
       0.51587826 -0.74049 -0.32895458 0.5145282
000030 8a 46 da 3e da fb d3 3f 7a b0 2f bf 3c 5d ae 3e
       0.42631942 1.6561234 -0.68628657 0.34055507
000040 b7 3c ac 3f 0a 14 fa 3e 58 d3 5d 3f 2f e2 e3 3e
       1.3456029 0.48843414 0.8665061 0.44508502
000050 a0 16 ac 3f 4e 6e 88 3f bf a2 ea be 14 a9 8f 3f
       1.3444405 1.0658662 -0.4582729 1.1223474
000060 a3 50 ae be a0 71 06 be 60 99 42 3d b6 e0 d0 3d
       -0.34045896 -0.13129282 0.04750955 0.1019911
000070 62 c7 05 3f bb f5 f6 3e 6c 2a 45 3f 6b 50 76 3f
       0.5225736 0.48234352 0.77017856 0.9621646
000080 5b ce d2 be fb 9d 1d 3f 72 ab 50 3f 61 ee 47 3f
       -0.41173062 0.61569184 0.81511605 0.7809811
000090 e6 a8 8f 3f 90 9f 49 bf 31 23 7b 3e 36 9a 1e 3e
       1.1223419 -0.787591 0.24525143 0.15488514
0000a0 80 b6 b8 3f 85 52 37 3f 17 89 d4 3e 90 82 a8 bc
       1.4430695 0.7161029 0.4151084 -0.02057007
0000b0 dd b1 26 3f 90 40 0c 3f c6 2a 85 be 7e f4 22 3f
       0.6511515 0.54786015 -0.26009196 0.63654315
0000c0 fe 76 9d 3e d2 63 f0 bd 00 9d 46 3e 34 9e ce 3e
       0.30754846 -0.11737789 0.19395828 0.40355074
0000d0 02 ec 9f 3f 8e 34 29 3d 27 40 2c 3f 04 8f 64 be
       1.2493899 0.041309886 0.6728539 -0.22320181
0000e0 c8 a8 d7 3e 3b 1a 22 3f c1 02 95 bd 97 e8 9a 3f
       0.42120957 0.63321275 -0.07275916 1.2102231
0000f0 76 82 20 be a8 26 8f 3f c0 55 72 3f 6c 42 4b 3f
       -0.15674767 1.1183672 0.94662094 0.79398227

net.12.weight f4 [1, 64]
000000 9c 1d 0a be fe 48 0f bd 9e c4 e4 bd cf e2 aa bd
       -0.13487858 -0.03498172 -0.11170314 -0.083440416
000010 b5 4e 17 3d b7 48 5e 3c e3 1e f0 bd 2f 81 f9 3c
       0.036940295 0.013567141 -0.11724641 0.030457107
000020 f7 42 23 be 73 da d8 3c e4 b1 4d 3c 1a 61 01 3d
       -0.15943514 0.026471352 0.012554619 0.031586744
000030 72 50 c6 bc dc 15 c6 bd 74 e6 8f bc 7f 94 39 3b
       -0.024208281 -0.09672138 -0.017565943 0.002831727
000040 8a 7b b3 bd e9 91 ce bd 47 f7 06 be 56 7d d2 bd
       -0.087637976 -0.10086424 -0.13180266 -0.10277812
000050 30 b6 ac bd 70 0b a9 bd 29 86 83 bc 8b 58 91 bd
       -0.08433187 -0.08254135 -0.016055183 -0.07096966
000060 c7 47 04 3d a3 f1 5c 3d cb fe 51 3d 16 d0 14 3d
       0.032295015 0.05394138 0.05126838 0.03633126
000070 da b2 8c bd e6 a2 2a be c2 2a 33 be 6d 19 19 be
       -0.06870051 -0.16663703 -0.1749678 -0.14951105
000080 91 8e f9 3c 48 79 18 be ac 7a 92 bd 19 ac 11 be
       0.030463489 -0.14890015 -0.07152304 -0.14225806
000090 2d de 33 bd ec 6a fb 3c f1 98 d0 3c cd 58 78 bb
       -0.043913055 0.030690633 0.025463553 -0.0037894726
0000a0 32 0a db bd 8e 77 56 bd c3 27 39 bd 55 64 5d 3d
       -0.10695304 -0.05236011 -0.045203935 0.054050762
0000b0 cf 6e 3f bc 17 7f 04 be 05 89 ce 3c ac f8 22 be
       -0.011684134 -0.12939106 0.02521182 -0.15915173
0000c0 8c 13 b0 3c 20 82 9d 3c c2 24 b9 bd 80 9a f4 bd
       0.021493696 0.019227087 -0.09040214 -0.11943531
0000d0 a9 20 89 bd 79 ec 91 3c aa 59 0a be bc a5 ea 3c
       -0.066956826 0.017812954 -0.13510767 0.028643481
0000e0 0b 97 80 3d 1e ed d9 bd 6f 53 8f 3c 5d c5 eb bd
       0.06278809 -0.1064093 0.017495839 -0.115122534
0000f0 de db b5 bd 5d 65 bb bd 07 2f fa bd d7 85 d9 bd
       -0.08879827 -0.09150193 -0.12216001 -0.10621231
