models/nn_model_quant_dynamic.pt (torch, 71473 bytes, 15 tensors)

cpu f4 [256]
0	0x3d1f4284	0.038881794
1	0xbd93a18c	-0.07208547
2	0x3dad1ef3	0.08453169
3	0xbdeb5300	-0.1149044
4	0x3d89bdf6	0.06725685
5	0x3d68a84f	0.056801137
6	0x3d913868	0.07090837
7	0xbe0d0974	-0.13773137
8	0xbd807428	-0.06272155
9	0x3dfa6abc	0.12227389
10	0x3beceb69	0.0072302115
11	0xbc822cc5	-0.015890488
12	0x3d1ea539	0.038731787
13	0xbd93a9cf	-0.07210123
14	0xbe0b164e	-0.13582727
15	0x3dcbf206	0.09958272
16	0xbcc2312c	-0.023705088
17	0x3a9ac6e9	0.0011808547
18	0x3dee8acc	0.11647567
19	0x3d8c3599	0.068461604
20	0x3d6b052e	0.057377987
21	0xbd55cb30	-0.052195728
22	0xbe1e8615	-0.15480836
23	0x3d8efbac	0.06981596
24	0x3e16f9c4	0.14743716
25	0x3c4d1f61	0.012519688
26	0x3e17e7c2	0.14834502
27	0x3cd2346a	0.025659759
28	0xbd65f255	-0.05613931
29	0xbd7b7540	-0.061391115
30	0x3e12b0aa	0.14325204
31	0xbd8b0cf6	-0.067895815
32	0x3cb71c7b	0.022352448
33	0xbafa213d	-0.0019083392
34	0xbd777502	-0.06041432
35	0x3c166cc1	0.009181202
36	0xbd68d062	-0.056839354
37	0x3e0dab8e	0.13834974
38	0xbd56dc4f	-0.052456196
39	0x3cea22f4	0.02858112
40	0xbd785c3e	-0.060634844
41	0x3d01fcc2	0.03173519
42	0xbd85402c	-0.065063804
43	0xbc77b8c5	-0.015119736
44	0x3dc19d8d	0.094538786
45	0x3e05d7aa	0.1307055
46	0xbe104457	-0.1408857
47	0x3de849a7	0.11342173
48	0x3d0ce06f	0.034393724
49	0x3d97e776	0.074171945
50	0xbdcf4bb7	-0.10121863
51	0x3cc38d11	0.023870977
52	0xbca7914b	-0.020455023
53	0x3d57408c	0.05255179
54	0xbdb91f7a	-0.09039207
55	0xbe0075e6	-0.12544975
56	0xbc0d6da9	-0.008632102
57	0xbdea9351	-0.114538796
58	0xbe031a40	-0.12802982
59	0xbd112f3a	-0.03544543
60	0x3df4711a	0.11935635
61	0x3c4cdd9c	0.012504008
62	0xbdf4023b	-0.11914488
63	0x3c4f5979	0.012655609
64	0x3c8b76e2	0.017024461
65	0xbd5a2a64	-0.053263083
66	0x3dd4342a	0.10361512
67	0x3c7f1097	0.01556792
68	0x3d946a3e	0.072468266
69	0xbcf11bb5	-0.029432157
70	0x3bb4cd49	0.005517636
71	0xbd20980d	-0.039207507
72	0x3dee2bdb	0.116294585
73	0xbc166416	-0.009179136
74	0xbd888ebd	-0.0666785
75	0x3d627652	0.05528862
76	0x3dc9255d	0.098215796
77	0x3dada3ee	0.08478533
78	0xbe187318	-0.14887655
79	0x3b5c462f	0.0033611169
80	0xbd1e90c7	-0.03871229
81	0xbdeacc02	-0.11464693
82	0x3d61a75d	0.05509125
83	0x3d9c8ee1	0.076444395
84	0xbd24993f	-0.04018521
85	0xbdf981d0	-0.12182963
86	0x3e0c4b76	0.13700661
87	0xbe043599	-0.12911071
88	0x3d83a591	0.06428064
89	0xbd5a4017	-0.053283777
90	0xbdf93dfe	-0.12170027
91	0xbb55717b	-0.003256886
92	0xbdc09f44	-0.094053775
93	0xbccca41f	-0.024980603
94	0xbdb7eb4c	-0.08980426
95	0xbc9aa0a5	-0.01887543
96	0xbdadb315	-0.08481423
97	0x3cf4adf8	0.029868111
98	0x3d85cd5f	0.06533312
99	0x3db120ad	0.086488105
100	0xbd33254e	-0.04373675
101	0x3d7e03df	0.06201541
102	0x3b3ad5f0	0.0028508864
103	0xbd36c883	-0.044624817
104	0x3d4e2c20	0.05033505
105	0xbe1678bf	-0.14694498
106	0x3d08b0da	0.033371784
107	0x3e17f135	0.14838107
108	0xbdecc9aa	-0.11561902
109	0x3da31a16	0.0796396
110	0xbdbfb3f3	-0.093604945
111	0xbc551448	-0.013005324
112	0x3db90571	0.09034241
113	0xbd2c1602	-0.042013176
114	0x3d27defc	0.04098414
115	0x3ca1567c	0.01969456
116	0xbcefb2f1	-0.02926013
117	0x3c1af4b9	0.0094577605
118	0x3d29bd84	0.0414405
119	0xbd6ed428	-0.058307797
120	0xbdf1e7e0	-0.11811805
121	0x3dcbc0db	0.09948894
122	0x3d11d8be	0.035607092
123	0xbc18a7f2	-0.009317385
124	0x3d947bf7	0.07250207
125	0x3e11e368	0.14246905
126	0xbda51007	-0.080596976
127	0x3ce4741c	0.027887397
128	0x3d2f64cb	0.042820733
129	0xbb17ba29	-0.0023151732
130	0x3dd65e46	0.104672
131	0x3d9820e5	0.07428149
132	0xbe16e77d	-0.14736743
133	0xbdf2923a	-0.11844297
134	0xbd782b9a	-0.060588457
135	0xbcc80e9e	-0.024421033
136	0xbe0c3109	-0.1369058
137	0x3e1927b0	0.14956546
138	0x3e084f4c	0.133115
139	0x3defc6ea	0.11707862
140	0xbba57f8d	-0.0050506056
141	0xbdce916f	-0.10086333
142	0xbddf91ad	-0.10916457
143	0xbdaa9ca9	-0.08330662
144	0x3d9b0387	0.07569032
145	0xbe07afb8	-0.13250625
146	0xbdeb4027	-0.114868455
147	0xbddf13b1	-0.10892428
148	0xbd5e31dc	-0.05424677
149	0xbe035395	-0.12824853
150	0x3d8da4c1	0.0691619
151	0xbe1fb3cc	-0.15595931
152	0xbdd7aeca	-0.10531385
153	0x3dc925d8	0.09821671
154	0xbdc60f84	-0.09670928
155	0x3c645715	0.013936778
156	0xbdd2cfb7	-0.10293525
157	0x3da449d8	0.08021897
158	0xbd6fa7a6	-0.05850949
159	0xbd8e4f0a	-0.06948669
160	0x3e17b381	0.14814569
161	0xbde12913	-0.109941624
162	0x3e19054d	0.14943428
163	0x3dfd6750	0.12373221
164	0xbdcacd79	-0.09902472
165	0xbd7c39e3	-0.061578643
166	0xbdb053f3	-0.08609762
167	0x3e0900ac	0.13379163
168	0x3d5b5d35	0.053555686
169	0x3dfb51a3	0.1227143
170	0x3cc47cc5	0.023985276
171	0xbc797780	-0.015226245
172	0xbc6db3e7	-0.014508224
173	0x3d1b8160	0.03796518
174	0x3e154dff	0.14580534
175	0x3d8c1c42	0.06841327
176	0x3e1ef832	0.15524366
177	0xbc19aea9	-0.009380021
178	0xbe1ca212	-0.152962
179	0x3e1bc8e6	0.15213355
180	0x3d790982	0.060800083
181	0x3de0f20e	0.10983668
182	0xbc5d0c94	-0.013491768
183	0x3d1dc77a	0.038520314
184	0x3d268c54	0.04066117
185	0x3cde891b	0.027164986
186	0xbd9a8ab9	-0.075459905
187	0xbdd2a930	-0.10286176
188	0xbe12c32a	-0.14332262
189	0xbd5ca081	-0.053864006
190	0x3dad7c45	0.08470968
191	0xbb432bf8	-0.0029780846
192	0x3d95237b	0.07282158
193	0xbc93580a	-0.017986316
194	0x3e026911	0.12735392
195	0xbda9e342	-0.08295299
196	0x3df8e432	0.121529
197	0x3e22806d	0.15869303
198	0x3e0fb805	0.14035042
199	0xbe088cc1	-0.13334943
200	0x3e131994	0.14365226
201	0x3dfe4d3e	0.124170765
202	0x3e1609da	0.14652196
203	0xbc7a5fa8	-0.015281595
204	0xbe0fe61e	-0.14052626
205	0xbe1579bd	-0.1459722
206	0xbc8d8546	-0.017275464
207	0xbd98c19c	-0.07458803
208	0xbbb3f3f1	-0.0054917266
209	0xbe178764	-0.14797741
210	0x3d850ae0	0.06496215
211	0x3d442210	0.047884047
212	0xbdcc5a9a	-0.099782184
213	0xbb334c8d	-0.002735886
214	0x3ddcb9d6	0.10777633
215	0x3dbe0524	0.09278324
216	0xbd45c5d2	-0.04828436
217	0x3db91ca9	0.090386696
218	0xbdaadd78	-0.08343023
219	0x3dc8c6cc	0.098035425
220	0x3cc15760	0.023601234
221	0x3de95f01	0.11395074
222	0x3e1ced49	0.15324892
223	0xbdc1c91d	-0.094621874
224	0x3db03b5e	0.086050734
225	0x3e0ecef3	0.13946132
226	0xbe0d2201	-0.13782503
227	0x3d33516b	0.043778818
228	0xbdb3bb2c	-0.087759346
229	0x3def096d	0.1167172
230	0xbd705bf5	-0.058681447
231	0x3db73740	0.08946085
232	0xbdad8882	-0.084733024
233	0x3e142fc8	0.14471352
234	0x3e12555d	0.14290376
235	0xbdc17217	-0.09445589
236	0xbd158880	-0.03650713
237	0xbd864cea	-0.06557639
238	0xbd1fd993	-0.039025854
239	0x3dd78f62	0.10525395
240	0x3d96d2dc	0.07364437
241	0xbd461058	-0.04835543
242	0xbe176fc2	-0.14788726
243	0xbddf55b9	-0.10905022
244	0xbd8e22c2	-0.06940223
245	0x3db0405f	0.08606028
246	0xbdc9419c	-0.09826967
247	0xbc6d44f9	-0.014481776
248	0xbe118ba4	-0.14213425
249	0xbdf3f141	-0.1191125
250	0x3cedf99f	0.029049693
251	0x3dbcf351	0.092260964
252	0xbdd7db67	-0.105398946
253	0xbdb54d2c	-0.0885261
254	0xbe1751e3	-0.14777331
255	0xbd9a1868	-0.075241864

net.1.weight f4 [256]
0	0x3f811b3f	1.008644
1	0x3f7abc7f	0.9794387
2	0x3f8252d1	1.0181524
3	0x3f82a964	1.0207944
4	0x3f7b911c	0.98268294
5	0x3f82b7d6	1.0212352
6	0x3f7bf725	0.9842399
7	0x3f80dffb	1.0068353
8	0x3f7ea11b	0.9946458
9	0x3f806b7a	1.0032799
10	0x3f792def	0.97335714
11	0x3f76eb44	0.96452737
12	0x3f814cd0	1.0101566
13	0x3f82af3a	1.0209725
14	0x3f82d928	1.0222521
15	0x3f7c013f	0.984394
16	0x3f7dc63c	0.99130607
17	0x3f837c89	1.027238
18	0x3f81f617	1.0153226
19	0x3f817603	1.0114139
20	0x3f81b3bf	1.0132979
21	0x3f832e1c	1.0248446
22	0x3f7b6b2b	0.982104
23	0x3f83bb67	1.0291566
24	0x3f81b018	1.0131865
25	0x3f83a0a7	1.0283402
26	0x3f74d736	0.95640886
27	0x3f80152e	1.0006464
28	0x3f8104d8	1.0079603
29	0x3f817908	1.0115061
30	0x3f776ca7	0.96650165
31	0x3f80f37e	1.0074308
32	0x3f824915	1.0178553
33	0x3f801e80	1.0009308
34	0x3f7d9fec	0.99072146
35	0x3f81ac29	1.0130664
36	0x3f809153	1.004435
37	0x3f7f7ad9	0.99796826
38	0x3f7a5e4f	0.97800153
39	0x3f7f3317	0.9968733
40	0x3f7e7c26	0.99408185
41	0x3f7bd20e	0.98367393
42	0x3f80c7d5	1.0060984
43	0x3f7c7ec9	0.9863096
44	0x3f7c8846	0.98645437
45	0x3f7757a6	0.96618116
46	0x3f7ae399	0.98003536
47	0x3f7ff2b4	0.9997971
48	0x3f76538a	0.9622122
49	0x3f771c0e	0.96527183
50	0x3f743f85	0.95409423
51	0x3f800187	1.0000466
52	0x3f7be0ef	0.98390096
53	0x3f836453	1.0264992
54	0x3f819198	1.0122557
55	0x3f815811	1.0105001
56	0x3f84ba05	1.0369269
57	0x3f7a4263	0.9775755
58	0x3f827801	1.0192872
59	0x3f827e97	1.0194882
60	0x3f8047f4	1.0021958
61	0x3f819488	1.0123453
62	0x3f813e8d	1.0097214
63	0x3f84d003	1.037598
64	0x3f828725	1.0197493
65	0x3f7f64a1	0.9976292
66	0x3f81b11d	1.0132176
67	0x3f7d99fc	0.99063087
68	0x3f809b20	1.004734
69	0x3f8130aa	1.0092976
70	0x3f81fc17	1.0155057
71	0x3f843b85	1.0330664
72	0x3f7d3f33	0.9892456
73	0x3f83a094	1.028338
74	0x3f818aa7	1.0120438
75	0x3f7d15fa	0.9886166
76	0x3f801d49	1.0008937
77	0x3f830484	1.0235753
78	0x3f824d43	1.0179828
79	0x3f8266be	1.0187604
80	0x3f8207c4	1.015862
81	0x3f835ce6	1.0262725
82	0x3f7f78ff	0.99794
83	0x3f7edc95	0.9955533
84	0x3f81df37	1.0146245
85	0x3f81c9a2	1.0139658
86	0x3f780765	0.96886283
87	0x3f7b2d55	0.98116046
88	0x3f78a54c	0.97127223
89	0x3f817943	1.0115131
90	0x3f806089	1.002946
91	0x3f81ccfd	1.0140682
92	0x3f7fd022	0.9992696
93	0x3f76b16b	0.9636447
94	0x3f830e15	1.0238672
95	0x3f83376d	1.025129
96	0x3f820855	1.0158793
97	0x3f80cece	1.0063112
98	0x3f7e0b7b	0.9923627
99	0x3f8393b0	1.0279446
100	0x3f7e15e0	0.9925213
101	0x3f800508	1.0001535
102	0x3f80a596	1.0050533
103	0x3f7e22de	0.99271953
104	0x3f859384	1.0435643
105	0x3f814dd9	1.0101882
106	0x3f7cba13	0.98721427
107	0x3f7de5ad	0.9917858
108	0x3f7fd57e	0.9993514
109	0x3f79606c	0.97412753
110	0x3f80dc80	1.0067291
111	0x3f734fd2	0.9504367
112	0x3f7bef27	0.9841179
113	0x3f844642	1.0333941
114	0x3f81063c	1.0080028
115	0x3f7835c8	0.96957064
116	0x3f7e4b8e	0.9933404
117	0x3f74fad6	0.95695245
118	0x3f7bd2e9	0.983687
119	0x3f80c637	1.006049
120	0x3f78b733	0.9715454
121	0x3f82fa66	1.0232666
122	0x3f826a44	1.018868
123	0x3f7f6429	0.9976221
124	0x3f7a2c56	0.977239
125	0x3f809e11	1.0048238
126	0x3f80855c	1.0040698
127	0x3f7e31ce	0.99294746
128	0x3f80987e	1.0046537
129	0x3f7decce	0.9918946
130	0x3f79a5f0	0.97518826
131	0x3f846805	1.0344244
132	0x3f802efa	1.0014336
133	0x3f81ac40	1.0130692
134	0x3f7a2dc2	0.9772607
135	0x3f798133	0.9746277
136	0x3f8050ad	1.002462
137	0x3f7d2dbe	0.9889792
138	0x3f80b855	1.0056254
139	0x3f7e19b3	0.99257964
140	0x3f8113a2	1.0084116
141	0x3f7b80eb	0.9824359
142	0x3f801fe5	1.0009733
143	0x3f78a113	0.9712078
144	0x3f801cf9	1.0008842
145	0x3f827487	1.0191811
146	0x3f80cde9	1.0062839
147	0x3f80b695	1.005572
148	0x3f825a4f	1.018381
149	0x3f801cf6	1.0008838
150	0x3f837150	1.0268955
151	0x3f7b5dff	0.981903
152	0x3f7b7cc8	0.98237276
153	0x3f80def4	1.006804
154	0x3f7e8e55	0.9943593
155	0x3f857325	1.0425764
156	0x3f800829	1.000249
157	0x3f827131	1.0190793
158	0x3f797c52	0.9745532
159	0x3f7c06b0	0.98447704
160	0x3f7f6977	0.997703
161	0x3f7a2e8f	0.9772729
162	0x3f7f8f15	0.998277
163	0x3f7c68ee	0.9859761
164	0x3f80051e	1.0001562
165	0x3f804ab5	1.0022799
166	0x3f80ffb1	1.0078031
167	0x3f7d9db4	0.9906876
168	0x3f807849	1.0036708
169	0x3f7f4fb4	0.9973099
170	0x3f7e5471	0.993476
171	0x3f7bce5f	0.9836177
172	0x3f7d432a	0.9893061
173	0x3f7ff443	0.9998209
174	0x3f84686c	1.0344367
175	0x3f7d7b22	0.9901601
176	0x3f7b67a2	0.98205006
177	0x3f802287	1.0010537
178	0x3f7e0bae	0.9923657
179	0x3f7914fb	0.9729764
180	0x3f81354f	1.0094393
181	0x3f7f5cc3	0.9975092
182	0x3f7e4fe0	0.9934063
183	0x3f7f3743	0.996937
184	0x3f7d2703	0.9888765
185	0x3f7c532b	0.98564404
186	0x3f8368f4	1.0266404
187	0x3f7f5afa	0.99748194
188	0x3f7f5f12	0.9975444
189	0x3f7b083c	0.9805944
190	0x3f8016ee	1.0006998
191	0x3f7cd08a	0.98755705
192	0x3f7b8fae	0.9826611
193	0x3f82fbe5	1.0233122
194	0x3f758c0f	0.9591684
195	0x3f7fde4c	0.99948573
196	0x3f80721a	1.0034821
197	0x3f80b1f3	1.0054306
198	0x3f7f84fb	0.9981229
199	0x3f804722	1.0021708
200	0x3f796e8d	0.9743431
201	0x3f806973	1.003218
202	0x3f7ee35d	0.9956568
203	0x3f82b8fc	1.0212703
204	0x3f7d5bac	0.98968005
205	0x3f814786	1.0099952
206	0x3f8071c0	1.0034714
207	0x3f826f59	1.0190231
208	0x3f841b72	1.0320876
209	0x3f7e39fa	0.99307215
210	0x3f7ae9b4	0.9801285
211	0x3f7ea7d9	0.99474865
212	0x3f7cd064	0.9875548
213	0x3f80faac	1.0076499
214	0x3f7d4881	0.9893876
215	0x3f8114e3	1.0084499
216	0x3f7b55e3	0.9817793
217	0x3f80555e	1.0026052
218	0x3f833af2	1.0252364
219	0x3f828025	1.0195357
220	0x3f839938	1.0281134
221	0x3f7726f2	0.965438
222	0x3f7e1319	0.9924789
223	0x3f7dee3a	0.9919163
224	0x3f7c8a88	0.9864888
225	0x3f7ec4b4	0.99518895
226	0x3f7f3b09	0.99699455
227	0x3f7ea64e	0.9947251
228	0x3f818adb	1.01205
229	0x3f7d6889	0.98987633
230	0x3f7fbd2e	0.9989804
231	0x3f81fba6	1.0154922
232	0x3f7b696f	0.98207754
233	0x3f810a73	1.0081314
234	0x3f7b0fa9	0.9807077
235	0x3f712d67	0.94209903
236	0x3f804fd0	1.0024357
237	0x3f80c090	1.0058765
238	0x3f8492bd	1.0357281
239	0x3f81942c	1.0123343
240	0x3f80afc0	1.0053635
241	0x3f79943b	0.97491807
242	0x3f76228e	0.96146476
243	0x3f800fd6	1.0004833
244	0x3f7f9fd5	0.9985326
245	0x3f81055e	1.0079763
246	0x3f7c5aa9	0.98575836
247	0x3f812368	1.008893
248	0x3f80eb8f	1.0071887
249	0x3f7ef537	0.9959292
250	0x3f7fce3f	0.9992408
251	0x3f81e9cc	1.0149474
252	0x3f794adb	0.97379845
253	0x3f7f03d9	0.99615246
254	0x3f7f5be6	0.997496
255	0x3f834b25	1.0257307

net.1.bias f4 [256]
0	0xbc9a5f65	-0.018844316
1	0xbd05e611	-0.03269011
2	0xbcfca4de	-0.030840334
3	0xba980644	-0.0011598547
4	0xbd0071e0	-0.0313586
5	0x3c22a47b	0.0099269105
6	0xbc7a9711	-0.015294806
7	0xbca02a9d	-0.01955157
8	0xbbe0990f	-0.0068541835
9	0xbc6520cb	-0.013984869
10	0xbd2d8f65	-0.04237308
11	0xbcd60874	-0.026127078
12	0x3c09181f	0.008367567
13	0xbc03d6e1	-0.008046837
14	0xba0a4040	-0.0005273856
15	0x3c840115	0.016113797
16	0xbc9b2d9b	-0.018942645
17	0xbc875917	-0.016521974
18	0xbb5cfc95	-0.0033719887
19	0x3cd27917	0.025692506
20	0xbcb80dc7	-0.022467507
21	0xba29ca82	-0.00064770144
22	0xbcbd1f2b	-0.023086151
23	0x3c7334e6	0.014844155
24	0x3c2bcbb9	0.010485583
25	0x3cc2410c	0.023712657
26	0xbd0343bc	-0.03204702
27	0x3ca96290	0.020676881
28	0xbb7c2b1a	-0.003847784
29	0x3b94866e	0.004532627
30	0xbce2e547	-0.027697219
31	0xbc016285	-0.007897024
32	0xbc1a4eae	-0.009418173
33	0x3c3a4c97	0.0113707995
34	0xbc4652b7	-0.012104682
35	0xba48ac4b	-0.0007655068
36	0x3b3c127d	0.0028697543
37	0x3b44e78d	0.0030045242
38	0xbbf81a62	-0.0075715045
39	0x3bc40734	0.005982304
40	0xbc9b3b36	-0.018949132
41	0xbcb30ad1	-0.021855744
42	0xbcf926a6	-0.030413937
43	0xbc94f96e	-0.018185344
44	0xbd38c6c8	-0.045111448
45	0xbcbca0c6	-0.023025881
46	0x3bafb508	0.005362157
47	0xbb2567fe	-0.0025238986
48	0xbca643fb	-0.020296087
49	0xbcdc5617	-0.02689652
50	0xbc7397f8	-0.014867775
51	0x3caa6f5f	0.020805059
52	0xbd56cc52	-0.05244095
53	0xbc724618	-0.014787219
54	0x3c677b75	0.014128556
55	0x3ad6d40f	0.0016390103
56	0x3bf6d910	0.0075332
57	0xbbdc99d7	-0.0067322063
58	0x3c9c07ff	0.019046782
59	0x3d05ccc2	0.032665975
60	0x3cbd34c8	0.023096457
61	0xbc08ab70	-0.008341655
62	0x3cd7d4ad	0.026346529
63	0x3cbd8596	0.023134988
64	0x3ce22328	0.027604654
65	0xbc18d50a	-0.009328136
66	0xbd185903	-0.037194263
67	0x3b4feca4	0.0031726742
68	0xbb150ea0	-0.0022744313
69	0xbc9aff99	-0.018920707
70	0x3cb9639c	0.022630505
71	0x3ba6a411	0.005085476
72	0xb923cbb4	-0.00015620777
73	0x3c8af5b5	0.016962865
74	0x3c8c3d06	0.017118942
75	0xbb954e23	-0.0045564338
76	0xbb9906f4	-0.0046700183
77	0x3c0ce776	0.008600106
78	0x3cfc3a94	0.030789651
79	0x3ce00da5	0.027350256
80	0xbb63b6e6	-0.0034746467
81	0x3aa5de1f	0.0012654698
82	0xbce851b5	-0.028359273
83	0x3a36719d	0.0006959679
84	0x3c97999f	0.01850587
85	0x3c43fc94	0.011962075
86	0xbce7cb91	-0.02829531
87	0xbd15b36b	-0.03654806
88	0xbd3e0002	-0.046386726
89	0x3cee0765	0.02905626
90	0xbca226a2	-0.019793812
91	0x3b088ebf	0.0020837036
92	0x3c72f832	0.014829682
93	0x3b2c961e	0.0026334594
94	0x3b54f32a	0.003249357
95	0x3c79fef2	0.015258538
96	0x3901e256	0.00012386715
97	0x3cbfbadf	0.023404537
98	0xbc519f81	-0.012794376
99	0xbbc2198f	-0.005923457
100	0xbcd8d804	-0.026470192
101	0xbcfafa66	-0.030636977
102	0x3ce2bfa9	0.027679281
103	0x3c51935a	0.012791479
104	0xbccba107	-0.024857057
105	0xbc05d87f	-0.0081692925
106	0xbc88d537	-0.016703231
107	0xbcb32394	-0.02186755
108	0xbcd5acf3	-0.026083445
109	0xbb9d29dd	-0.0047962503
110	0xbc46ef04	-0.012141947
111	0xbd63818b	-0.055543464
112	0xbbeccce0	-0.0072265714
113	0x3cfc9b48	0.030835763
114	0xbc94fb84	-0.018186338
115	0xbcc8acc4	-0.024496444
116	0xbd2eb2e8	-0.042651087
117	0xbd080c9f	-0.03321516
118	0xbb8fc0e0	-0.004387006
119	0x3ac16193	0.0014753811
120	0xbcba5c43	-0.022749072
121	0x3c92b0b7	0.01790653
122	0x3b92caba	0.0044797333
123	0xbb6ed45c	-0.0036442494
124	0xbca2fe0c	-0.01989653
125	0xbb14a3f2	-0.0022680727
126	0x3c1e90d9	0.009678089
127	0xbae141f9	-0.0017185799
128	0xbc8cf632	-0.017207239
129	0x37ba08d2	2.2177035e-05
130	0xbcaae95c	-0.020863228
131	0x3c211452	0.009831505
132	0xbc33b740	-0.010968983
133	0xbc767b5c	-0.01504406
134	0x3ca2e35a	0.0198838
135	0x3a2ade5d	0.000651812
136	0xbcc82f8a	-0.02443673
137	0x3b90381b	0.0044012195
138	0xbab189ba	-0.0013545074
139	0xbc6a86c5	-0.014314358
140	0x3b9b635a	0.0047420682
141	0xbc16d4cc	-0.009206008
142	0xbc5a4314	-0.013321657
143	0xbd10c5de	-0.03534495
144	0x3be84315	0.007088075
145	0xbcaa73ad	-0.020807112
146	0xbc28f228	-0.010311641
147	0x3c4a43c7	0.012345261
148	0x3cdf9208	0.027291313
149	0x3cbad2a4	0.02280552
150	0x3d686f5a	0.056746818
151	0xbcd18206	-0.025574695
152	0xbc7dac98	-0.015483044
153	0xbcd5348b	-0.026026031
154	0xbc99cbff	-0.01877403
155	0x3c8c8b36	0.017156225
156	0x3d2c33f1	0.042041723
157	0xbd4c0cc1	-0.04981685
158	0xbd0f756c	-0.03502409
159	0xbb81642a	-0.003948708
160	0xbcf1295b	-0.029438665
161	0xbc349612	-0.011022108
162	0xbca886d9	-0.020572113
163	0x3cc61ef4	0.024184681
164	0x3b16179f	0.0022902263
165	0xbc2cf58b	-0.010556589
166	0x3c3934a2	0.011304053
167	0x3c14d519	0.00908401
168	0x3cbb03c6	0.022828948
169	0x3a1aebe5	0.0005909785
170	0xbca751db	-0.020424774
171	0xbc5d26c6	-0.013498014
172	0x3b90285a	0.0043993415
173	0x3cc5be6d	0.024138654
174	0xb9b74ca5	-0.00034961585
175	0xbbc70c00	-0.0060744286
176	0xbc1a94f4	-0.009434927
177	0xbca63612	-0.020289455
178	0xbd2158a1	-0.039391164
179	0xbc88393d	-0.016628856
180	0x3c8103eb	0.015748939
181	0x3d1b302f	0.03788775
182	0x3c353b79	0.011061543
183	0x3ba54ff3	0.005044931
184	0xbc6541fc	-0.013992783
185	0xba52386d	-0.00080192724
186	0x3ceedd3d	0.029158229
187	0xbc75b203	-0.014996055
188	0x3c8d5a8a	0.017255086
189	0xbd4e4e46	-0.050367616
190	0x3bad18c7	0.0052824947
191	0xbd005e39	-0.031339858
192	0xbbc44eed	-0.005990854
193	0xbbed1bd5	-0.007235984
194	0xbcc6f8ef	-0.024288623
195	0xbbb20392	-0.0054325545
196	0xbc01a1e2	-0.007912131
197	0xbb19016d	-0.0023346797
198	0xbb91f8af	-0.004454694
199	0xbcb7b410	-0.022424728
200	0xbcbbd820	-0.022930205
201	0x3cf47a67	0.029843522
202	0xbc2a522d	-0.010395569
203	0x3aaf3d0e	0.0013369636
204	0xbd2e61ad	-0.04257362
205	0x3ce3dad5	0.027814308
206	0xbc1590c7	-0.009128756
207	0xbb02039c	-0.0019838577
208	0x3b5d5247	0.0033770965
209	0x3ce55888	0.027996317
210	0xbb881678	-0.004153069
211	0xbcb76a4d	-0.022389555
212	0x3b6b8a48	0.0035940576
213	0x3cda4795	0.026645461
214	0xbc0db4c5	-0.008649056
215	0xbbe4650e	-0.0069700545
216	0xbbe4a9cd	-0.0069782496
217	0x3c4a485d	0.012346354
218	0x3ab6b9eb	0.0013940906
219	0xbb9d3371	-0.004797392
220	0x3cbfa785	0.02339531
221	0xbd265ade	-0.040614
222	0x3c1a4d59	0.009417855
223	0xbc948f44	-0.01813472
224	0xbceb0efb	-0.028693667
225	0x3b60576a	0.003423179
226	0x3c088a36	0.008333733
227	0xbcd70f68	-0.026252463
228	0xbd29f821	-0.0414964
229	0xbca05bda	-0.019575048
230	0xbcc6b360	-0.024255455
231	0x3c2a7388	0.010403521
232	0xbd53672a	-0.051612057
233	0xbc9d15a7	-0.019175364
234	0xbc4722b0	-0.012154266
235	0xbcb4fad1	-0.022092255
236	0xba2de21d	-0.000663312
237	0x3c32887c	0.010896798
238	0xbc522b2f	-0.012827679
239	0x3b5846a5	0.0033001092
240	0x3c0f842f	0.008759542
241	0xbcd447d4	-0.025913157
242	0xbcf4ee86	-0.029898893
243	0x3c374fd8	0.01118847
244	0x3bf63002	0.007513047
245	0xbd30926b	-0.043108385
246	0xbc62a1e3	-0.013832542
247	0xbd3d103f	-0.04615807
248	0x3cb427cf	0.021991638
249	0xbd0b7e3c	-0.034055933
250	0xbb25f6a3	-0.002532401
251	0xbcd513a6	-0.026010346
252	0xbd25bfc4	-0.040466085
253	0x3c2ea526	0.010659492
254	0xbc965766	-0.018352222
255	0x3b6f43b7	0.0036508867

net.1.running_mean f4 [256]
0	0x3d244d1e	0.040112607
1	0xbd9e790c	-0.077379316
2	0x3daa7c48	0.08324486
3	0xbdea4002	-0.1143799
4	0x3d906175	0.070498385
5	0x3d6b5286	0.057451747
6	0x3d8f7b75	0.070059694
7	0xbe0938d7	-0.13400589
8	0xbd816f45	-0.06320051
9	0x3e01530a	0.12629333
10	0x3c2a62f2	0.010399567
11	0xbc9e9cf3	-0.019361949
12	0x3d2472ea	0.040148653
13	0xbd92c1e3	-0.07165887
14	0xbe0a6721	-0.13515903
15	0x3dcbcd5c	0.099512786
16	0xbcba8035	-0.022766212
17	0x39e9b46f	0.00044575657
18	0x3de88a06	0.11354451
19	0x3d8a93b4	0.067664534
20	0x3d73b27f	0.0594964
21	0xbd69c71e	-0.05707466
22	0xbe1b40cf	-0.15161441
23	0x3d88b2cc	0.06674728
24	0x3e167d88	0.14696324
25	0x3c289575	0.01028954
26	0x3e125419	0.14289893
27	0x3c9f2dfd	0.019431109
28	0xbd4e34ba	-0.050343253
29	0xbd81467e	-0.063122734
30	0x3e0d16ba	0.13778201
31	0xbd72a5a4	-0.05924
32	0x3cbfb412	0.023401294
33	0xbb85b642	-0.0040805647
34	0xbd860bc7	-0.06545215
35	0x3bef6dfb	0.007306812
36	0xbd79fe42	-0.061033495
37	0x3e1120e7	0.14172707
38	0xbd57c4ac	-0.052677795
39	0x3cbb3791	0.022853645
40	0xbd796412	-0.06088645
41	0x3d04d24c	0.032427117
42	0xbd8bff43	-0.06835797
43	0xbc859c1e	-0.016309794
44	0x3dc00d65	0.09377555
45	0x3e061617	0.13094364
46	0xbe11138a	-0.1416761
47	0x3de149f3	0.11000433
48	0x3d016a7b	0.03159569
49	0x3d977409	0.07395179
50	0xbdca4bf1	-0.09877766
51	0x3cbc681b	0.02299886
52	0xbcb1536d	-0.021646226
53	0x3d55ae12	0.05216796
54	0xbdb9b16d	-0.090670444
55	0xbe04497e	-0.1291866
56	0xbc0a3022	-0.008434327
57	0xbdec61c7	-0.11542087
58	0xbe05b854	-0.13058597
59	0xbd1745cf	-0.03693181
60	0x3dfe1170	0.1240567
61	0x3c727285	0.014797811
62	0xbdecc24e	-0.11560498
63	0x3c39339d	0.0113038095
64	0x3c888949	0.016667025
65	0xbd579474	-0.05263181
66	0x3dcb26f0	0.09919536
67	0x3c75a661	0.014993281
68	0x3d94b197	0.07260435
69	0xbd105c0d	-0.035244036
70	0x3c0a3025	0.00843433
71	0xbd2e435f	-0.04254472
72	0x3ded7504	0.115945846
73	0xbc31de98	-0.010856293
74	0xbd858ddf	-0.065212004
75	0x3d5356e7	0.05159655
76	0x3dc8805d	0.09790108
77	0x3da74fc4	0.08169511
78	0xbe1bf199	-0.15228881
79	0x3bb2d06d	0.005456975
80	0xbd2962d9	-0.041354034
81	0xbde8076b	-0.1132954
82	0x3d78c317	0.060732927
83	0x3d9b1ffd	0.07574461
84	0xbd26745f	-0.040638324
85	0xbdfc0a23	-0.12306621
86	0x3e0c0d17	0.13676868
87	0xbe07eb36	-0.1327332
88	0x3d79c727	0.060980942
89	0xbd61fe2c	-0.055174038
90	0xbdfc2039	-0.123108335
91	0xbb87e410	-0.00414706
92	0xbdd0da50	-0.1019789
93	0xbcd68a7e	-0.026189085
94	0xbdb5163f	-0.08842134
95	0xbc79fd25	-0.015258108
96	0xbdb26e54	-0.0871245
97	0x3cf4de66	0.029891204
98	0x3d811512	0.06302847
99	0x3daf1982	0.08549787
100	0xbd270c08	-0.04078296
101	0x3d7ca178	0.061677426
102	0x3a453fd3	0.0007524464
103	0xbd3499a6	-0.044091843
104	0x3d508805	0.05091097
105	0xbe124a62	-0.14286187
106	0x3d018bed	0.031627584
107	0x3e15b6d0	0.14620519
108	0xbdebd358	-0.1151492
109	0x3db18ffd	0.08670042
110	0xbdbb3699	-0.09141273
111	0xbc4f480d	-0.012651456
112	0x3dc3655f	0.095408194
113	0xbd27692c	-0.040871784
114	0x3d3457b3	0.04402895
115	0x3c8d8201	0.017273905
116	0xbceac643	-0.028658992
117	0x3c1883fa	0.009308809
118	0x3d2118b5	0.039330203
119	0xbd592e94	-0.053022936
120	0xbdede93c	-0.116167516
121	0x3dcb9399	0.099402614
122	0x3cfce39a	0.030870248
123	0xbc3c76a5	-0.011502896
124	0x3d918302	0.07105066
125	0x3e105627	0.14095365
126	0xbda70cdf	-0.08156752
127	0x3cd4d458	0.02598016
128	0x3d3844ea	0.044987597
129	0x3a094cca	0.0005237578
130	0x3ddbea8b	0.10738095
131	0x3d99aa0a	0.075031355
132	0xbe1af687	-0.15133105
133	0xbdf5b7a0	-0.11997914
134	0xbd7417df	-0.059593078
135	0xbca40307	-0.020020975
136	0xbe0d296f	-0.13785337
137	0x3e198bbb	0.14994709
138	0x3e04d42b	0.1297156
139	0x3de960e0	0.113954306
140	0xbabf3941	-0.0014589207
141	0xbdccb3bd	-0.0999522
142	0xbddd5a71	-0.10808266
143	0xbdb0f900	-0.08641243
144	0x3d999541	0.07499171
145	0xbe0b2700	-0.13589096
146	0xbdee3847	-0.11631828
147	0xbdd8d158	-0.10586804
148	0xbd4fdc1f	-0.050747033
149	0xbdf9f4b2	-0.12204875
150	0x3d92002b	0.07128938
151	0xbe203639	-0.15645684
152	0xbdcfeabe	-0.101521954
153	0x3dc8c882	0.09803869
154	0xbdca7c5c	-0.09887001
155	0x3c21c3b0	0.009873316
156	0xbdd47a29	-0.10374863
157	0x3d9f1c4c	0.07769069
158	0xbd82b9a4	-0.063830644
159	0xbd8ad8a6	-0.06779604
160	0x3e13a108	0.14416897
161	0xbdd709e9	-0.10499937
162	0x3e14590b	0.14487092
163	0x3dff139e	0.124549136
164	0xbdcd87c0	-0.10035658
165	0xbd6ff48a	-0.05858282
166	0xbdb7e6d7	-0.08979576
167	0x3e092c2b	0.13395755
168	0x3d5939f0	0.05303377
169	0x3dfcacc7	0.12337642
170	0x3cef31a0	0.029198468
171	0xbc9678ba	-0.018368114
172	0xbc48d55b	-0.012257899
173	0x3d2f2491	0.04275948
174	0x3e15fab7	0.14646421
175	0x3d8cc141	0.06872798
176	0x3e1fbace	0.15598604
177	0xbc3b7231	-0.0114408
178	0xbe1b30e0	-0.15155363
179	0x3e2341a6	0.15943012
180	0x3d6a3047	0.057174947
181	0x3dd9d79b	0.106368266
182	0xbc156776	-0.009118905
183	0x3d168b74	0.036754087
184	0x3d28aa7b	0.041178208
185	0x3cc4dc7d	0.024030918
186	0xbd9a66ea	-0.075391605
187	0xbdccc1bc	-0.099978894
188	0xbe15388f	-0.14572357
189	0xbd626621	-0.05527318
190	0x3db082ba	0.08618684
191	0xbc12a01b	-0.008949305
192	0x3da14f2a	0.078764275
193	0xbca6d998	-0.020367429
194	0x3e019173	0.1265314
195	0xbdb526f1	-0.08845318
196	0x3df876bf	0.12132024
197	0x3e1c3491	0.15254427
198	0x3e0e9fbb	0.1392812
199	0xbe06fe98	-0.13183057
200	0x3e189799	0.1490158
201	0x3dfd2ff3	0.12362661
202	0x3e12af98	0.14324796
203	0xbc872fe6	-0.016502332
204	0xbe0cc5b7	-0.13747297
205	0xbe1734ac	-0.14766186
206	0xbc585fa9	-0.013206401
207	0xbd9452ad	-0.07242332
208	0xb919fd29	-0.00014685527
209	0xbe142f13	-0.14471082
210	0x3d860a94	0.06544986
211	0x3d316492	0.043308802
212	0xbdd20977	-0.102557115
213	0xbc08686e	-0.008325679
214	0x3dd88daf	0.10573899
215	0x3db202d2	0.08691944
216	0xbd5ada37	-0.053430762
217	0x3dbb29fb	0.091388665
218	0xbdb1d80b	-0.08683785
219	0x3dc3dc22	0.095634714
220	0x3cbc0c6d	0.022955144
221	0x3de629c0	0.11238432
222	0x3e161ea5	0.14660127
223	0xbdc536dd	-0.09629605
224	0x3db58d2e	0.088648185
225	0x3e112cff	0.14177321
226	0xbe0b695d	-0.13614412
227	0x3d330d00	0.04371357
228	0xbdb9d5fa	-0.09074016
229	0x3decbc27	0.11559325
230	0xbd6c7ec2	-0.057738073
231	0x3dc88ad4	0.09792104
232	0xbda8c745	-0.08241133
233	0x3e1992f9	0.14997472
234	0x3e1048e3	0.14090304
235	0xbdbfbec5	-0.09362558
236	0xbd1aaa38	-0.03775999
237	0xbd7a306e	-0.061081342
238	0xbd1f54dd	-0.03889929
239	0x3ddf62c6	0.109075114
240	0x3da2a19c	0.07940981
241	0xbd4b2149	-0.04959229
242	0xbe15dc5a	-0.14634839
243	0xbddb7236	-0.107151434
244	0xbd8a5384	-0.067542106
245	0x3db9c57d	0.09070871
246	0xbdcb4225	-0.099247254
247	0xbc32d9b3	-0.010916161
248	0xbe12a762	-0.14321664
249	0xbded4026	-0.11584501
250	0x3d0907e8	0.033454806
251	0x3dc1f4b3	0.09470501
252	0xbdd7c852	-0.10536255
253	0xbdab685a	-0.08369513
254	0xbe165fae	-0.14684936
255	0xbd983406	-0.07431798

net.1.running_var f4 [256]
0	0x3f04a870	0.51819515
1	0x3e9afd89	0.30271557
2	0x3eb791d2	0.3585344
3	0x3e92e123	0.2868739
4	0x3eb88460	0.36038494
5	0x3e77b002	0.24188235
6	0x3e9e818e	0.30958217
7	0x3ecfb07c	0.40564334
8	0x3ecbb115	0.3978354
9	0x3e61aef4	0.22039396
10	0x3e933425	0.2875072
11	0x3e8ba7ef	0.2727656
12	0x3f33e9f3	0.70278853
13	0x3e83e2d4	0.25758994
14	0x3e5ddf9e	0.21667334
15	0x3ef77c83	0.48337182
16	0x3eefaef5	0.4681317
17	0x3eabdb06	0.3356554
18	0x3f05192a	0.5199152
19	0x3f689ea9	0.90867096
20	0x3ea8746e	0.3290133
21	0x3f3c45a0	0.7354374
22	0x3e653242	0.22382453
23	0x3edc0cf4	0.42978632
24	0x3e90fb52	0.28316742
25	0x3e9978e6	0.2997505
26	0x3eee782f	0.46576068
27	0x3f409ec4	0.7524226
28	0x3e23d59f	0.15999459
29	0x3e74a826	0.23892269
30	0x3f4bff61	0.7968655
31	0x3fb77c1a	1.4334748
32	0x3f1e50af	0.61841863
33	0x3ea96413	0.33084163
34	0x3ea5c9f8	0.32380652
35	0x3ea35eeb	0.31908354
36	0x3e8fa2c1	0.2805386
37	0x3effe64a	0.49980384
38	0x3eb8851c	0.36039054
39	0x3ee79a0d	0.4523472
40	0x3e81273d	0.2522525
41	0x3f10709c	0.5642183
42	0x3e6bb844	0.2301951
43	0x3e8e530d	0.27797738
44	0x3e8ddd2b	0.277078
45	0x3e6b3550	0.22969556
46	0x3e40ea04	0.1883927
47	0x3e78e889	0.24307455
48	0x3ea6f542	0.32608992
49	0x3ec32141	0.38111308
50	0x3f20df4b	0.6284072
51	0x3ea6976f	0.3253741
52	0x3fb36561	1.4015313
53	0x3e5dc72a	0.21658006
54	0x3e58a2a7	0.21155797
55	0x3eeefa3e	0.46675295
56	0x3e58c699	0.21169509
57	0x3edf69ae	0.43635315
58	0x3e9d9117	0.30774757
59	0x3e92820d	0.28614846
60	0x3e99092f	0.2988982
61	0x3e8548c5	0.2603208
62	0x3edac289	0.42726544
63	0x3f059927	0.52186817
64	0x3eca2d22	0.3948756
65	0x3f0b1cc9	0.543408
66	0x3ec69dfb	0.38792405
67	0x3e826d5f	0.2547407
68	0x3eb11c5e	0.34591955
69	0x3e6d695b	0.23184721
70	0x3ecf5789	0.40496472
71	0x3e7a2963	0.2442985
72	0x3ed623b2	0.41824108
73	0x3eb081e3	0.34474096
74	0x3ed0fe72	0.40819126
75	0x3eacb342	0.33730513
76	0x3e74caf5	0.23905547
77	0x3ebd6bac	0.3699621
78	0x3f314a56	0.6925405
79	0x3eb6cffb	0.35705552
80	0x3f098b5d	0.53728276
81	0x3ea00beb	0.31259093
82	0x3ead4415	0.33841005
83	0x3e6d0b72	0.23148897
84	0x3e0ab345	0.13544948
85	0x3e66c2e7	0.22535287
86	0x3f04c295	0.5185941
87	0x3eb90bb9	0.36141756
88	0x3ef0e363	0.47048482
89	0x3e8ceaaa	0.27522784
90	0x3e7f78fa	0.24948493
91	0x3e9ce467	0.30643007
92	0x3f867667	1.0504884
93	0x3e90a610	0.28251696
94	0x3e73975b	0.23788206
95	0x3e83fe6a	0.2578004
96	0x3e7d72c6	0.24750814
97	0x3e7198f2	0.235935
98	0x3ec7f598	0.3905456
99	0x3f318183	0.69338244
100	0x3ef87953	0.48530063
101	0x3e122da9	0.1427523
102	0x3e236236	0.15955433
103	0x3ebd2545	0.36942497
104	0x3edfa265	0.43678585
105	0x3e4c1f7c	0.19933885
106	0x3e851150	0.2598977
107	0x3f166b97	0.5875792
108	0x3e5b6d95	0.21428521
109	0x3ee05e6b	0.43822035
110	0x3eb19349	0.34682682
111	0x3e680951	0.22659804
112	0x3e8c243b	0.27371392
113	0x3e534160	0.20630407
114	0x3e91d182	0.28480154
115	0x3ecdd06f	0.40198085
116	0x3f0ee6ae	0.5582074
117	0x3e90b15d	0.28260317
118	0x3ed3b566	0.41349334
119	0x3f20bd10	0.62788486
120	0x3ebc5b1f	0.3678827
121	0x3e6ad3ee	0.22932407
122	0x3ed1a87a	0.4094885
123	0x3e9c77eb	0.3056024
124	0x3ea91f58	0.33031726
125	0x3f07c673	0.53037184
126	0x3e98b8ac	0.29828393
127	0x3f01772e	0.5057248
128	0x3e49d8e0	0.19711637
129	0x3e917304	0.28408062
130	0x3ed321df	0.4123678
131	0x3e87606f	0.2644076
132	0x3f1875e2	0.59554875
133	0x3eba1693	0.36345348
134	0x3f188cda	0.5958992
135	0x3e831d53	0.2560831
136	0x3e8dfc14	0.27731383
137	0x3f39b1bc	0.72536826
138	0x3e873e24	0.26414597
139	0x3eefe57e	0.46854776
140	0x3eb2bae5	0.34908214
141	0x3ef25da0	0.47337055
142	0x3e822a98	0.2542312
143	0x3e5df519	0.21675529
144	0x3f33107c	0.6994703
145	0x3edd5aed	0.43233433
146	0x3ebbf55d	0.36710635
147	0x3f01ba7b	0.5067517
148	0x3e9a8686	0.30180758
149	0x3f3044e1	0.688551
150	0x3e6ecea5	0.23321016
151	0x3e95c96c	0.29255235
152	0x3efb41a4	0.49073517
153	0x3ed6d5f5	0.4196011
154	0x3e4e603e	0.20153901
155	0x3e6627d0	0.22476125
156	0x3e5a4776	0.21316323
157	0x3eb910f1	0.36145738
158	0x3f76821a	0.9629227
159	0x3eb343f3	0.3501278
160	0x3f598b5d	0.84978276
161	0x3ef410c1	0.47669032
162	0x3f29185b	0.6605279
163	0x3f2d61ae	0.6772717
164	0x3e06811b	0.13135187
165	0x3e74ffa6	0.23925647
166	0x3e4def79	0.20110883
167	0x3e1258dd	0.14291711
168	0x3e6c7026	0.23089656
169	0x3e9b0f39	0.3028505
170	0x3e8a5bc1	0.27023128
171	0x3e9df49a	0.3085068
172	0x3f0264f3	0.50935286
173	0x3e8f3d46	0.27976435
174	0x3e4b3feb	0.19848602
175	0x3e62bb32	0.22141722
176	0x3f6ee0ce	0.93311775
177	0x3f583930	0.8446226
178	0x3eec0aa3	0.46101865
179	0x3f01867f	0.5059585
180	0x3e85771e	0.26067442
181	0x3ee9cc06	0.4566347
182	0x3f20fb49	0.6288343
183	0x3e83a69a	0.25713044
184	0x3f1375b5	0.5760148
185	0x3e9cce0d	0.30625954
186	0x3fa019e5	1.2507902
187	0x3ee952a5	0.45570865
188	0x3e57c301	0.21070482
189	0x3e8473fb	0.25869736
190	0x3ef5b420	0.47988987
191	0x3f3c8896	0.73645914
192	0x3f2593d6	0.64678705
193	0x3e1f666e	0.15566418
194	0x3eec063a	0.460985
195	0x3e398a9c	0.18119282
196	0x3e599505	0.21248253
197	0x3f2e96fe	0.68199146
198	0x3effcf41	0.4996281
199	0x3eeb3596	0.4593932
200	0x3edea44a	0.43484718
201	0x3e8a29de	0.26985067
202	0x3ebcbe78	0.36864066
203	0x3f1cb7a9	0.61217743
204	0x3e94d02f	0.2906508
205	0x3f298ca7	0.66230243
206	0x3eb653df	0.35610864
207	0x3e84fe1d	0.25975123
208	0x3f0b1c6f	0.5434026
209	0x3ea047be	0.31304735
210	0x3eb3c449	0.3511069
211	0x3f3e341f	0.7429828
212	0x3eaa8298	0.3330276
213	0x3eb61eaa	0.3557027
214	0x3eaadf3c	0.3337344
215	0x3ed27533	0.4110504
216	0x3ec3af2d	0.38219586
217	0x3e983722	0.29729563
218	0x3f0f73b4	0.56035924
219	0x3e97069b	0.29497227
220	0x3eab41cd	0.3344864
221	0x3e33a771	0.17544343
222	0x3e9e7d84	0.30955136
223	0x3e8bc460	0.2729826
224	0x3ec1b860	0.3783598
225	0x3eb40e07	0.35166952
226	0x3eb64919	0.35602644
227	0x3ea65fb7	0.324949
228	0x3e8d4c7f	0.27597424
229	0x3ea70b8c	0.32625997
230	0x3ec562d4	0.38551962
231	0x3f35d2b0	0.7102461
232	0x3f218798	0.63097525
233	0x3e8db897	0.27679893
234	0x3ea3f47e	0.3202247
235	0x3e121afa	0.14268103
236	0x3eb4660e	0.35234112
237	0x3ed47c41	0.41501048
238	0x3f124bad	0.5714672
239	0x3f079b57	0.52971405
240	0x3f0a59dc	0.54043365
241	0x3ef696eb	0.48162016
242	0x3eb638ba	0.35590154
243	0x3ea1680f	0.31524703
244	0x3f2d5b77	0.6771769
245	0x3ef7175e	0.48260015
246	0x3e79f4fd	0.24409862
247	0x3e833f9c	0.25634468
248	0x3e696d2d	0.22795554
249	0x3efe999e	0.49726576
250	0x3f337f4d	0.7011612
251	0x3eae5a89	0.34053448
252	0x3e3d9779	0.18514813
253	0x3ecf5f52	0.4050241
254	0x3eb6c466	0.35696715
255	0x3eae2dcd	0.34019318

cpu f4 [128]
0	0xbd37ec9f	-0.044903394
1	0xbd53f528	-0.05174747
2	0x3d53f0a5	0.05174317
3	0x3cb25136	0.02176724
4	0x3d432081	0.04763842
5	0x3d6a5248	0.057207376
6	0x3d28839c	0.041141137
7	0x3b77571a	0.0037741126
8	0xbc867b83	-0.016416317
9	0xbd53da8f	-0.051722106
10	0xbd0484b7	-0.03235313
11	0xbd6ce12d	-0.05783193
12	0x3cc0e968	0.023548797
13	0xbd7055bc	-0.058675513
14	0x3d2c3484	0.04204227
15	0xbcab7c89	-0.020933406
16	0x3d25c0c8	0.040467054
17	0xbd2de0cb	-0.042450707
18	0x3d4a72bf	0.049425837
19	0x3d2890dd	0.041153777
20	0xbd672eba	-0.056441046
21	0xbd822e48	-0.06356484
22	0xbd19982c	-0.037498638
23	0x3c8b64a1	0.017015757
24	0xbd74b12b	-0.059739273
25	0x3c9d1161	0.019173326
26	0xbd6321d8	-0.055452198
27	0x3cd42d7f	0.0259006
28	0x3c8a6354	0.016893066
29	0x3d3c2094	0.045929506
30	0xbcd4b0d4	-0.025963224
31	0x3d6d678e	0.057960086
32	0xbcda770c	-0.026668094
33	0xbd709cff	-0.058743473
34	0xbca2138c	-0.019784711
35	0xbd36882a	-0.04456345
36	0x3cf01c72	0.029310439
37	0xbccaea6d	-0.024769986
38	0xbd5b2af7	-0.05350777
39	0xbcee20e6	-0.029068422
40	0xbc13a728	-0.009012021
41	0x3cd9b056	0.026573341
42	0x3c822f2b	0.015891632
43	0x3cce23ed	0.025163615
44	0x3cc975d1	0.024592312
45	0x3cbcfd0b	0.023069879
46	0xbc2832c7	-0.0102660125
47	0xbd5a408d	-0.053284217
48	0xbb8220f1	-0.003971212
49	0xbd4bb412	-0.049732275
50	0xbc6e0f7c	-0.014530059
51	0x3d72cacc	0.059275433
52	0x3c950404	0.018190391
53	0x3cece250	0.028916508
54	0x3cb64794	0.022250928
55	0x3d7bcfb0	0.061477363
56	0xbd036538	-0.03207895
57	0x3d6875a4	0.056752816
58	0x3bee4825	0.007271784
59	0xbd4921ca	-0.04910449
60	0xbc3d01a1	-0.011536033
61	0x3c23e3b8	0.010003023
62	0xbd0b909b	-0.034073453
63	0x3cd4f5ad	0.025996054
64	0x3c28261e	0.010262994
65	0x3d089914	0.03334911
66	0xbd6d4d90	-0.057935297
67	0xbd2f7656	-0.042837463
68	0xbc446d0e	-0.011988891
69	0xbd1382bd	-0.036013354
70	0x3d1c0be6	0.038097285
71	0x3ce38dfc	0.027777664
72	0x3c2937b3	0.010328221
73	0xbd66b3aa	-0.056323685
74	0xbc6f9c1e	-0.014624624
75	0x3c27bbe0	0.010237664
76	0xbd000d5a	-0.031262733
77	0xbd16ca2f	-0.03681391
78	0x3d310363	0.04321612
79	0x3ce05c20	0.027387679
80	0xbcc8ec6a	-0.024526794
81	0x3d6affcf	0.057372864
82	0x3d65cdc1	0.056104425
83	0x3d5e4187	0.05426171
84	0x3d791a91	0.06081635
85	0xbd650ab9	-0.05591843
86	0xbd37cc8a	-0.044872798
87	0x3bc96f29	0.0061472845
88	0x3c949e8f	0.018142013
89	0xbc6aebef	-0.0143384775
90	0xbc01f30d	-0.007931483
91	0x3ce7cf1d	0.028297001
92	0x3c89a4d7	0.016802235
93	0xbd6735b0	-0.056447685
94	0xbd3d706e	-0.0462498
95	0x3d61058a	0.054936923
96	0xbc75c4fd	-0.015000579
97	0xbb3cdc30	-0.0028817765
98	0xbd2ddad1	-0.042445008
99	0x3cb66d10	0.022268802
100	0xbd74bd70	-0.059750974
101	0x3d2d27ed	0.042274404
102	0xbd78b243	-0.06071688
103	0x3d76a189	0.060212646
104	0xbd2cd274	-0.04219289
105	0xbd188bf3	-0.03724284
106	0xbc28ec4f	-0.010310247
107	0xbd13468f	-0.03595596
108	0x3d7d4578	0.06183383
109	0xbd30ec5d	-0.043194164
110	0x3c7a9baf	0.015295907
111	0x3d093018	0.03349313
112	0x3d2d6492	0.04233224
113	0xbc4dcc0f	-0.012560858
114	0xbd6e206c	-0.05813639
115	0x3d1d5e13	0.038419794
116	0xbc9b637c	-0.018968336
117	0x3c570cf1	0.013125644
118	0xbd541ae7	-0.05178347
119	0xbd4ea269	-0.050447855
120	0xbb0755b4	-0.0020650448
121	0x3becde30	0.0072286353
122	0x3b8df04a	0.004331623
123	0xbd3aa452	-0.045566864
124	0xbc475f44	-0.012168709
125	0x3d4e54b7	0.05037376
126	0xbd40b184	-0.047044292
127	0xbd457935	-0.048211295

net.5.weight f4 [128]
0	0x3f7eb111	0.9948893
1	0x3f80df86	1.0068214
2	0x3f78e1b3	0.9721939
3	0x3f7ca6c6	0.98691976
4	0x3f7dccf4	0.9914086
5	0x3f7f756e	0.9978856
6	0x3f805136	1.0024784
7	0x3f8039c1	1.0017625
8	0x3f801b16	1.0008266
9	0x3f7d2735	0.9888795
10	0x3f83a4a1	1.0284616
11	0x3f817faa	1.0117085
12	0x3f80b441	1.0055009
13	0x3f812138	1.0088263
14	0x3f8218f0	1.016386
15	0x3f7c273b	0.9849736
16	0x3f7b6695	0.982034
17	0x3f7de2b9	0.99174076
18	0x3f845f2e	1.0341547
19	0x3f825fa4	1.0185437
20	0x3f7e73ab	0.99395245
21	0x3f7d8b44	0.9904063
22	0x3f81f882	1.0153964
23	0x3f7c83a8	0.9863839
24	0x3f7d8775	0.99034816
25	0x3f7f1bda	0.99651873
26	0x3f7e66ca	0.99375594
27	0x3f7e0460	0.99225426
28	0x3f76af93	0.96361655
29	0x3f80e76a	1.0070622
30	0x3f803bc2	1.0018237
31	0x3f820060	1.0156364
32	0x3f773775	0.96568996
33	0x3f716a2a	0.9430262
34	0x3f7a13d9	0.97686535
35	0x3f792265	0.97318107
36	0x3f80145b	1.0006212
37	0x3f7d9942	0.9906198
38	0x3f81eed7	1.0151013
39	0x3f7c0e48	0.9845929
40	0x3f82544c	1.0181975
41	0x3f849207	1.0357064
42	0x3f7cf490	0.9881067
43	0x3f7c006f	0.9843816
44	0x3f810cc5	1.0082022
45	0x3f83b7ad	1.0290428
46	0x3f7c67f8	0.98596144
47	0x3f7ac0ed	0.9795063
48	0x3f7fea62	0.99967015
49	0x3f7a16ae	0.97690856
50	0x3f7ca211	0.98684794
51	0x3f7a567f	0.9778823
52	0x3f7f5e93	0.99753684
53	0x3f80d106	1.0063789
54	0x3f7b180b	0.9808356
55	0x3f816d65	1.011151
56	0x3f8203d6	1.0157421
57	0x3f80ce53	1.0062965
58	0x3f7c87bf	0.9864463
59	0x3f7bf225	0.9841636
60	0x3f806c75	1.0033098
61	0x3f7b2c53	0.9811451
62	0x3f7c5c2d	0.9857815
63	0x3f806613	1.003115
64	0x3f80fab9	1.0076514
65	0x3f821023	1.0161175
66	0x3f7a34c0	0.9773674
67	0x3f79bac9	0.97550637
68	0x3f7cb6d7	0.9871649
69	0x3f7f7800	0.9979248
70	0x3f82cc8a	1.021867
71	0x3f78f431	0.97247607
72	0x3f7d2c5e	0.98895824
73	0x3f7e8115	0.99415714
74	0x3f8108ff	1.008087
75	0x3f7d5b62	0.98967564
76	0x3f7c659c	0.98592544
77	0x3f83f82a	1.0310109
78	0x3f82f6ee	1.0231607
79	0x3f82f5cd	1.0231262
80	0x3f83c659	1.0294906
81	0x3f82601f	1.0185584
82	0x3f7cd55f	0.9876308
83	0x3f7be13a	0.98390543
84	0x3f843705	1.0329291
85	0x3f7f9dac	0.99849963
86	0x3f843ef2	1.0331709
87	0x3f82c9e5	1.0217863
88	0x3f78de32	0.97214043
89	0x3f7e8cf1	0.9943381
90	0x3f7ecab2	0.9952804
91	0x3f81e92e	1.0149286
92	0x3f77522c	0.9660976
93	0x3f811212	1.008364
94	0x3f8297ce	1.0202577
95	0x3f80b3a3	1.0054821
96	0x3f81e7c8	1.0148859
97	0x3f7c92af	0.9866132
98	0x3f7f66a4	0.9976599
99	0x3f7c25b9	0.9849506
100	0x3f7ba492	0.9829799
101	0x3f7c215f	0.9848842
102	0x3f7ce008	0.98779345
103	0x3f83619e	1.0264165
104	0x3f7ff2a8	0.9997964
105	0x3f86ce41	1.0531694
106	0x3f7a561b	0.97787637
107	0x3f816bdf	1.0111045
108	0x3f85924b	1.043527
109	0x3f82ef6b	1.0229315
110	0x3f80db07	1.0066842
111	0x3f7f1c2f	0.9965238
112	0x3f80399d	1.0017582
113	0x3f8063a1	1.0030404
114	0x3f7e8e4f	0.99435896
115	0x3f81360c	1.0094619
116	0x3f7e92aa	0.9944254
117	0x3f813898	1.0095396
118	0x3f7dcd7c	0.9914167
119	0x3f7ef038	0.99585295
120	0x3f7a2ca2	0.97724354
121	0x3f816bf6	1.0111072
122	0x3f83cb12	1.0296347
123	0x3f7ab39d	0.9793032
124	0x3f7c4088	0.98535967
125	0x3f85255f	1.040203
126	0x3f820555	1.0157877
127	0x3f7a373c	0.9774053

net.5.bias f4 [128]
0	0x3c054dc4	0.008136217
1	0xbcf56a10	-0.029957801
2	0xbcf4db62	-0.029889766
3	0xbbe661dd	-0.007030709
4	0xbc18046e	-0.0092784
5	0x3c8816aa	0.01661237
6	0xbd3eebaf	-0.046611484
7	0xbd7a1588	-0.06105569
8	0x3bc2ffc7	0.005950901
9	0x3c894652	0.016757164
10	0x3cd2da94	0.025738992
11	0xbcec9d9d	-0.02888375
12	0x3af1a86d	0.0018437036
13	0xbc8498dc	-0.01618617
14	0x3c2813e0	0.010258645
15	0x3c30bd12	0.010787265
16	0xbb1e8c03	-0.002419234
17	0x3a657334	0.00087528233
18	0x3b97625e	0.0046198806
19	0xbca26e54	-0.019828
20	0x3c0d03a6	0.008606827
21	0xbd19a577	-0.037511315
22	0xbc5925f5	-0.013253679
23	0xbac146f9	-0.0014745883
24	0xbc16aac1	-0.009195984
25	0xbca28ea3	-0.019843405
26	0x3b88394c	0.004157221
27	0xbcb002e4	-0.021485753
28	0xbccf5a64	-0.025311656
29	0x3b319c98	0.0027101394
30	0xbc3f6e95	-0.01168408
31	0xbd2150f5	-0.039383847
32	0xbca6554f	-0.02030435
33	0xbd1db862	-0.03850592
34	0xbcb22df7	-0.021750433
35	0xbc733c23	-0.014845881
36	0x3d39e555	0.045384724
37	0xbd3ff602	-0.04686547
38	0x3c3565e9	0.011071661
39	0xbc5d221a	-0.0134969
40	0x3c0c2f74	0.008556236
41	0x3c191006	0.009342199
42	0x3c8c4d68	0.017126754
43	0x3b2defd8	0.0026540663
44	0x3c7e3598	0.015515707
45	0x3cbc6d6e	0.023001399
46	0xbc81bffe	-0.01583862
47	0x38df00b4	0.000106335996
48	0x3c6344f8	0.013871424
49	0xbd5d367c	-0.05400704
50	0xbc53c9ff	-0.012926578
51	0xbcc24f62	-0.023719493
52	0xbd811196	-0.063021824
53	0x3c4d7cbf	0.012541949
54	0xbb59fd95	-0.003326272
55	0x3bf70e58	0.0075395517
56	0x3cea35e1	0.028590145
57	0xbbe7b5b7	-0.0070712226
58	0xbca0f3e7	-0.019647552
59	0x3ae10559	0.0017167731
60	0x3baf54c3	0.0053506806
61	0xba34eb72	-0.0006901539
62	0x3bb0b025	0.005392092
63	0xbd7bafa4	-0.0614468
64	0xbc84e9b4	-0.01622472
65	0x3c895345	0.016763339
66	0xbc97095d	-0.018437082
67	0xbca0440a	-0.019563694
68	0x3c855728	0.01627691
69	0x3c3995a4	0.011327181
70	0x3c19d3ee	0.009388907
71	0xbcb6a31d	-0.022294575
72	0xbc9451e9	-0.018105464
73	0xbd0fd223	-0.03511251
74	0x3d0c551f	0.034260865
75	0xbcb5b6ac	-0.022181831
76	0x3b246b3c	0.002508833
77	0xbd1dfc9c	-0.038570985
78	0xbc1dac0e	-0.009623541
79	0xbcfa2ce3	-0.030538982
80	0xbbc345fa	-0.0059592696
81	0xbc6f105d	-0.014591304
82	0x3b81050b	0.0039373687
83	0xbc32eb9d	-0.010920432
84	0x3d13c6fb	0.036078434
85	0xbd0224eb	-0.03177349
86	0x3b664710	0.0035137571
87	0xbcac6ce9	-0.021048026
88	0xbd57b8af	-0.052666362
89	0xbca1b94a	-0.019741673
90	0x3c07d8c8	0.008291431
91	0x3c1798bd	0.009252724
92	0xbca6d80a	-0.020366687
93	0x3bcbe770	0.006222658
94	0xbc97c348	-0.018525735
95	0xbc03d9c7	-0.008047528
96	0xbbdc61e0	-0.006725535
97	0xbd223a87	-0.039606597
98	0x3cdcca4f	0.026951937
99	0xbbcbb210	-0.006216295
100	0xbc75471b	-0.014970566
101	0x3bb53a7e	0.0055306545
102	0xbcd0e30b	-0.025498888
103	0xbcac4741	-0.02103007
104	0xbcfc4808	-0.030796066
105	0x3cd57e37	0.02606116
106	0xbcaa47c5	-0.020786176
107	0xbcb16fbe	-0.021659728
108	0xbcb4f520	-0.022089541
109	0x3c9684fd	0.01837396
110	0x3c966e04	0.018363006
111	0xbd03e171	-0.03219742
112	0xbce770fc	-0.028252117
113	0xbd14284c	-0.036171243
114	0xbca6d44a	-0.0203649
115	0x3c5e2852	0.013559418
116	0xbd3acdff	-0.04560661
117	0xbb20d4a0	-0.0024540797
118	0xbd365cd3	-0.044522118
119	0xbd1a537e	-0.03767728
120	0xbc180a98	-0.0092798695
121	0x3c7b45aa	0.015336433
122	0xbca22b5d	-0.019796068
123	0xbc754d74	-0.01497208
124	0xbbdf5025	-0.006814974
125	0x3c9a0a18	0.018803641
126	0x3bc2af71	0.0059413244
127	0xbd25cb77	-0.040477242

net.5.running_mean f4 [128]
0	0xbf5b269a	-0.85605776
1	0x3efd4814	0.49469054
2	0x3dce0a90	0.100606084
3	0xbef0ffcb	-0.47070155
4	0x3e48a3dd	0.19593759
5	0x3e77058b	0.24123208
6	0x3f2d4f3a	0.67699015
7	0x3f10aa3c	0.5650976
8	0x3eb9d8f9	0.3629835
9	0xbd284175	-0.04107805
10	0xbda49d8d	-0.08037863
11	0x3f2bc0f6	0.6709131
12	0xbd0dd0e4	-0.03462304
13	0x3f1e1241	0.61746603
14	0x3d0ca724	0.034339085
15	0xbec56514	-0.3855368
16	0xbf1a2b2d	-0.6022213
17	0xbed218f6	-0.4103467
18	0xbeaa02bd	-0.33205214
19	0x3f175361	0.591116
20	0xbe54f9e5	-0.20798452
21	0x3df6311d	0.12021086
22	0x3e5a171c	0.21297878
23	0xbf4d936c	-0.8030307
24	0xbf3e5da8	-0.7436166
25	0xbd0dff30	-0.034667194
26	0xbef7bdf5	-0.48387113
27	0x3d67fbac	0.056636497
28	0xbf0c8a33	-0.54898375
29	0x3ee4b8a8	0.44672132
30	0xbf606ab2	-0.87662804
31	0x3f71514b	0.9426467
32	0xbf77de09	-0.96823174
33	0x3daac0bd	0.08337543
34	0xbf24c86c	-0.6436832
35	0xbe8e4031	-0.2778335
36	0xbf133dd5	-0.57516223
37	0x3f0f0191	0.55861765
38	0x3e0c885d	0.13723893
39	0xbf524235	-0.82132274
40	0xbe698097	-0.2280296
41	0x3f265341	0.64970785
42	0xbf2d8ef4	-0.67796254
43	0xbf26ea9a	-0.65201724
44	0xbf46edf8	-0.7770686
45	0x3d44d63e	0.04805588
46	0xbe283b40	-0.16428852
47	0xbf0e6b1c	-0.55632186
48	0xbf0bf930	-0.54677105
49	0xbdb91efb	-0.09039112
50	0x3eff0088	0.49805093
51	0xbe88e6b9	-0.26738527
52	0xbdec48af	-0.11537301
53	0xbf7e17a2	-0.9925481
54	0x3d41e5c4	0.047338262
55	0xbdb4794f	-0.088122
56	0xbf66b4b8	-0.90119505
57	0xbbd1316d	-0.006384066
58	0x3e9375bd	0.28800765
59	0xbea1da0a	-0.31611663
60	0xbe8662cf	-0.2624726
61	0xbf2b8938	-0.67006254
62	0x3ec46e87	0.38365576
63	0x3f77e234	0.96829534
64	0x3e8ff080	0.28113174
65	0x3f22446b	0.6338565
66	0xbf1dc849	-0.61633736
67	0xbf4ce7e8	-0.8004136
68	0xbf899380	-1.0748138
69	0x3d9f07b0	0.07765138
70	0xbe81f08f	-0.25378844
71	0xbddcfd24	-0.1079047
72	0x3f22f656	0.6365713
73	0x3ee1216e	0.43970817
74	0xbf388a07	-0.72085613
75	0xbe56d1f0	-0.20978522
76	0xbf4d44c7	-0.8018307
77	0x3f942e59	1.1576644
78	0x3f50fdb3	0.81637114
79	0x3e801051	0.25012448
80	0x3e852d40	0.26011086
81	0x3f0f5f41	0.5600472
82	0xbf40e509	-0.7534948
83	0xbedf4543	-0.4360753
84	0xbcd3e138	-0.025864229
85	0x3e655a58	0.22397745
86	0xbdb6f4e5	-0.08933429
87	0xbcdd01f0	-0.026978463
88	0x3e989986	0.2980463
89	0xbe415f5b	-0.18884031
90	0xbf6cb916	-0.9246992
91	0xbea1dcbf	-0.31613728
92	0xbe9d55f5	-0.30729643
93	0xbdae6d61	-0.08516956
94	0x3f3befe6	0.7341293
95	0x3f2511a6	0.64480054
96	0x3f1486c5	0.5801814
97	0xbf423e81	-0.75876623
98	0x3e6897d5	0.2271417
99	0xbd8ab2bf	-0.06772374
100	0xbdda3bae	-0.10655914
101	0x3d82410c	0.06360063
102	0xbe4fd4d3	-0.2029603
103	0x3eb0e6e4	0.34551156
104	0xbea02bfa	-0.3128355
105	0x3e5bee32	0.21477583
106	0x3ee2e9a4	0.4431888
107	0x3f01a16c	0.50636935
108	0x3f314484	0.6924517
109	0x3e37411f	0.17895935
110	0xbe42dab3	-0.1902874
111	0x3f3cbf68	0.7372956
112	0x3f6ff27d	0.9372938
113	0xbe8f17ce	-0.2794785
114	0xbf35967b	-0.7093274
115	0xbe1a4234	-0.15064317
116	0x3f0fa6a6	0.5611366
117	0x3f2c0f59	0.6721092
118	0x3d896d14	0.06710258
119	0x3f2d821d	0.6777666
120	0x3e852a44	0.2600881
121	0x3e05dad7	0.13071762
122	0x3f8737d9	1.0563918
123	0x3c11756f	0.008878096
124	0xbf282940	-0.6568794
125	0x3ea6e80f	0.32598922
126	0xbf01a01b	-0.50634927
127	0xbe65f9de	-0.22458598

net.5.running_var f4 [128]
0	0x3ef17dd1	0.47166303
1	0x3f33ea23	0.7027914
2	0x3f1b8b4d	0.6075943
3	0x3ef6ff00	0.48241425
4	0x3eb74245	0.35792747
5	0x3f09f747	0.5389294
6	0x3f045b91	0.5170222
7	0x3f1c4332	0.6104003
8	0x3e803509	0.25040463
9	0x3e9817b1	0.29705575
10	0x3edb9e58	0.42894244
11	0x3f7d1283	0.9885637
12	0x3e9ff284	0.31239712
13	0x3edfe42c	0.4372877
14	0x3f0a4080	0.5400467
15	0x3ec34227	0.38136408
16	0x3e9a5d06	0.30149096
17	0x3f2ef0ea	0.68336356
18	0x3ef97f3e	0.4872989
19	0x3f13d394	0.5774472
20	0x3eaf5e4a	0.34251624
21	0x3eeac20a	0.45851165
22	0x3f3d0f8c	0.7385185
23	0x3ea797ca	0.32732993
24	0x3ed1856d	0.40922108
25	0x3e600d9a	0.21880189
26	0x3f3ba6ef	0.73301595
27	0x3eda458d	0.42631188
28	0x3f2c0173	0.6718971
29	0x3eabb45a	0.33536035
30	0x3eea2267	0.45729372
31	0x3ef97fe1	0.48730376
32	0x3f737989	0.9510732
33	0x3eae77d4	0.34075797
34	0x3f738798	0.95128775
35	0x3efad55e	0.4899091
36	0x3f2a663a	0.66562235
37	0x3edbd0b0	0.42932653
38	0x3f06dac6	0.5267757
39	0x3eb65972	0.35615116
40	0x3f439e4d	0.7641342
41	0x3ec63b95	0.38717332
42	0x3e87e893	0.26544628
43	0x3f5aa2ce	0.8540467
44	0x3f0ad8af	0.5423688
45	0x3f4b9342	0.7952157
46	0x3e9a1e42	0.3010121
47	0x3ecc5ea8	0.39915967
48	0x3edca58f	0.4309506
49	0x3f5d7fdf	0.8652324
50	0x3f047512	0.51741135
51	0x3ee60f89	0.44933727
52	0x3f0a3e21	0.5400105
53	0x3ef67868	0.48138738
54	0x3ec6b3ae	0.3880896
55	0x3f0065cc	0.5015533
56	0x3f52cab4	0.8234055
57	0x3e9bac9c	0.30405128
58	0x3f1ef790	0.620965
59	0x3ec8f895	0.39252153
60	0x3eb6d7c2	0.35711485
61	0x3ea9b7ff	0.3314819
62	0x3ec13e0a	0.37742645
63	0x3f555af1	0.8334189
64	0x3f33e64f	0.702733
65	0x3ead1ffa	0.3381346
66	0x3ed140b7	0.40869686
67	0x3f2c14da	0.67219317
68	0x3f319cd0	0.693799
69	0x3ed9123a	0.42396718
70	0x3e99b2c3	0.30019197
71	0x3f3e086b	0.74231595
72	0x3eed0dc1	0.46299556
73	0x3f20e781	0.62853247
74	0x3ee3dcac	0.44504297
75	0x3efb4c8a	0.49081832
76	0x3ed7b380	0.42129135
77	0x3f2a9960	0.6664028
78	0x3f1294be	0.5725821
79	0x3ebbe345	0.3669683
80	0x3f1c43a0	0.6104069
81	0x3f213dde	0.62985027
82	0x3ee174c1	0.4403439
83	0x3f2a56df	0.66538805
84	0x3f08cecd	0.5344055
85	0x3ebb77e0	0.36614895
86	0x3f8651fb	1.0493768
87	0x3ea9b853	0.3314844
88	0x3e82e626	0.25566214
89	0x3ea1db75	0.31612745
90	0x3ec1954b	0.37809214
91	0x3ec41ed9	0.38304785
92	0x3ec78de1	0.38975433
93	0x3f4045cd	0.7510651
94	0x3f1012d1	0.5627871
95	0x3ece2faf	0.40270755
96	0x3ecaf951	0.39643338
97	0x3ef9b530	0.48771048
98	0x3edd0f7f	0.43175885
99	0x3ee7d4bb	0.45279488
100	0x3ef509de	0.4785909
101	0x3ebfef85	0.37487426
102	0x3f39a5f2	0.7251884
103	0x3f2a113f	0.66432565
104	0x3ee31113	0.44348964
105	0x3f0b78a0	0.54480934
106	0x3e89392f	0.2680144
107	0x3f3dcdff	0.7414245
108	0x3f0a0da8	0.5392709
109	0x3f27fc35	0.6561921
110	0x3f576fe6	0.8415512
111	0x3edfa06a	0.43677074
112	0x3f19aa68	0.60025644
113	0x3edd7ae1	0.43257812
114	0x3ebcc16a	0.36866313
115	0x3f39c87b	0.72571534
116	0x3f05584e	0.5208787
117	0x3eac28d2	0.33624893
118	0x3edc86b9	0.43071535
119	0x3eff63a6	0.49880713
120	0x3ed61f62	0.41820818
121	0x3f44d479	0.7688671
122	0x3f050dfd	0.5197447
123	0x3eb49af5	0.35274473
124	0x3f18886d	0.5958317
125	0x3f01b0a0	0.50660133
126	0x3f6476a5	0.8924354
127	0x3e7d917f	0.24762534
